Predict/Model/Fold5_best_model.pkl (torch_old, 172687 bytes, 13 tensors)

gcn.gc1.weight f4 [94, 256]
00000000: bf24 37bb 36e8 49bd beb0 f63c a39c b4bc
00000010: c563 84bc 9f96 843c e84a 513d 02cd db3b
00000020: 0d2a 28bd df2e 96bc 442c af3b 5f83 963c
00000030: e86e 40bd aec8 43bd ef1e c83c 9b50 c5bb
00000040: 4841 893d 1b33 5bbd 3acf c33c 7ba0 823c
00000050: 9587 febb 9a4d b53c 3aff 47bc c64e 413d
00000060: 27ac 29bd 7787 2d3d 384c 643d aa3a b73d
00000070: 1259 dd3c d53a 4bbd 8111 d3bc f6ce 69bc
00000080: dd4c 8dbd f666 a7bc 74fe a2bc b9d7 da3c
00000090: 1aa9 693c 6d28 5bbd ecb0 863c 49ed 543d
000000a0: 6ec3 f1bc b04f 1cbd 2ddb 93bd 54ef b13c
000000b0: b28c 3abd 7fc1 0a3c b105 5d3c e555 0dbd
000000c0: 1d68 b5bd d516 7dbc 2fa0 a03c 6202 233c
000000d0: 9a7e 4c3d 70d8 653b 7bb0 69bd a7cd 3c3d
000000e0: 90c8 03bd 518d 253c 9d08 bfbc 0e25 1b3c
000000f0: dcf6 4b3d f293 deba 6e3f 863d 52e0 813d
00000100: 6a50 55bd f6da 4d3c 6785 e3bc 6f5b 19bd
00000110: 9e7b ef3c 5ce7 833c 0b85 c7bc 78ad da3b
00000120: fbf0 68bd 9182 37bc 9643 6b3d b275 353c
00000130: 414d 9fb8 c923 e33c 5515 4cbc 41dc c63b
00000140: 0a85 c13c 8eaf 9a3d 9d38 1c3d dce0 473c
00000150: 4e9b 38bd 65ea 3ebd 59b0 efbb a87e 82bd
00000160: 1781 4bbb 2403 d3bc d9b0 7ebc 18ba ba3b
00000170: 9420 233d acd7 8a3d f2d6 36bb 08a8 533d
00000180: 18a1 653d faa8 1a3d 7b93 343b c171 513d
00000190: a4c5 d9bc a923 63bd 8727 833b e495 7e3d
000001a0: ab94 053d e056 8fbd 6927 82bd 0570 573c
000001b0: 0d59 903c f542 9bbc a8a5 82bc db8f 11bd
000001c0: 0bb1 cebc e709 873c 938c 7c3d 29cc 1abd
000001d0: 2751 65bb 9cfe 133d ec8f 62bc 0713 0fba
000001e0: bc96 2cbd 22bf 7cbc f269 1bbd a73a 9b3c
000001f0: 943a 2abd c709 74bc 7751 d2bc 5d63 02bd
00000200: 5108 83bd d489 993c 44f4 95bd 5119 b3bc
00000210: 1c25 92bb ad4b 2fbb 9102 b13c 8bae 1b3d
00000220: a736 143d 0906 0cbc ca0b 38bd 832a c2bc
00000230: 01ad 133d 5355 59bd b289 01bd 4eb3 a13b
00000240: 4108 033d 02d4 a8ba b3ac 9b3d 2c9c 39bc
00000250: 7c58 8f3c 6cca 1dbd bbf6 60bd 84d1 67bd
00000260: bcd4 73b9 e8ca e73d a13a 73bd b812 8eba
00000270: b29e 8cba 032b 24bd 44ba 503d 0337 2cbd
00000280: 96e4 2ebb b56b 16bd 5ffd 69bc 5520 613d
00000290: 22a1 603c acbf 163c 7748 e0bc 8958 a93b
000002a0: 898f f33b 18c0 0e3c 8599 f13a 8153 2cbc
000002b0: 8fcd bb3c f2df f4bc 16e4 3cbd 3854 423d
000002c0: 4c27 eb3c eabc 1fbd 6aa0 84bd 2c87 00bc
000002d0: 0d62 973c 4783 68bb 53f7 e53c 7fd7 5c3b
000002e0: d83e e13c a779 ffba d1c2 76bb ef58 c43c
000002f0: 3954 9fbb b8d8 b63c f521 913c 4ad8 babc
00000300: cd5f 443c 7380 0abd 331f 83bd 317d aabc
00000310: b3c8 a83c 6d56 9c3c 0976 74bd d77d 1e3d
00000320: 35f1 a53c dbee 743c 1232 12bd 7c55 09bd
00000330: 4795 a9ba baa6 10bd e35f 56bd a2ff eabc
00000340: 8247 05bd 3692 04bb 3adb ad3c 9763 dabd
00000350: baf2 3d3d 795e 043d 593f 283d b2e6 fc3c
00000360: 2621 ac3c ce1b 893b 5900 cc3c 397c 333c
00000370: 2e92 f13c be9a b83c e0cd 193d 5c86 083d
00000380: 07a1 debb 5a7a fbbc 636b 8e3d 977d 483d
00000390: 1e2f 0c3d 953c 733c e043 6c3a 0e1d f7bb
000003a0: 0881 cc3b a68b 823b 5e11 343d 0eb0 42bb
000003b0: af5b 31bc 17f1 c9bb ce48 5dbd 370d a63c
000003c0: 5711 ac3c 96bd e2bc a7c5 e63c 40d8 57bc
000003d0: 288a 16bd 75b3 953c 8ea3 343d 31ea f73c
000003e0: 897b 2fbd f863 5ebc 2461 aa37 508e 4bbd
000003f0: e085 153c 1dda 9dbd 8ef6 65bd 9e2e 8e3d
-0.0027945486 -0.04929372 0.030113574 -0.022047346 -0.016160855 0.016185103 0.051096827 0.0067077884
-0.041055728 -0.018332897 0.005345853 0.01837319 -0.04698077 -0.047798805 0.024428813 -0.006021572
0.067019045 -0.053515535 0.023902524 0.015945664 -0.0077676275 0.02213173 -0.012206847 0.047194265
-0.041423943 0.042365517 0.05573675 0.08946736 0.027020011 -0.049616653 -0.025765182 -0.014270535
-0.06899426 -0.020434838 -0.019896723 0.026714193 0.014261508 -0.05350535 0.016441785 0.051984105
-0.029512133 -0.038161933 -0.07219539 0.021720566 -0.045544334 0.008468985 0.0134901265 -0.034505744
-0.08857749 -0.015447338 0.019607631 0.009949299 0.049925424 0.0035071634 -0.05705307 0.046094563
-0.032173693 0.010104493 -0.023319537 0.009469284 0.04979597 -0.0016981347 0.06555067 0.06341614
-0.052078642 0.012564411 -0.027773572 -0.037440713 0.02923375 0.016101532 -0.024355432 0.006673511
-0.056870442 -0.011200563 0.0574375 0.011075424 -7.5961005e-05 0.027727025 -0.012456258 0.006068737
0.023623008 0.07553016 0.038139928 0.012199607 -0.045069985 -0.046610255 -0.0073147235 -0.06371814
-0.0031052285 -0.025758334 -0.015545093 0.0056984536 0.03982599 0.067794174 -0.0027899113 0.05167392
0.056061834 0.037758805 0.0027553726 0.051133875 -0.0265835 -0.05545393 0.0040025148 0.062154666
0.032612484 -0.06998992 -0.06355173 0.013149266 0.017620588 -0.018952826 -0.015948132 -0.035537582
-0.025230905 0.016484214 0.0616575 -0.03779236 -0.0034990998 0.036131486 -0.013828259 -0.00054578524
-0.04213594 -0.015426429 -0.037942834 0.018948866 -0.04155977 -0.014894909 -0.025673611 -0.03183304
-0.063980706 0.01874248 -0.073219806 -0.021862658 -0.00445999 -0.0026747987 0.02160767 0.038008254
0.036184933 -0.008546361 -0.044933118 -0.023701912 0.03605366 -0.053059887 -0.031625457 0.004934705
0.031990293 -0.0012880566 0.07601299 -0.011328738 0.017498247 -0.038523123 -0.0549228 -0.056596294
-0.00023253536 0.11317998 -0.059382085 -0.0010839319 -0.0010728447 -0.04008008 0.050958887 -0.04204465
-0.002668654 -0.03672381 -0.0142816 0.054962475 0.013710292 0.009200972 -0.027378304 0.005168025
0.007432882 0.008712791 0.0018432593 -0.010517956 0.022925166 -0.029891942 -0.046115957 0.0474436
0.028705262 -0.038998522 -0.06475909 -0.0078447275 0.018479371 -0.0035478638 0.028072035 0.0033697782
0.027495787 -0.0019491211 -0.003765274 0.023968188 -0.004862335 0.022320136 0.017716387 -0.022808213
0.011985731 -0.033813905 -0.06402435 -0.020811649 0.020603513 0.01908418 -0.05968288 0.03869423
0.020256618 0.014949526 -0.035692282 -0.03352879 -0.0012938165 -0.035315253 -0.05233754 -0.028686348
-0.0325389 -0.002022875 0.0212227 -0.106635265 0.04637406 0.03231666 0.041076038 0.030871723
0.0210119 0.004184223 0.02490251 0.01095491 0.02948865 0.022534724 0.037549853 0.03333126
-0.0067940983 -0.03069799 0.06954076 0.048947897 0.034224622 0.014845987 0.00090128 -0.0075413054
0.0062409677 0.0039839325 0.043961875 -0.0029706988 -0.010825082 -0.0061627734 -0.05402451 0.020269973
0.021004362 -0.027678292 0.02817042 -0.013174117 -0.03675285 0.018274048 0.04410129 0.030263038
-0.04284242 -0.013573639 2.0310814e-05 -0.049696267 0.009126157 -0.077076174 -0.056143336 0.06942485

gcn.gc1.bias f4 [256]
00000000: a340 213d ab07 0b3b e22d bd3c 8aa8 85bb
00000010: 2543 3dbd 9ba9 0dbd d830 48ba a2a9 c23c
00000020: 47a8 29bd 0e5a 42bb 2d96 e2bc 394a 2cbd
00000030: 393d a53c ea44 e43c 71f7 3fbd cea1 bbbc
00000040: 9e74 36bd 459e e83b 37a3 ac3c 0178 e5ba
00000050: 2e68 403d 97ed f3bc 9367 223c 1119 533d
00000060: d783 8cba 5da6 0b3d 1286 1abc d55b 2f3d
00000070: cd49 95bc 353b b93c 53dd 4f3d 0a2e 443d
00000080: 092a 8cbc ee25 53bd 170a a0bc 28bc 11bb
00000090: b957 d13a 9a16 c83c 36e7 0abb f87d d13b
000000a0: edf8 373d 3049 5fbc c275 b5bc e3b8 de3b
000000b0: cbb0 823b dfaf f7bc 0907 7dbc 54c7 253d
000000c0: 5ab8 71bb 321f 383d 36ba 903d 1dbd caba
000000d0: a16e 343d 7f2b d93c 121d 4c3c 9dfe 123d
000000e0: aea5 143d 12ce 40bd db36 1bbb 9ba5 553d
000000f0: 5921 5cbd c3fa 3d3d d96c c1bc 5e2c b43c
00000100: 3b39 f93c 19b8 053c 25a9 1a3d 6f8d f03c
00000110: a9a3 35bd 4f4a 9dbc c615 eebb 436a a8bb
00000120: 4b4b 27bd 8a16 e0bc 8205 133d b737 87bc
00000130: 1e6b 263c 94a5 3abd 523a 2d3d 2c6c 3e3c
00000140: d07a 4c3c 49eb 16bd 3188 5fbd 2b20 923c
00000150: 8ce3 3bbc 8977 11bc 4008 5abd 2c50 45bd
00000160: 415f e4bc 1ee6 47bb 608e 1e3c 324c 0cbc
00000170: 2dda 813d 0d4e e5bc 2b58 49bc a25e d7bc
00000180: 173f 013c b20e 48bc 4478 513c ba21 d6bc
00000190: cef8 2cbc cb81 76bd 9f68 683c 2903 4ebc
000001a0: 9566 073d 814f b33c b326 2e3d 125b adbc
000001b0: 0c1a 1abc f4fc 233c a094 2d3d d0ec e23c
000001c0: de97 4ebd f9c4 573c 93a7 613d 452e b03c
000001d0: 6120 80bc 2b1d 42bc f483 313d c488 143d
000001e0: ccd1 fc3c 2b7a 2b3d d7d8 bbbc fe33 fbbc
000001f0: fe81 483d de1e 423b aaee 1cbc ff48 75bc
00000200: bfd1 0f3d 24a5 ad3c fbca 38bc d83b 25bd
00000210: e260 68bd e57b 553a 2658 a7bc f8cb 48bd
00000220: 2476 bfbc 4f19 d7bc 46a1 cb3c 20ff 183c
00000230: 94a1 20bd 5fb4 09bd 8e80 c23c 935d 07bd
00000240: 6e3e 443d 3ff5 473d be2c 473c 0d2c 29bd
00000250: aeea 10bd d4d3 1dbd 6e77 81bc 2319 fd3b
00000260: e47c e1bc 0ffe 40bc c8a2 8a3b 2a9b 463d
00000270: 726c 903c 6d8f 333b 0fa8 5b3d 8b44 db3c
00000280: 97df d13c 5e33 a8bc 95f8 853c 8446 de3c
00000290: d0e6 92bc d3cf 1b3d b51b 243d 701b 51bd
000002a0: d37d cb3c d7b0 07bb 154f 3fbc 8ba5 15bd
000002b0: e1ab b53c 15db 893b d940 99bc 0b81 69bc
000002c0: 7898 1bbd 3b2b 373d de85 653d 8771 b1bc
000002d0: 977d 833c 8caf 34bd 2872 94bc 1589 5abd
000002e0: 28bc d53c 1e4f e9bc 00ba 4bbd 6da8 fe3b
000002f0: 8169 733d 465d ed3b 4a06 823d b9ac eeba
00000300: 4e8e 503d 8485 8dbb b255 95bc 62e8 bf3c
00000310: 4df3 173c d36c 013d 0752 36bc 50af f43c
00000320: 0c84 0e3d b4fa f3bb 3591 cc3a 28a4 21bd
00000330: 3e16 c73c 9325 cebc 2520 983c f727 d33c
00000340: e16f ff3c b0c1 323d 7e5a 9b3b 3ea3 5f3c
00000350: da5d e83c 3f40 20bd 60ef 273d 63c1 293d
00000360: 2b39 be3c 83da 153d fb05 4dbd a025 2c3d
00000370: 5322 34bb 0239 873c d1be 70bd 604d 0f3b
00000380: edb3 d13c ca18 e53c c5ba 993c c4a7 093d
00000390: aa04 f0bc 3d05 1d3d 2725 233c a072 383c
000003a0: ab9d 49bc 62a5 083d 69f6 e6bc f103 8cbc
000003b0: 26de 1fbd 41c6 543c 64ab 09bc e453 5abc
000003c0: 6714 a63c 2902 833c 614d e6bc a8bb f63c
000003d0: ee36 353d 01c0 86bc f447 89bc f337 ca3c
000003e0: 2e1b 74bc 977a e83a 052f e9bb edb1 373d
000003f0: 29e4 183d 909c 4d3d 767d ccbc 6d3e b23c
0.039368283 0.0021214287 0.023093168 -0.0040789293 -0.046206612 -0.034585577 -0.0007636673 0.023762528
-0.041420247 -0.0029655728 -0.0276595 -0.04206297 0.020170795 0.027864892 -0.046866838 -0.022904303
-0.04454481 0.0070989453 0.02107392 -0.0017507077 0.046974353 -0.029776378 0.009912389 0.051537577
-0.0010720444 0.034094203 -0.009431379 0.042812187 -0.018223668 0.02261124 0.05074818 0.04789547
-0.017109888 -0.051549844 -0.019536061 -0.0022237394 0.0015971578 0.02442484 -0.0021194941 0.0063931905
0.04491513 -0.013628289 -0.022150878 0.0067969426 0.0039883605 -0.030235229 -0.015443572 0.040473297
-0.0036883564 0.044951625 0.07066767 -0.0015467737 0.044050816 0.026509998 0.012458103 0.03588735
0.036290817 -0.047071524 -0.002368382 0.052159887 -0.05374274 0.046381723 -0.023611473 0.021993812
0.030422797 0.008161568 0.037758965 0.029364316 -0.04434553 -0.019200472 -0.007265779 -0.0051396205
-0.04084329 -0.027354497 0.035893925 -0.01650606 0.010157375 -0.045568064 0.042291947 0.01162247
0.012480453 -0.03684548 -0.05457324 0.017837605 -0.011467826 -0.008878597 -0.053230524 -0.04817216
-0.027877452 -0.003050215 0.0096774995 -0.008563088 0.06340442 -0.02799132 -0.012289087 -0.026290242
0.007888577 -0.012210535 0.012785021 -0.026139129 -0.010557367 -0.060182374 0.0141851 -0.012573996
0.033056814 0.021888496 0.042517375 -0.02116159 -0.009405624 0.010009039 0.042378068 0.027700812
-0.0504378 0.013169521 0.05509145 0.021506438 -0.01564044 -0.0118477745 0.04333873 0.036263242
0.030861758 0.041864555 -0.022930546 -0.03066444 0.048952095 0.002962045 -0.009578386 -0.014971017
0.03511214 0.02119691 -0.011278863 -0.040340275 -0.05673302 0.0008143767 -0.020427775 -0.049022645
-0.023371764 -0.026257185 0.024857175 0.00933817 -0.039216593 -0.03361928 0.02374294 -0.033048224
0.0479111 0.04881787 0.012156663 -0.041301776 -0.035380058 -0.038532093 -0.015804019 0.007723944
-0.027525373 -0.011779322 0.004230831 0.04848782 0.017629836 0.002739872 0.05362707 0.026766082
0.025619311 -0.020532306 0.016353885 0.027133234 -0.017932326 0.038039993 0.040065486 -0.051051557
0.024840271 -0.002070477 -0.0116765695 -0.036534827 0.022176685 0.004207025 -0.01870768 -0.014251958
-0.037987202 0.044718962 0.05603587 -0.02166058 0.016051097 -0.044112727 -0.01812084 -0.053353388
0.026090696 -0.028480109 -0.04973793 0.0077715428 0.05942679 0.007243785 0.06348856 -0.0018209434
0.050916962 -0.004318895 -0.01822934 0.023426238 0.009274316 0.031597923 -0.011127955 0.029868752
0.0347939 -0.0074456576 0.001560724 -0.039463192 0.024302598 -0.025164401 0.018570015 0.025775893
0.031181278 0.043641746 0.004741012 0.01364976 0.028365064 -0.03912377 0.04099977 0.041444194
0.02322062 0.036585342 -0.05005453 0.04202807 -0.002748628 0.016506676 -0.058775727 0.0021866187
0.02559849 0.027965922 0.018765816 0.03360726 -0.029299099 0.038335074 0.009957588 0.0112577975
-0.012305657 0.033360846 -0.02819367 -0.017091723 -0.039030217 0.012986721 -0.008402679 -0.013325665
0.0202734 0.015992241 -0.028113069 0.030118778 0.04424184 -0.016448976 -0.016757943 0.024684882
-0.014899058 0.001773673 -0.007116201 0.044847418 0.037326965 0.050198138 -0.024962168 0.021758283

gcn.ln1.weight f4 [256]
00000000: f3f2 603f 308f 573f d896 473f 0938 443f
00000010: a65f 623f 5cbf 653f 2210 1d3f a70c 733f
00000020: dc77 6c3f 457f 5b3f 8be6 5a3f ae97 5e3f
00000030: 7186 603f 79b4 363f 2a1e 523f aca3 233f
00000040: b5e1 753f f8b9 4f3f f7e3 533f 0fbf 5a3f
00000050: 4380 4e3f 29a4 5f3f 5e62 703f c45a 553f
00000060: abfd 393f 1419 6e3f 86fa 543f 09f0 593f
00000070: 6078 5f3f f8d5 6e3f 5359 7a3f a28f 673f
00000080: 3048 463f 3a95 623f 3596 623f e20d 6d3f
00000090: d838 563f 059b 533f ea8f 263f 9068 633f
000000a0: c3ca 663f f826 623f c8e7 673f ec0c 723f
000000b0: c910 733f 98c9 4a3f c4f1 683f 2357 6a3f
000000c0: 027c 5f3f a735 363f 20b4 3e3f da85 743f
000000d0: 4213 723f 322f 483f 2374 1b3f 5c29 4f3f
000000e0: 26cd 6c3f 07c4 733f cfbe 363f 35df 683f
000000f0: bd53 603f 005c 553f e3a4 233f 559f 5d3f
00000100: 5964 763f 01bd 403f 80cc 633f df21 3a3f
00000110: aa02 373f 45bf 583f 267a 2b3f 88f9 413f
00000120: 07c5 333f 0e46 5e3f 636c 533f a7a6 5d3f
00000130: c866 713f 3cb0 6e3f bb2f 633f dfa5 5e3f
00000140: 1b1a 103f 1ca4 383f 6dfc 633f 35b3 633f
00000150: 8ed9 6e3f d6e0 4e3f effd 643f ddeb 483f
00000160: d0dc 743f 9fe9 2b3f b6fe 5b3f bfec 213f
00000170: 2a3c 4a3f 5457 403f 672d 633f 4540 5d3f
00000180: c144 6e3f 1ef8 303f f24b 3d3f fbec 463f
00000190: c28b 663f eeed 553f f649 543f 629e 3d3f
000001a0: 81d9 653f ab7f 3a3f 39c6 423f bd4c 5a3f
000001b0: 24b0 4b3f e5e1 693f cf8e 553f b775 4a3f
000001c0: 3b25 563f 45e6 153f e2bf 673f cac5 6f3f
000001d0: 0015 273f 599d 623f 3013 463f 9bd7 253f
000001e0: 2b39 203f 1760 023f ec52 3e3f 0a80 5d3f
000001f0: 622c 543f cbb9 743f 6883 713f c2b7 413f
00000200: 482b 423f bbca 4d3f fe0a 4d3f 5be8 6d3f
00000210: 8698 663f 03d5 6c3f 2efc 573f c709 683f
00000220: e6a3 533f f72d 643f 9957 5e3f c311 423f
00000230: 4091 5d3f 2a5c 5a3f 8dc4 793f c579 563f
00000240: e272 423f f8c9 6f3f 570a 6f3f 0f18 553f
00000250: 5052 343f 3a60 5d3f 890c 513f 76fa 523f
00000260: 8dc2 573f 4dc9 3e3f b1de 763f 7a8c 6b3f
00000270: 9575 383f 7585 473f 74da 5e3f 65c0 6d3f
00000280: bc4e 6c3f 5ca2 5b3f 3fd6 283f 1f1b 4f3f
00000290: 3857 343f b5ad 483f 55b7 4e3f aa93 503f
000002a0: 9248 593f 0ef3 373f a315 f83e 4876 253f
000002b0: b5f0 4d3f 1198 523f 7b49 5d3f 89d7 653f
000002c0: 2393 1c3f 5a00 363f aeda 773f cb14 5c3f
000002d0: 9b5c 473f 6cbb 473f a369 503f 87a4 633f
000002e0: 32fe 3c3f 2ff5 4f3f 70e4 2c3f 58b8 493f
000002f0: 714e 673f a2aa 763f a142 4f3f 90dc 4e3f
00000300: 18ef 5c3f 3c56 533f 2963 613f 5601 663f
00000310: 553e 633f 9bc1 413f 9833 413f 6a9d 5a3f
00000320: c2ea 673f 7013 5f3f 44dd 743f 7b6d 3f3f
00000330: 75ef 1b3f 1e11 143f 60e0 2f3f 1729 633f
00000340: d8a5 613f 3a81 253f 721f 513f cfdf 693f
00000350: 4856 5f3f 9e23 6c3f 202f 373f 28ee 5a3f
00000360: ccd6 3e3f 3d83 403f 6645 363f 6d20 393f
00000370: c77e fb3e 31d1 613f dc96 613f 4ddb 5b3f
00000380: adbb 643f 89cb 5f3f b6fd 4b3f 3acf 6f3f
00000390: ff7a 2d3f 53ea 643f 9548 2e3f 8c29 3e3f
000003a0: ff48 403f aa91 633f de9f 4c3f d2b1 733f
000003b0: e541 713f be33 603f 6227 553f a897 2f3f
000003c0: ab60 503f a51a 663f 275f 173f f0c9 573f
000003d0: b7ac 633f f365 103f 393a 743f 4acf 703f
000003e0: 69b6 2d3f 290a 543f 4e0e 643f fa7a 4c3f
000003f0: a7f6 2c3f 229b 733f 5478 6a3f 01dc 493f
0.8787071 0.8420286 0.77964544 0.76648 0.884272 0.89745116 0.6135274 0.9494118
0.9237039 0.8574107 0.8550803 0.86950195 0.8770514 0.7136913 0.82077277 0.6392162
0.96047527 0.8114314 0.8276972 0.8544778 0.8066446 0.87359864 0.93900096 0.8334162
0.7265269 0.93007016 0.8319477 0.8513189 0.8729305 0.9329524 0.9779255 0.9045354
0.774539 0.8850895 0.8851045 0.9259931 0.83680487 0.82658416 0.65063345 0.88831425
0.9015314 0.8834071 0.90588045 0.9455097 0.9494749 0.7921386 0.90993905 0.9153921
0.87298596 0.71175617 0.744936 0.9551674 0.94560635 0.78197014 0.60724086 0.80922484
0.9250053 0.9522099 0.713849 0.90965587 0.87627774 0.83343506 0.6392347 0.86571246
0.9624687 0.752884 0.8898392 0.72707933 0.7148844 0.84666854 0.6698326 0.7577138
0.70222515 0.86825645 0.8258726 0.86582416 0.94297457 0.9323766 0.88744706 0.8697185
0.56289834 0.7212541 0.89057046 0.88945323 0.9330071 0.8081182 0.8944997 0.784849
0.95649433 0.6715335 0.85935533 0.6325187 0.78998053 0.7513325 0.88741153 0.8642619
0.9307366 0.69128597 0.7394401 0.77705353 0.90057003 0.83566177 0.82925355 0.740698
0.8978501 0.72851056 0.76083714 0.85273343 0.79565644 0.9136031 0.83421034 0.7908587
0.8365056 0.5855449 0.90527165 0.9366118 0.6526642 0.88521343 0.7737303 0.6478211
0.6258723 0.5092787 0.7434528 0.865235 0.8288022 0.95596 0.94341135 0.7567102
0.7584729 0.8038747 0.800949 0.9293267 0.9007648 0.9251253 0.8436917 0.9063992
0.82671964 0.89132637 0.86852413 0.7580835 0.8654976 0.8529688 0.9756554 0.83779556
0.7595655 0.93667555 0.9337515 0.83239836 0.704381 0.86474955 0.8165975 0.82413423
0.84281236 0.7452591 0.9643355 0.92011225 0.72054416 0.77938014 0.87052083 0.92871696
0.9230764 0.85794616 0.65951914 0.8090076 0.70445585 0.78390056 0.8074849 0.8147532
0.8487636 0.7185525 0.48454008 0.6463361 0.80445415 0.82263285 0.8644025 0.89782006
0.6116201 0.71094286 0.96818054 0.8596923 0.7787568 0.7802036 0.8141119 0.88922924
0.7382537 0.81233495 0.6753607 0.7879691 0.9035407 0.96354115 0.8096104 0.808053
0.8630233 0.8255346 0.8804193 0.8984579 0.88766986 0.75686044 0.7546935 0.85396445
0.90592587 0.87139034 0.95650125 0.7477643 0.6091226 0.5783862 0.68701744 0.88734573
0.8814368 0.6465031 0.81688607 0.9135713 0.8724103 0.9224185 0.7155628 0.8551965
0.74546504 0.75200254 0.71199644 0.723151 0.4912016 0.88209826 0.8812082 0.858815
0.8934887 0.87419945 0.7968401 0.9367558 0.677658 0.8942005 0.680795 0.74282146
0.75111383 0.8889414 0.7993144 0.9519321 0.9424117 0.8757895 0.8326322 0.68590784
0.81397504 0.89884406 0.59129566 0.8429251 0.88935417 0.5640556 0.9540134 0.940663
0.6785646 0.82828003 0.8908433 0.7987515 0.6756386 0.9515859 0.91589856 0.78851324

gcn.ln1.bias f4 [256]
00000000: 0e05 8bbc 87aa cebb 8cc1 8fbc 40e8 0dbc
00000010: e784 26bb f2b0 fa3b ef56 9bbc 8d34 08bc
00000020: 6385 be3b 0ba7 75bc e47e afbb da21 4fbc
00000030: 16be 69bc 98b0 23bd b42e 0fbc 3448 6fbc
00000040: 9b92 70bb bc41 30bc 6a37 63bc 1226 60bc
00000050: 5fc3 c9bc f4d5 8bbb c1b2 29bc 85ac ecbc
00000060: ae94 15bd fda5 4cbb 25ec acbc 2970 e6bc
00000070: 4e10 87bc 70ff 81bc 696e 13bc c9ff 4abc
00000080: e95f 95bb a1c4 dbbb 5222 04bc 46b3 ffbb
00000090: 2897 e6bc dd9b 1cbd dc42 2bbd 5d04 23bb
000000a0: edb4 93bb fe25 c0bb 0016 47bc 4509 d1bb
000000b0: f994 50bc 9f8b a2bc f703 d4ba d88c 77bc
000000c0: 31d7 85bc 30a1 4abd ea02 96bc 7d7b df3a
000000d0: 5bdc 12bc 2e35 c7bc 3aa6 a1bc 751e 0ebd
000000e0: 5342 20bc 1629 73b9 4d66 0cbd b420 73bc
000000f0: ebca 5cbc 9007 eabc ab0d 8abc 4436 cbbb
00000100: e0fc 3fbc 00a1 b5bc fc59 70bc c575 4dbc
00000110: e6ce 3ebc 2e71 8abb a649 aabc f6a6 83bc
00000120: 3c9c 3fbc 2198 8fbc 8e77 50bc a625 f0bb
00000130: 00b9 02bc 2340 4cbc 77b8 bdbc fbb5 9fbc
00000140: 6d01 f1bc a8fd 11bb 55d6 15bc affc e1bb
00000150: bce5 5dbc b927 53bc da93 1ebc bf36 63bb
00000160: 8aa6 d5bb 2f65 40bc 2934 7ebc 19cf 45bc
00000170: f46b 32bc 69b9 cebb 6615 8abc dd9e 02bc
00000180: 3d75 10bc 753a 89bb 47eb 2ebb 37e5 74bc
00000190: 83f4 5bbc 9dd8 e3bb 9199 a2bc 05af 2ebc
000001a0: 0bd6 6cbc 335e b4bc b225 93bc 0846 a0bc
000001b0: f2c0 b1bc 6420 30bb d770 a2bc dc2c f1bc
000001c0: 307e 33bc e03b 20bd 2fdf 33bc 3886 13bc
000001d0: e5cb b6bc 51a6 9dbc 0a8d 98bc 6256 35bd
000001e0: b1dd 42bd dd59 5cbd 00d3 99bc 07f5 25bc
000001f0: 12af 03bd 22b2 dfbb 39c9 ecbb d93a ea34
00000200: fe33 02bd 1bf5 7cbc 4cbb 46bc d5e9 4fba
00000210: 7ca3 3ebc 1ff4 1cbc 0224 1db7 bce3 16bc
00000220: 4ff4 69bc 1f18 f6ba 6dd0 f5bb d28d 46bb
00000230: 11b8 f5bb d5b7 76bc 15ad a3ba f92d 28bc
00000240: 3ca7 2dbd 0fce 28bc cca8 11bc ee2c ef3a
00000250: f93b 9bbc 31ba 48bc a270 a4bc 65f8 8ebc
00000260: f2f2 62bc 7bb4 99bc 3a05 efbb d29a 8abc
00000270: 037b eebc 73b6 a8bc 3d36 8bbc 87ab 2ebc
00000280: 8817 13bc 6925 8ebc 7df4 99bc 0872 efbc
00000290: e772 74bc 4520 91bc d906 b7bc 2b63 48bc
000002a0: da82 0fbd 3546 87bc c38f c6bc 6f8c b8bc
000002b0: 072e 54bd 4020 34bc 04b2 32bc 14d7 4bbc
000002c0: 943f 0ebc afeb aabc abe7 1fbc 7d2b 0ebc
000002d0: 1ee3 84bc 4823 8bbc 4252 e4bb 0e02 56bc
000002e0: 4450 8fbc dbab 83bc 5057 69bc ed72 c4bc
000002f0: 1b18 1dbc 4fdc bdbb a632 91bc 9cfe bd39
00000300: a5b8 98bc 43d2 90bb 1176 74bc 73ce c1bb
00000310: deba 1dbc 2cdd 89bc f961 41bc 1a65 66bc
00000320: cddd 80bc 1c1d 15bc 75ad d0bb 10bf 3bbc
00000330: efa2 58bd 591c fabc b9fc 18bd 3711 1abb
00000340: a557 7ebc 1229 bdbc 2932 b7bc 2d53 22bc
00000350: 4343 bdbc f649 24bb 137f 7abc 1a82 e5bc
00000360: 328a ffbc 2cfe e8bc 3ecb 21bc e308 10bd
00000370: 2eda 64bc 2e51 24bc 9493 50bc 01cd 33b9
00000380: 1d06 f9bb dc2a bcbc ccac f6bc f9af 30bc
00000390: b907 5ebc 4e96 a8bc f7a9 9fbc ca97 09bc
000003a0: 1708 5fbc 0033 e6bb 38cf 01bc 545d 4cbc
000003b0: 84f3 483b 5584 a5bc 526d 80bc 7b27 dcbc
000003c0: 634d d9bc bfa3 90bc ae91 91bc 3d81 97ba
000003d0: c5df 98bc 3cdb bebc 57c0 baba 4c67 39bc
000003e0: d04d 13bd 4811 88bc 78bd 30bc 2fcb cdbc
000003f0: 7755 20bd e791 5fbc 88e3 47bc 91f5 babb
-0.016970184 -0.0063069495 -0.017548345 -0.00866133 -0.0025408806 0.007650488 -0.018962352 -0.00831331
0.005814241 -0.014993439 -0.0053557027 -0.012642348 -0.014266511 -0.039963335 -0.008739162 -0.014604617
-0.0036708477 -0.01075786 -0.013868192 -0.013680952 -0.024629293 -0.0042674486 -0.01035756 -0.028890857
-0.036518745 -0.0031226866 -0.021108696 -0.028129654 -0.016487267 -0.015868872 -0.008998492 -0.0123900855
-0.0045585525 -0.0067067896 -0.008064823 -0.0078033535 -0.028148249 -0.03823458 -0.04181181 -0.0024874427
-0.004507652 -0.005863904 -0.012151241 -0.006379279 -0.01273083 -0.019841967 -0.0016175498 -0.015109263
-0.016337963 -0.049470127 -0.018311936 0.0017050352 -0.00896367 -0.02431735 -0.019732583 -0.034697015
-0.009781438 -0.00023189592 -0.03427725 -0.01483934 -0.013476114 -0.02856806 -0.01685222 -0.0062015373
-0.011718005 -0.022171497 -0.014669891 -0.0125402855 -0.011646008 -0.004224918 -0.020787071 -0.016070824
-0.011694964 -0.017528595 -0.012723817 -0.007328707 -0.007978678 -0.012466463 -0.023159249 -0.019495955
-0.029419625 -0.0022276435 -0.009145339 -0.0068965773 -0.0135435425 -0.012887889 -0.009678805 -0.0034670082
-0.006520097 -0.011742874 -0.015515366 -0.012073302 -0.010889996 -0.0063087237 -0.016855907 -0.007972446
-0.008817014 -0.004187877 -0.002669053 -0.014947227 -0.013424995 -0.0069533125 -0.019848617 -0.010661845
-0.014455329 -0.022017574 -0.01796231 -0.019564644 -0.021698449 -0.0026874775 -0.019829197 -0.029440336
-0.010955378 -0.0391196 -0.010978504 -0.009004168 -0.022314021 -0.019244345 -0.01862194 -0.044271834
-0.047574703 -0.053796638 -0.01877737 -0.01012922 -0.032149382 -0.006826655 -0.007226136 4.3628714e-07
-0.031787865 -0.015439297 -0.012129616 -0.0007931267 -0.011635657 -0.009579687 -9.366313e-06 -0.00920957
-0.014279439 -0.0018775499 -0.007501653 -0.0030296934 -0.007498749 -0.015058477 -0.0012487496 -0.010264867
-0.042395815 -0.010303034 -0.008890342 0.0018247643 -0.018949496 -0.012251423 -0.020073239 -0.017452428
-0.013851868 -0.018762818 -0.007294324 -0.016919527 -0.029111391 -0.020594811 -0.016993636 -0.0106610125
-0.008977778 -0.017351823 -0.018793339 -0.029229179 -0.014919973 -0.017715583 -0.022342132 -0.012230675
-0.0350369 -0.01651297 -0.024238473 -0.022527901 -0.051801708 -0.010994017 -0.0109067 -0.012441415
-0.00868215 -0.020864336 -0.009759824 -0.008677361 -0.01622158 -0.016984597 -0.0069678137 -0.013062013
-0.017494328 -0.016073158 -0.014242008 -0.023980582 -0.009588267 -0.005794085 -0.017724346 0.00036238588
-0.018642733 -0.0044195964 -0.014920727 -0.0059145032 -0.009627072 -0.016829096 -0.011803144 -0.01406219
-0.015730763 -0.0091011785 -0.006368334 -0.011459127 -0.05288976 -0.030531095 -0.03735039 -0.0023508796
-0.015523826 -0.023090873 -0.022362785 -0.009907526 -0.023103362 -0.0025068498 -0.015289086 -0.028016139
-0.031193826 -0.028441511 -0.009875117 -0.035164725 -0.013968034 -0.01002912 -0.012730498 -0.0001714714
-0.0075996057 -0.022969656 -0.030111693 -0.010784143 -0.013551646 -0.020579483 -0.019490225 -0.008398006
-0.013612769 -0.0070251226 -0.00792294 -0.012473423 0.0030662725 -0.020204702 -0.015677128 -0.026874295
-0.026526159 -0.017656205 -0.01776966 -0.0011558902 -0.01866139 -0.023297898 -0.0014247996 -0.011316132
-0.03596288 -0.016609803 -0.01078736 -0.0251213 -0.039144006 -0.013645626 -0.012200244 -0.0057055433

gcn.gc2.weight f4 [256, 64]
00000000: 8ef0 d4bd 4066 dc3d c681 64bd fb96 923c
00000010: 8051 7e3d 7fdc 94bd e2e5 a93d b0b7 28bd
00000020: d33e e5bd c59c 713b b1b4 49bd fb6f 4dbd
00000030: 655d 4bbc 19d8 b23d cc2e d23d bad6 813d
00000040: 2beb 003e 3d56 3cbc 9561 fd3c b19d f53a
00000050: eca1 d23d 6bf4 e43a b1ce a03d 5d68 a53d
00000060: ad41 7b3d 344b 86bd d0c1 ae3d a6de 42bd
00000070: b221 a43b a49a 56bd 3995 d03d 5187 1dbc
00000080: 75b9 13bd 82ab 133d f7d8 0ebb 2236 c2bd
00000090: 15f6 afbc 4e7c 813c 4dcb acbd 5589 f33b
000000a0: b95d 923d e261 4f3d 5bf2 dfbc 0114 cc3a
000000b0: dd96 7f3d 6eda a43d ff3e e6bc ab09 9e3d
000000c0: f3e1 b53d 527b e03d 3fef 7e3c 9e29 afbd
000000d0: 23f2 883c 6b00 b33d a50c b53d a5bf 13bd
000000e0: f89b 373d a927 9c3d 41fb 9dbd 5c81 7a3d
000000f0: 3a88 a43d 90a9 a1bd 242f 84bd 7fa9 e33c
00000100: 7178 8c3c b35a 253c c418 f9bd d000 813d
00000110: 0a7b 583d 0b3d a1bd 5d10 13bd b7e3 47bd
00000120: 6dd2 103d f530 013d 678e 3d3c fc3d 173d
00000130: 52d4 b83c 9b05 12bd 1088 f03c d863 a1bd
00000140: 7d06 a63c b31e 6ebc bc0a e4bc 5fc9 e13a
00000150: b9d0 cb3d 6757 11bd b5f6 aebd 5728 c6bc
00000160: e2e9 97bc 7401 ae3d 3e9f 9abd 648f 953d
00000170: e732 863d bd2c 713c c751 5bbd cb1a 7fbd
00000180: 42e6 f5bd d536 463c 75ea 423d 7e3e 5bbd
00000190: 071d 023e 132e a93d e507 983d af79 c63c
000001a0: 0e1e bf3c 5106 a7bd f387 393d fe2b a4bd
000001b0: 7bc1 f13d 70da 33bd bad0 753d ba07 1f3b
000001c0: 094f fabc 156e 0abd 129c 8bbd 7ecf 1fbd
000001d0: 19c5 03bd e495 a4bd 6d76 a33d 596d 41bd
000001e0: ee5a 533d 2ed6 b6bd acfa 18bd c677 a8bd
000001f0: 96bd 0e3d 4cc8 a0bc 2932 1fbd 3d82 15bd
00000200: b354 8c3c 28f5 d53d 6457 003d 0f27 7c3c
00000210: 1ff9 b5bd 334b 943d be3f 693d 1dc3 533c
00000220: 551b 313d 8a60 42bd b2c6 cebd 5a77 f63c
00000230: 8e71 793d e3be 623d 7d62 b0bd 695c 303c
00000240: be49 853d b0fb b73c a3e6 723d b66a 9b3c
00000250: 7057 7e3d b8a7 e4bc 559b e1bd eb29 dcbd
00000260: 4fda fcbd 54e8 83bd f4cb d0bd 886e 51bd
00000270: 301f 933d 9907 823d eaba cfbd bd04 983d
00000280: 18c0 ea3c 33f2 673d dfd7 5cbd 2b29 b6bd
00000290: 37ba 163c 31a1 b8bd 3190 f53d 5ad1 7fbb
000002a0: 2714 4e3d 8f07 1c3d d479 b0bb dd15 42bd
000002b0: c95d 0f3d d796 993d 4ca4 9f3d 62b8 c6bb
000002c0: 2a0e 30bc bb13 a23d 4f8e b6bd bec1 153d
000002d0: ab04 a63c 8774 4cbc c858 dbbd c958 383d
000002e0: 81e2 1d3c 71b2 653d c163 1ebd db17 52bd
000002f0: 6fb1 a93d 7dcf c93b 7a7c 8bbc 7b92 20bd
00000300: c635 933d 5f5c 233d ea48 62bd 61c2 363d
00000310: dffc b43d d619 e4bc 7871 98bd a2b2 bb3d
00000320: 6e19 a23d b3ce 4c3d c463 67bd 3919 8fbb
00000330: 5593 f1bc 6527 ccbd cb6e 8dbd 3527 e0bc
00000340: bb50 0c3d 4ce0 82bd c62d 633d 6174 25bb
00000350: b03a 103b fca7 e33d 4d10 81bc 2592 c73d
00000360: cc9f 0b3d 6d49 9d3d d447 df3b d09f c1bd
00000370: a10b ca3c b7c7 d4bc 50e0 27bc 1326 7f3d
00000380: 05bd 2ebd 4816 163d 6ec5 593d ff13 ec3c
00000390: 6c17 87bd 12db 7a3d 798e 5f3d 0c83 4e3c
000003a0: 6de7 a2bd 35df 1b3d c68d 873d 93f3 ec3c
000003b0: 3872 09be 03f7 c33b df23 27bd 92ec 5b3c
000003c0: fb8a 413c 0b42 dfbc 879a 9a3d a4d6 a23c
000003d0: c67e 283d 3cdb 753d 9547 aabd cf79 06be
000003e0: ec1d 753d a5c2 3cbc 693d 92bb 6d30 bbbd
000003f0: 9390 a1bc 1d53 9e3c ef70 c33d d58c c6bc
-0.10397445 0.1076169 -0.055787824 0.017894259 0.062089443 -0.07268619 0.082958 -0.041190803
-0.111936234 0.0036867124 -0.049244586 -0.05015562 -0.012412404 0.087326236 0.10262832 0.06339784
0.1258971 -0.01149517 0.03093032 0.0018739012 0.102847904 0.0017467862 0.07851923 0.08076546
0.06134193 -0.065573126 0.085330606 -0.047575615 0.0050088996 -0.05239357 0.10184712 -0.0096147815
-0.036065537 0.036052234 -0.0021796802 -0.09482981 -0.021479646 0.015806343 -0.08437214 0.0074321427
0.071467824 0.050630458 -0.027337244 0.0015569926 0.062399734 0.08049475 -0.02810621 0.07716688
0.08880987 0.109610215 0.01555997 -0.0855286 0.016717022 0.08740314 0.088403024 -0.03607144
0.044826478 0.07624752 -0.077139385 0.061158523 0.08033796 -0.078936696 -0.06454304 0.027790783
0.017147275 0.010092425 -0.12162927 0.06298983 0.052851714 -0.07872971 -0.035904277 -0.04880115
0.035356928 0.03154083 0.011569596 0.036924347 0.02256218 -0.035649877 0.029361755 -0.07880372
0.020266766 -0.014533686 -0.02783715 0.0017226151 0.0995192 -0.035483744 -0.085431494 -0.024189157
-0.018544141 0.08496371 -0.07549904 0.0730274 0.065526776 0.014720139 -0.053544786 -0.06228141
-0.12006809 0.012098034 0.047586877 -0.053526394 0.12706386 0.08260741 0.07423381 0.024227945
0.02332976 -0.08155502 0.045295667 -0.08016203 0.118044816 -0.04390949 0.06001351 0.002426608
-0.030555265 -0.03379639 -0.068168774 -0.03901624 -0.03217039 -0.08036402 0.07981572 -0.047223423
0.05160039 -0.0892757 -0.037348434 -0.0822597 0.034848772 -0.019626759 -0.038866196 -0.036501158
0.017130231 0.104471505 0.031333342 0.015390172 -0.08885407 0.072409056 0.056945555 0.012924937
0.043238956 -0.047455348 -0.10096492 0.030086208 0.06089931 0.055357825 -0.08612535 0.01076422
0.06508206 0.022458881 0.059301984 0.018971782 0.062095106 -0.027912006 -0.11015955 -0.10750183
-0.123463266 -0.064407974 -0.10195151 -0.0511308 0.07183683 0.063491054 -0.10143073 0.07422779
0.02865605 0.056627464 -0.05391681 -0.08894571 0.0091996705 -0.0901512 0.11990393 -0.0039034695
0.050312188 0.038093146 -0.005385617 -0.04738413 0.03500155 0.074994735 0.07795009 -0.0060644606
-0.0107455645 0.079139195 -0.08913862 0.03656172 0.020265898 -0.012478954 -0.10710293 0.045006547
0.009636522 0.056078378 -0.03866935 -0.05129228 0.08285796 0.0061587677 -0.017027128 -0.039202195
0.07187991 0.039883014 -0.055245318 0.044618968 0.08837294 -0.02784435 -0.074435174 0.09164931
0.079150066 0.05000181 -0.05649163 -0.0043670204 -0.029489199 -0.099684514 -0.06905898 -0.027362445
0.034256678 -0.063904375 0.055463575 -0.002524637 0.0022007637 0.11116025 -0.015754843 0.09744672
0.03408794 0.076800205 0.0068139825 -0.0945431 0.024663748 -0.025974138 -0.010246351 0.06229217
-0.04266073 0.036642343 0.0531668 0.028818129 -0.06596264 0.061244078 0.054579232 0.012604486
-0.07954297 0.038054664 0.06618838 0.028924739 -0.13422477 0.005980374 -0.040805694 0.013423102
0.011812921 -0.027253171 0.07549005 0.01987774 0.041136526 0.06002353 -0.083144344 -0.13132404
0.05984299 -0.011521016 -0.004462887 -0.09140096 -0.019722259 0.01932674 0.09543025 -0.024237076

gcn.gc2.bias f4 [64]
00000000: 26bf 523c c841 04bd befa 973c a8c9 d6bd
00000010: 5de9 a03d 68f9 06bc 4858 f93c 0542 4dbd
00000020: 7845 f93d f849 f53d cbf0 5bbc 89fb 2c3d
00000030: ec12 893d 3f58 aa3d 7b89 3a3d cbf3 dc3d
00000040: 810c a83a f9d8 0a3c ee31 85bd 2dd5 8d3d
00000050: 1c44 123d f8c5 c23c 7dd7 f13c 59b3 9e3d
00000060: 04e4 903c b100 e2bd 50fb 5ebd 383d 3cbd
00000070: ab37 d13d 612e 1ebd 6279 7dbd 6ce8 eebd
00000080: b088 6c3d 8c73 a13d 9d5e 123c 5727 b9bc
00000090: ec14 c73d 594c ca3c e61f 913d 8414 da3c
000000a0: 72bf 4dbd 1ba4 8f3c 26ed 743d 25ad 373d
000000b0: 8584 18bd e62b 47bd 88ae b93d c496 38bd
000000c0: c042 893d 180f 65bd bad3 993d a8eb f03d
000000d0: 3e16 a6bd e160 9b3d cd2b 73ba 1fa9 ce3d
000000e0: 3402 6d3d 8223 aebd e21a 863c 37cf c4bd
000000f0: 3d74 2bbd 12cc 5f3d 452d 53bc 3a11 b03c
0.012862956 -0.032289296 0.01855218 -0.104876816 0.078570105 -0.008238174 0.030437604 -0.05011179
0.12171453 0.11976999 -0.013424109 0.04223207 0.06693062 0.08317613 0.045541268 0.10788687
0.0012821109 0.008474582 -0.06503664 0.06925426 0.035709485 0.02377604 0.029521698 0.077490516
0.017686851 -0.11035288 -0.05443889 -0.04595682 0.10215696 -0.03861845 -0.061883338 -0.11665425
0.057747543 0.07883367 0.00893369 -0.022601767 0.097207874 0.024694609 0.07086162 0.02662111
-0.050231405 0.017534306 0.059796475 0.044842858 -0.037235755 -0.04862585 0.09066492 -0.045065656
0.06702185 -0.055922598 0.07511087 0.11763698 -0.08109711 0.075868376 -0.0009276241 0.10090851
0.05786343 -0.08502866 0.01637024 -0.096098356 -0.0418589 0.054637976 -0.012889211 0.02149259

gcn.ln2.weight f4 [64]
00000000: 1d53 4d3f 2c11 743f 648a 823f 9186 7e3f
00000010: 520e 823f 81bf 6f3f 5671 833f 3bc9 713f
00000020: 500b 843f 7155 7e3f b201 403f c4e2 9f3e
00000030: 8833 413f 29ce 753f 7cd3 7d3f 2efe 6d3f
00000040: a0b3 7f3f ef2c 7f3f b32f ae3e 1b40 833d
00000050: dfae 783f dd34 673f f25e 763f 8b04 5a3f
00000060: 2fe7 753f 7377 743f 19fb 763f 8b5e 803f
00000070: 0089 683f c320 673f 45f9 6e3f 78e9 7d3f
00000080: be52 823f d2e0 803f 96e9 7b3f d1b4 763f
00000090: 6c5f 7a3f 1283 603f 4153 813f a225 093e
000000a0: b445 403f 3b13 583f bc81 b73e 0e57 343f
000000b0: d857 813f 8890 523f b720 523f 0a03 683f
000000c0: 8578 5f3f 4170 643f 7ee4 7c3f c6de 7c3f
000000d0: 4b1b 803f 89a3 733f 0330 7c3f 6ad1 763f
000000e0: 084a 823f 0c55 803f 8595 3f3f c71f 773f
000000f0: 8568 1d3f 1c4e 743f 0422 783f f58d a13e
0.80204946 0.953387 1.0198483 0.9942408 1.016062 0.93651587 1.0268962 0.9444768
1.0315952 0.99349123 0.75002587 0.31227696 0.75469255 0.960177 0.99150825 0.9296597
0.9988346 0.9967794 0.34020767 0.064087115 0.9714183 0.9031504 0.96238625 0.8516318
0.96055883 0.95494765 0.96476895 1.0028852 0.90834045 0.90284365 0.93349105 0.9918437
1.0181501 1.006861 0.984033 0.96369654 0.9780185 0.877 1.0103532 0.13393262
0.7510636 0.84404343 0.35841167 0.70445335 1.0104933 0.8225179 0.8208117 0.9062964
0.87293273 0.89233786 0.9878615 0.98777425 1.0008329 0.9517141 0.9851076 0.9641329
1.0178843 1.0025954 0.74837524 0.96532863 0.6148761 0.95431685 0.96926904 0.31553617

gcn.ln2.bias f4 [64]
00000000: 7bb5 59bc 7602 153d 02f7 48b9 4ca7 c33c
00000010: 7b46 053c 2c2c 0b3c e804 113c 1608 15bc
00000020: e51f e33c 7dfc b6bb 8a3d 093d 7b4d 8fbc
00000030: 49ed a13c a8b9 033c cecf da3b 084d 743c
00000040: 4f6f f23b 41a4 adba 0230 dc3c 9aa0 9aba
00000050: ddef 153c 703d 70bb cbbd 963b b92a 993b
00000060: 0b47 b13c 38df 9d3b 340a d6bb 9239 1c3c
00000070: 7d69 b83c bd68 02bc f411 fc3b 02ef 0e3c
00000080: 8b16 4f3c 6393 0e3c 2ffd 54bb b910 c53a
00000090: 2130 143c 6062 a73c f7a0 b23c 03ee 54bc
000000a0: fa1b 143c b571 f0bb 570e 82bc 90eb 053c
000000b0: 20e4 243c 7801 39bb 859d aa3b a45d 6bbb
000000c0: a4d0 813c 546e 61bc f44f 993b 31e9 a43b
000000d0: a24b 393c 78bc 9ebb 18db afb9 ef71 af3b
000000e0: 2e4f 213c 11da 9a3c e688 1a3c ac41 943c
000000f0: 7334 24bc e485 113a cab1 433c 0d03 5cbd
-0.013287897 0.0363793 -0.00019165504 0.023883484 0.00813448 0.008494418 0.008851267 -0.009096166
0.02772517 -0.005584298 0.033505954 -0.017493 0.019766467 0.008039869 0.0066776043 0.014910944
0.007398523 -0.0013247804 0.02687836 -0.001179713 0.009151426 -0.0036657713 0.004600262 0.0046742824
0.021640321 0.0048178695 -0.006531978 0.00953521 0.022511238 -0.007959542 0.00769257 0.008723976
0.012639652 0.008702132 -0.0032499542 0.0015034891 0.009044678 0.020432651 0.02180527 -0.0129962
0.009039873 -0.0073377737 -0.015875978 0.008173838 0.010064155 -0.0028229635 0.005206766 -0.0035913968
0.015846558 -0.013759214 0.0046787206 0.0050326814 0.011309536 -0.0048442446 -0.0003354184 0.005354158
0.009845538 0.01890281 0.009432053 0.018097721 -0.0100222705 0.00055512623 0.011944244 -0.053713847

attention.fc1.weight f4 [16, 64]
00000000: 469a f13d 7395 6ebe c5b2 0b3e cfed d1bd
00000010: 18f0 f7bb 4869 843d 7409 213d bc60 e43d
00000020: 46fd 15be 7fc3 493d 2ef6 b0bd 78b9 4ebd
00000030: 6f16 f0bc eae5 ff3c 5c15 943d 7f4c d6bd
00000040: a2e0 88bc 9a95 cb3d 21d3 b03c cf88 23bd
00000050: 0794 d0bd 5d59 383d 98c6 c23d 95e5 e5bd
00000060: 31b8 43be 1479 d43d 0212 52bd 4db9 6b3d
00000070: c4cb 18bd a925 abbd 8c32 f33b db18 903d
00000080: 592d d93d 8b2d f83d d713 94bd cde2 b93d
00000090: 33be 0ebe c9bb 8abd 03c1 50bd bb84 c33c
000000a0: 700e 7bbd 5404 b43d aa01 ae3c 247f 7d3d
000000b0: de2d 2dbd ebd5 dbbd fea0 603d ecfa 42be
000000c0: 25ba 14be dbb2 65ba 095d 87bc fdbd 9f3d
000000d0: 3688 ad3d ce86 283d de4f 5abd 1115 433d
000000e0: 5002 d13d aa60 51ba 65e3 5dbd 991e 96bd
000000f0: 6400 683c 4cc0 863d b550 7bbd 9fb1 813c
00000100: 7862 2dbd bcd2 4f3d 04f2 90bc fa23 4c3c
00000110: 5e6e 973b f6e0 233d c4b2 c8bd 9ba2 1cbd
00000120: 4c54 3e3c 41da d6bd d309 6e3d 7bdb f4ba
00000130: 1bbd 553d 0e9d 583d b318 64b9 08e9 89bc
00000140: 8320 88bd 1f63 293c e5fb 293d a02b 003b
00000150: 78a9 d8bc 65f0 54bd 26b5 493d 2b3a 823c
00000160: 63a3 553d 9fb2 023d dc62 91bd 68c1 163b
00000170: 06a0 923d 87ff 2abd 2518 63bd e175 223d
00000180: 781f 953d ea6e f3bc a3ca aabc d41a f0bc
00000190: 1549 623d 89b1 323d f630 613d 6bd2 86bb
000001a0: 3bf3 7ebc 9626 923c 9ddf 1abb ca87 8ebb
000001b0: a9df f8bc f767 0ebc 103b dc3c 012e ab3d
000001c0: bd8a c0ba b966 a9bd ba65 8ebc 6b77 a5bc
000001d0: 94e6 a1bc 095e 3bbd fe38 9abc 872b 69bd
000001e0: b785 98bd 372b 8a3c cf4a f53c 1de5 833c
000001f0: 2eef 013c 390f 103c fac4 a63c 2e7b 61bc
00000200: d4e4 0abd 97d8 153d c670 abbd e2a2 f03d
00000210: 1219 433d 35fd 6e3d 7e33 bdbd f452 c1bd
00000220: b58f 9a3c c2ec b73c b4d4 3b3d 4771 c9bc
00000230: b671 e5bc 3ef8 55bd 0e36 633d afa5 a43d
00000240: eebc 0d3d d0df 8fbc e581 143d c19c 023b
00000250: 16d4 943d 5391 88bd f262 353d 26de 8ebc
00000260: 0433 b53d f8ef 813d c93c b2bd e358 51bd
00000270: b4db b23d d225 7abd 49d0 b73c c38e bfbd
00000280: ee13 993c 9afa 18bd 39d4 6abc 6089 aa3d
00000290: e24b 5f3c 3a00 8b3d 8648 26bd 5f46 85bc
000002a0: c54b 543d 320d 993d dc84 f83c 917a e9bc
000002b0: ff03 f8ba 432c a33d d980 923d 38d6 923d
000002c0: cd62 e63d 34af f4bd 868f 13bd 202b 96bd
000002d0: ca1a 463d 8a41 a3bd 107e c9bd 1270 103d
000002e0: 34fc 7dbd b7a7 933d 7e13 37bc 409f 833d
000002f0: 463a e23b 8654 48bb d042 9f3d 2130 32bc
00000300: 0dbc d9bc a86c a33d 34e3 8abc 0ed6 d93c
00000310: 912b 7e3d cd38 ef3c 85ff 27bc 5b88 7e3c
00000320: 2086 b73d 7629 5abd be1f e73c 7c6f 57bc
00000330: 30f7 95bc 75c7 703c 862d 24bd 694c 583d
00000340: d97a 6bbd 4a9e 2cbd 103c 2cbc 01af 61bb
00000350: 32f5 94bb f8f7 37bd f91e 3e3b 1ff7 66bc
00000360: e576 0a3d bf31 98bb 52bf e33c d0f3 1cbc
00000370: e712 503d 8248 823c bc1d b73d bded 12bb
00000380: f95c e4bc 3745 52bd 07f8 0cbd 91b2 61bc
00000390: 7e5c 1c3d bd68 213c 269f 6abd 3893 b7bb
000003a0: 1a80 c43c 16e1 a53c f18a 02bd 6b27 663b
000003b0: 5d1e 833b 98e4 163c b743 6ebd f59f 293c
000003c0: 7e45 8e3b 8eea 00bd e3f5 92bd ee23 173d
000003d0: b3db 64bd 6c19 a83c 4fd4 833d 5551 09bc
000003e0: 1421 89bd 4197 873d 138d 033d 4df9 28bd
000003f0: dcbe e53b 527b ee3c 8756 b13c b0e7 4bbc
0.117970034 -0.23299198 0.13642414 -0.102504365 -0.007566463 0.06465393 0.039315656 0.11151263
-0.14647397 0.049258705 -0.08640705 -0.050469846 -0.029307572 0.031237561 0.072306365 -0.10463809
-0.016708676 0.099406436 0.02158505 -0.039925393 -0.10184484 0.0450071 0.09510535 -0.1122543
-0.19113232 0.10374656 -0.051286705 0.057549763 -0.0373037 -0.083567925 0.007421797 0.07035991
0.106043525 0.12118062 -0.07230347 0.09076462 -0.13939743 -0.067740984 -0.05096532 0.023867002
-0.061293066 0.08789888 0.021241028 0.06188883 -0.04228007 -0.10734161 0.054841034 -0.19041032
-0.14524134 -0.0008762308 -0.016523855 0.07799909 0.08473246 0.041144185 -0.053298824 0.047627512
0.10205519 -0.00079871214 -0.05417194 -0.07330055 0.014160249 0.065796465 -0.061356265 0.015831767
-0.042330235 0.05073808 -0.017693527 0.012459749 0.004621311 0.04000946 -0.09799722 -0.03824101
0.011616778 -0.104908474 0.058114838 -0.0018681133 0.0521823 0.052884154 -0.00021752976 -0.01683475
-0.06646826 0.010338574 0.04149999 0.0019557253 -0.026447996 -0.05198707 0.049245022 0.015896877
0.05215777 0.031908628 -0.07098934 0.0023003463 0.07159428 -0.041747596 -0.055442948 0.0396632
0.07281393 -0.029715974 -0.020848578 -0.029309668 0.055245478 0.043626342 0.054978333 -0.0041144392
-0.01556092 0.017840665 -0.002363182 -0.0043496834 -0.030380087 -0.008691779 0.026883632 0.08358384
-0.0014689785 -0.08271546 -0.017382491 -0.020198544 -0.019763269 -0.045743976 -0.018826004 -0.056926277
-0.07447379 0.01686631 0.029942898 0.01610046 0.00793056 0.008792692 0.020357598 -0.0137622785
-0.033909634 0.03658351 -0.08371119 0.117498174 0.04763133 0.058346946 -0.09238337 -0.0943965
0.018867353 0.022451762 0.045857146 -0.024590148 -0.028008323 -0.052238695 0.055471472 0.08039414
0.034604006 -0.017562777 0.03625669 0.0019929858 0.07267015 -0.066683434 0.044283815 -0.017439913
0.08847621 0.063445985 -0.08703 -0.05111016 0.08733311 -0.061071225 0.022438185 -0.093534015
0.018686261 -0.037348367 -0.014332824 0.083269835 0.013628932 0.067871526 -0.040596507 -0.016268907
0.051830072 0.0747322 0.03033679 -0.028500827 -0.0018922089 0.07967427 0.07153482 0.07169765
0.112493135 -0.1194748 -0.036025546 -0.07332444 0.04836539 -0.07971485 -0.09838498 0.03526313
-0.062008098 0.072097234 -0.011174081 0.06426859 0.0069039194 -0.0030567958 0.07776415 -0.010875733
-0.026578927 0.07979709 -0.016954042 0.026591327 0.062053267 0.02920189 -0.010253792 0.015535439
0.08961129 -0.053262196 0.028213378 -0.013149139 -0.018306345 0.014695992 -0.040082477 0.052807245
-0.057490204 -0.042143144 -0.010512367 -0.0034436586 -0.004545831 -0.044914216 0.002901016 -0.014097004
0.033804793 -0.004644602 0.02780119 -0.009579614 0.050799277 0.015903715 0.08941218 -0.0022419535
-0.027876364 -0.05133554 -0.034416225 -0.013775484 0.038174145 0.009851632 -0.057280682 -0.0056022666
0.023986865 0.02024893 -0.031870786 0.003511871 0.0040014223 0.009209774 -0.058170047 0.010353078
0.00434178 -0.03147369 -0.071758054 0.0368995 -0.055873584 0.020519935 0.06436979 -0.0083812075
-0.06695762 0.06620646 0.03211696 -0.041253377 0.0070112776 0.029111538 0.021647705 -0.012445375

attention.fc1.bias f4 [16]
00000000: 391c 663d b65b bb3c bcc0 ff3b 2a8b 773b
00000010: 3559 98bc 00d8 1c3d 2c7b a23d e41f 0bbc
00000020: 83ef 143d 6f4c 9b3c 8545 983c 03a6 73bc
00000030: fefa c33b e0a6 973d cca6 113e c6b0 363b
0.05617926 0.02287088 0.007804958 0.0037772157 -0.018597225 0.03829193 0.079336494 -0.00849149
0.03636123 0.018957345 0.018587837 -0.014871123 0.0059808483 0.07404876 0.14223784 0.0027876361

attention.fc2.weight f4 [4, 16]
00000000: eedb bd3e 6209 acbd 97b9 85be 3c53 e7bb
00000010: c4bc 6e3d 5890 9bbd 1368 26be 197a 90be
00000020: 0136 1b3e e9ee 04be 7d64 b83d 4a3e 883e
00000030: fe27 a23e 06dc cabe dd20 7abd cf3a ac3d
00000040: a2be 313e b47c b73d 3799 fd3b 6876 fdbd
00000050: 4c9e fd3d 1545 11bd a4b0 77be 0d1f b1bd
00000060: 33a0 483e 87ee 013e 4ac4 3ebe 98eb 44bd
00000070: e8e8 8b3e 00ad 86be d01c cfbd 2188 72bd
00000080: 2fc3 493d 0132 83be 1d19 c2bd 69f2 283e
00000090: 0e5d 043e 8ace 80be 76ab 24be 18b3 70be
000000a0: be6f 413e 9082 4dbe 2d62 71be df3f 9a3e
000000b0: b82d 2a3e ba35 f8bd 58d3 7ebd 0f7f c9bd
000000c0: 06a0 8c3e 19e9 5b3d 903a 993d 15e2 3ebe
000000d0: c9f3 703e 9172 f53d 295d 30be f4af e5bd
000000e0: 9a23 1e3e b054 32be 4daf 913d c7cc f7bb
000000f0: 7daa 273e 327a 1bbe b873 51be 6363 73be
0.37081856 -0.08400227 -0.26118156 -0.007059483 0.05828549 -0.07595891 -0.16250639 -0.28218153
0.1515732 -0.12981762 0.090035416 0.26610023 0.31671137 -0.3962099 -0.061066497 0.08409654
0.17357877 0.08959332 0.007739212 -0.123761 0.12383708 -0.035466272 -0.24188477 -0.086485006
0.19592361 0.12688647 -0.18629566 -0.048076242 0.2732613 -0.26303864 -0.101129174 -0.059211854
0.049258407 -0.25624087 -0.09477446 0.16498722 0.12926123 -0.25157577 -0.16081032 -0.23505819
0.18890283 -0.20069337 -0.23572607 0.30126855 0.16619003 -0.121196225 -0.06221327 -0.09838688
0.27465838 0.053689096 0.07481873 -0.18640931 0.23530497 0.119847424 -0.17223038 -0.11215201
0.15443268 -0.17415118 0.07113514 -0.007562253 0.1637363 -0.15183333 -0.204543 -0.23768382

attention.fc2.bias f4 [4]
00000000: ac39 0735 9814 8db7 040f e037 6b90 9ab6
5.037534e-07 -1.68181e-05 2.6709873e-05 -4.60637e-06

fc_final.weight f4 [1, 64]
00000000: 8b42 493c c0a9 813c a28e 24be ef15 013e
00000010: f52d 30be 73c1 02be 0e26 3b3e fc92 90bd
00000020: ce86 e13d 11b4 aebd df40 15bc 0e8e 12bc
00000030: ff1c 3dbd dab3 d13d 92f6 1e3e 3dd0 cfbd
00000040: 5d18 13be 190a 15be 5067 f73b 1ffe 333b
00000050: d4aa 1f3e 25be 053d a61e f13d 750e 9e3d
00000060: 1bc7 1c3d 8f3b 0cbe a00b 31be ae37 223e
00000070: 1b9e 38bb 29ff dbbd bb8a a1bd 9d44 153e
00000080: db7c 25be 61bc 1a3e fe5a dbbd ccad 1e3e
00000090: 671c fe3d 4d13 683d e437 e0bd 6a91 a2bb
000000a0: b168 903d d91d ddbc 05bf cb3b be13 113d
000000b0: 12ab 2d3e cfed 95bd c298 ae3d 8516 223d
000000c0: 7708 a43d 7708 69bd 9d63 fabd 3e9e efbd
000000d0: 6b86 203e 15c5 afbd 434a d8bd ed0d f03d
000000e0: f6b7 293e 0987 143e 6c14 7f3d 9731 e9bd
000000f0: 2d43 563d 956e 11be 025e f43d 1485 193b
0.0122839315 0.015828013 -0.16070035 0.12606023 -0.17205031 -0.12769108 0.18276235 -0.07059285
0.1101204 -0.08530439 -0.009109705 -0.008945001 -0.04617023 0.10239382 0.15523747 -0.1014714
-0.14364763 -0.14554633 0.0075501576 0.00274647 0.1559251 0.03265204 0.11773424 0.07717601
0.03827582 -0.13694595 -0.17289591 0.15841553 -0.002817041 -0.10742027 -0.07887789 0.14576955
-0.1616091 0.15110923 -0.10710715 0.15495986 0.12407761 0.05665903 -0.1094816 -0.0049611824
0.07051218 -0.026991772 0.0062178397 0.03541922 0.1695979 -0.07320749 0.0852523 0.039572258
0.08009427 -0.05689284 -0.12226031 -0.11700104 0.15676276 -0.08582512 -0.10561039 0.11721406
0.16574082 0.14504637 0.062275335 -0.11386412 0.052310158 -0.1420234 0.11931993 0.0023425268
