Predict_workflow/Model/Fold1_best_model.pkl (torch_old, 172687 bytes, 13 tensors)

gcn.gc1.weight f4 [94, 256]
0	0x3c71c9d6	0.014757594
1	0x3cd10c74	0.025518633
2	0x3d915a88	0.070973456
3	0xbd5cbe16	-0.053892218
4	0xbd8d134d	-0.06888447
5	0x3c12fc55	0.008971293
6	0xbc83c26e	-0.016083922
7	0x3d68e047	0.056854513
8	0xbd772aab	-0.060343426
9	0x3d1549c2	0.036447294
10	0xbd4c729d	-0.04991399
11	0x3cbfb19a	0.023400117
12	0x3bf99849	0.0076170308
13	0x3ad5f7d7	0.0016324472
14	0x3d859b1d	0.06523726
15	0x3c9b3815	0.01894764
16	0x3b1492d5	0.0022670527
17	0xbcf3ead8	-0.029775068
18	0x3d28f495	0.041248877
19	0xbd2aed6c	-0.04173033
20	0x3d346d6b	0.04404966
21	0x3d22762d	0.039663482
22	0x3c23956e	0.009984357
23	0xbc3e2ee8	-0.011607863
24	0x3ba9156b	0.005160024
25	0xbaca36f1	-0.0015427751
26	0xbd398af1	-0.04529852
27	0x3d172519	0.036900613
28	0xbcbe042b	-0.023195347
29	0xbcdc7c97	-0.026914878
30	0xba0d916d	-0.0005400393
31	0x3b470228	0.0030366275
32	0xbccc9398	-0.024972722
33	0xbc61858d	-0.013764751
34	0xbd84c4d3	-0.06482854
35	0xbbdead4d	-0.0067955614
36	0xbd1e7cd8	-0.03869328
37	0x3d10ff35	0.035399634
38	0xbcc13414	-0.023584403
39	0xbc76a421	-0.01505378
40	0x3cde29b3	0.027119493
41	0xbd66657a	-0.05624912
42	0x3d01505f	0.03157079
43	0xbceca732	-0.028888319
44	0xbd945396	-0.07242505
45	0xbbb77a19	-0.005599272
46	0x3d7144cc	0.0589035
47	0xbda2c79e	-0.0794823
48	0x3d0c8e7f	0.034315582
49	0xbd020a74	-0.03174825
50	0xbc6e6859	-0.014551246
51	0xbb9af970	-0.0047294423
52	0x3d72fdee	0.059324197
53	0xbb29152a	-0.0025799968
54	0xbd19ad87	-0.037519004
55	0x3d57a7fb	0.052650433
56	0xbd1bd6ae	-0.03804653
57	0xbc844283	-0.016144997
58	0xbd8e2f89	-0.0694266
59	0x3cddc475	0.027071217
60	0xbbc41f7a	-0.0059851976
61	0x3d3d9631	0.04628581
62	0x3c9906b4	0.018679954
63	0xbd4b862d	-0.049688507
64	0x3d1a4f55	0.037673313
65	0xbbe46c99	-0.0069709537
66	0x3b8b416e	0.004249743
67	0xbd0d5e5a	-0.03451381
68	0xbd558ae9	-0.05213443
69	0xbd1cb494	-0.03825815
70	0xbc92a98f	-0.017903117
71	0x3cb50f77	0.0221021
72	0xbd2651c3	-0.040605318
73	0x3c709656	0.01468428
74	0xbcbe3c9a	-0.023222256
75	0x3d0e5358	0.03474745
76	0xbccd1e74	-0.025038935
77	0xbd50cff8	-0.050979584
78	0x3d066709	0.032813106
79	0x3bd0c3fe	0.0063710203
80	0xbb9a7ec9	-0.004714821
81	0x3d73172b	0.059348267
82	0x3d4797b8	0.048728675
83	0xbd23b8dd	-0.03997122
84	0xbc05ec4c	-0.008174013
85	0x3caf4769	0.021396356
86	0x3db6c6ae	0.08924614
87	0xbcbaf371	-0.02282116
88	0xbd6cc34d	-0.05780344
89	0xba266d2c	-0.00063486653
90	0xbd02b023	-0.03190626
91	0xbcffda85	-0.031232128
92	0xbc423227	-0.011852778
93	0xbc0f3a91	-0.008741991
94	0xbbff6955	-0.007794539
95	0x3ca2a681	0.019854786
96	0xbcd36236	-0.025803667
97	0x3c61f4d2	0.01379128
98	0x3c94615a	0.018112827
99	0x3c91e77f	0.017810581
100	0x3d4bde8c	0.049772784
101	0xbcf40af8	-0.029790387
102	0xbc61a210	-0.013771549
103	0xbd402445	-0.04690959
104	0xbc467478	-0.012112729
105	0xbcc00c80	-0.02344346
106	0x3c472c6c	0.012156587
107	0xbd63eb0c	-0.05564408
108	0xbd0294de	-0.031880252
109	0xbd386d64	-0.045026198
110	0xbd1f370e	-0.038870864
111	0xbd03484b	-0.032051366
112	0x3cd47cac	0.025938354
113	0xbceae28f	-0.028672485
114	0x3c4f08f0	0.012636408
115	0x3bb195a5	0.0054194503
116	0x3c62b8a7	0.01383797
117	0xbd052497	-0.032505598
118	0xbc04237c	-0.008065101
119	0xbd03a1e5	-0.032136817
120	0xbd1206c2	-0.035650976
121	0xbd3ee716	-0.0466071
122	0xbc49ab00	-0.012308836
123	0xbaba0831	-0.0014193115
124	0xbcdc34fb	-0.026880732
125	0xbcebd9af	-0.028790323
126	0x3c09b1eb	0.008404235
127	0x3caf55c3	0.021403199
128	0x3d3a687c	0.0455098
129	0xbd016393	-0.031589102
130	0xbcc46455	-0.023973623
131	0x3d4fbca8	0.050717026
132	0x3bdeafc7	0.0067958566
133	0x3cee8fe1	0.029121341
134	0x3d156c1e	0.03648006
135	0xbbea28c1	-0.0071459715
136	0xbd918627	-0.07105666
137	0x3d3a002f	0.04541033
138	0x3d4b927b	0.04970024
139	0xbc2d249b	-0.010567809
140	0xbdb947a4	-0.090468675
141	0x3cc48bb2	0.023992393
142	0xbd742c52	-0.05961258
143	0x3bc53130	0.0060178265
144	0x3d09cdc5	0.033643503
145	0xbd23f703	-0.04003049
146	0x3c1cec9d	0.009577897
147	0xbc6f521a	-0.014606977
148	0xbccbfd05	-0.024900923
149	0x3cd97e67	0.026549531
150	0xbcf4f821	-0.029903473
151	0x3d8b1dee	0.06792818
152	0xbc83674c	-0.016040467
153	0x3c9e6a4b	0.019337794
154	0x3d2ba454	0.041904762
155	0x3cc46ee3	0.023978656
156	0x3d313e36	0.04327222
157	0xbd4013b9	-0.04689381
158	0x3cdadff8	0.026718125
159	0xbcced851	-0.025249632
160	0xbc27e1e3	-0.010246727
161	0x3d3ff952	0.04686863
162	0xbcb7baf8	-0.02242802
163	0xbbc45cbb	-0.0059924996
164	0x3d4340f4	0.047669366
165	0xbd010e31	-0.031507675
166	0xbc873d74	-0.016508795
167	0xbd8454ef	-0.06461512
168	0x3cda8007	0.026672376
169	0x3ab50b8e	0.0013812648
170	0xbcc5627d	-0.024094814
171	0xbd4a95a6	-0.049459122
172	0xbd0e3ef4	-0.034728006
173	0x3ca3f8e2	0.020016138
174	0x3c37a961	0.011209817
175	0xbcb5666e	-0.022143569
176	0xbbfac2c1	-0.007652611
177	0x3c8c988d	0.017162586
178	0xbc9eb21f	-0.019372044
179	0xbd27176c	-0.04079382
180	0x3d0a4ceb	0.03376476
181	0xbcfc0ee5	-0.030768821
182	0xbc68b049	-0.014202186
183	0x3d521ecd	0.051298905
184	0x3d39bf71	0.04534859
185	0x3dc915e7	0.09818631
186	0xbd218864	-0.039436713
187	0xbd759e38	-0.059965342
188	0xba65fd77	-0.0008773426
189	0xbcb05014	-0.02152256
190	0x3cd428b8	0.025898322
191	0xbcb9a8e7	-0.022663547
192	0x3d1a53a9	0.03767744
193	0x3d191339	0.037371848
194	0xbd273281	-0.04081965
195	0x3c4f0e9f	0.012637763
196	0xbb9f76e3	-0.0048664673
197	0xbd0396d5	-0.032126267
198	0xbc423e5e	-0.01185569
199	0xbd950d8e	-0.07277976
200	0xbcc8d820	-0.024517119
201	0xbd470c89	-0.04859594
202	0xbd52fb60	-0.05150926
203	0xba8196bc	-0.0009886841
204	0x3c00b62d	0.007855934
205	0x3cabfcde	0.0209946
206	0xbc8b0d78	-0.016974196
207	0xbd1ed26d	-0.038774896
208	0x3d308517	0.043095674
209	0x3d1d9c59	0.038479183
210	0x3cc151b8	0.023598537
211	0xbc4dc76c	-0.012559753
212	0x3bc2430a	0.005928402
213	0xbc5f1044	-0.013614718
214	0xbcbd6da0	-0.023123562
215	0x3b27c3bf	0.0025598851
216	0x3a757fed	0.0009365071
217	0x3d06d5eb	0.03291885
218	0xbc89a1a2	-0.016800705
219	0x3d4ae563	0.049535166
220	0xbd847de3	-0.064693235
221	0xbbae9082	-0.0053272853
222	0xbd6d159f	-0.057881948
223	0xbb83f1a9	-0.004026611
224	0xbd151640	-0.036398172
225	0x3d73662e	0.059423618
226	0x3c984d70	0.018591613
227	0x3cd3f9c0	0.025875926
228	0x3b474f26	0.0030412166
229	0xbd4ffaaa	-0.05077616
230	0xbd230cbf	-0.039807077
231	0x3ce58723	0.02801854
232	0xbcf1328d	-0.02944305
233	0xbbef7c29	-0.007308502
234	0x3d1080fe	0.035279267
235	0xbd0b1835	-0.033958632
236	0x3d95764f	0.07297956
237	0x3d217494	0.03941782
238	0x3cb3def6	0.021956902
239	0xbd528499	-0.051395986
240	0xbd43e713	-0.04782779
241	0x3d5bcfff	0.053665157
242	0x3d117489	0.035511527
243	0x3db6d85f	0.08927988
244	0xbc599f3a	-0.0132825915
245	0xbb9fb7fc	-0.0048742276
246	0x3d71f9ee	0.059076242
247	0xbc100be7	-0.0087919
248	0xbabf8ac7	-0.0014613502
249	0xbc3e87cb	-0.011629055
250	0x3ce16ad5	0.027516762
251	0x3d40385b	0.046928745
252	0x3d89d168	0.06729394
253	0x3d18ffe4	0.03735341
254	0xbc0fc454	-0.008774836
255	0xbd50ba0c	-0.050958678

gcn.gc1.bias f4 [256]
0	0xbcd3cbef	-0.025854079
1	0x3cd60f5c	0.02613037
2	0x3d3c89a8	0.046029717
3	0x3cee6b11	0.029103788
4	0x3cd2c485	0.025728473
5	0xbcc62162	-0.02418584
6	0x3d5191c5	0.051164407
7	0x3d2dd102	0.042435654
8	0x3d29dab7	0.04146835
9	0x3c7ac6b1	0.015306161
10	0xbd1471c0	-0.036241293
11	0xbd4fbfdc	-0.05072008
12	0x3d00e896	0.03147181
13	0x3b100e5c	0.0021981215
14	0x3cced42c	0.025247656
15	0xbcdb1130	-0.026741594
16	0x3ce7a0ba	0.028274883
17	0xbcf15d82	-0.029463533
18	0x3ba863e8	0.005138863
19	0x3d2a7abd	0.04162096
20	0x3d247e0a	0.040159263
21	0x3cb4234b	0.021989485
22	0xbc6532a8	-0.013989128
23	0xbd000946	-0.031258844
24	0xbc34f0de	-0.011043755
25	0x3d0734b3	0.033009242
26	0xbd4184cc	-0.047245786
27	0xbca19c81	-0.019727947
28	0xbb136fab	-0.002249698
29	0x3cda42a5	0.026643107
30	0x3d4e2e43	0.050337087
31	0x3cbf06c8	0.023318663
32	0x3d260853	0.040535282
33	0xbb51e9d9	-0.0032030253
34	0x3be7921d	0.0070669786
35	0x3d522941	0.051308874
36	0x3d4b6a04	0.04966165
37	0x3c83f57a	0.016108263
38	0x3bfa42c7	0.007637355
39	0x3d58f2ff	0.052966114
40	0xbc9f5a07	-0.019452108
41	0x3d0fb7cf	0.035087403
42	0xbbfc1075	-0.0076923915
43	0x3c544cad	0.012957734
44	0xbcc9a2da	-0.024613786
45	0xbd04dff3	-0.032440137
46	0xbd31b23b	-0.043382864
47	0xbcd1ef82	-0.025626902
48	0x3d8e3efd	0.06945608
49	0x3c73aa3b	0.014872129
50	0x3cab63f6	0.020921689
51	0xbb905fac	-0.004405936
52	0x3d2d5417	0.042316522
53	0xbd021134	-0.031754687
54	0xbcae9c9a	-0.021314908
55	0xbc7b05e3	-0.015321228
56	0xbd25b564	-0.04045619
57	0xbc4099e8	-0.011755444
58	0x3c3ec9b5	0.01164477
59	0x3d1b666f	0.037939485
60	0xbcf79dbe	-0.030226585
61	0x3cd6bb76	0.026212435
62	0x3d0218be	0.031761877
63	0xbd0c67d9	-0.034278724
64	0xbd438574	-0.047734693
65	0xbd2d65d3	-0.042333435
66	0x3ac97e00	0.0015372634
67	0xbd29bda3	-0.041440617
68	0xbc94f0c4	-0.018181212
69	0x3ca4a225	0.020096848
70	0x3d2d3b5e	0.042292945
71	0xbc8a8c43	-0.016912585
72	0xbcbe1770	-0.023204535
73	0xbcc27fb6	-0.023742538
74	0x3cf09e61	0.029372396
75	0xbcccd38d	-0.025003219
76	0x3ce91fac	0.028457485
77	0x3b816cd2	0.00394974
78	0x3ce165f2	0.027514432
79	0x3d68fa5d	0.05687939
80	0xbc42c6d1	-0.011888222
81	0xbcf43ee5	-0.029815147
82	0x3ced3638	0.028956518
83	0x3c3f23de	0.011666266
84	0x3d188701	0.037238125
85	0x3c43d40d	0.011952412
86	0x3d2a5d2f	0.041592773
87	0xbc21de61	-0.009879679
88	0x3cd466ab	0.025927862
89	0xbd0119d3	-0.03151877
90	0x3ceea086	0.029129278
91	0x3b7e7e81	0.0038832726
92	0x3bfdf05c	0.0077496003
93	0xbb45823d	-0.0030137443
94	0x3c920575	0.017824868
95	0x3d81c2b1	0.063359626
96	0xbd8397de	-0.06425451
97	0x3ca464c1	0.020067574
98	0xbcb81b41	-0.022473933
99	0xbd2881f7	-0.04113957
100	0xbd042abd	-0.03226732
101	0x3d2a6d78	0.041608304
102	0x3d1e9f63	0.03872622
103	0xbd1e5cac	-0.038662598
104	0x3caddac6	0.021222483
105	0x3d43b58b	0.047780555
106	0x3ca8f5b0	0.020624965
107	0x3c819b31	0.015821071
108	0x3d07f3c4	0.033191457
109	0xbd483e9a	-0.048887827
110	0xbca53542	-0.020166997
111	0x3d6c670d	0.057715464
112	0xba4085d4	-0.00073441607
113	0x3c4cf6d5	0.012510021
114	0xbd05788e	-0.032585673
115	0x3d28aeb0	0.04118222
116	0x3d28ea9d	0.04123937
117	0xbd12e193	-0.035859656
118	0xbca4db9d	-0.020124251
119	0xbd646ed8	-0.05576977
120	0xbd1223ae	-0.035678558
121	0x3cf531a6	0.0299309
122	0x3c25c674	0.010118116
123	0xbcd480f7	-0.025940401
124	0xbcd17e37	-0.02557288
125	0xbcf83e43	-0.030303126
126	0x3d7d2f78	0.061812848
127	0x3d693fb4	0.056945518
128	0x3cf45851	0.029827269
129	0xbd0aaa4e	-0.03385382
130	0xbc2cb1dd	-0.010540453
131	0x3d42b152	0.047532387
132	0x3cf834c7	0.030298604
133	0xbccb3543	-0.02480567
134	0xbcdc51b7	-0.026894433
135	0x3d408a8f	0.04700714
136	0xbca611d6	-0.020272177
137	0x3d896ee8	0.06710607
138	0xbcc0c98f	-0.02353361
139	0xbd295d5e	-0.041348808
140	0x3d02a401	0.031894688
141	0x3c5c3969	0.013441422
142	0x3d48705f	0.04893529
143	0x3bb499b2	0.005511486
144	0xbd455ef6	-0.048186265
145	0xbd416f54	-0.04722531
146	0xbca226bc	-0.01979386
147	0xbcb22b9a	-0.021749306
148	0x3d0c6757	0.03427824
149	0x3d83cbf8	0.06435388
150	0x3d94287a	0.07234283
151	0x3cc0e5ee	0.023547139
152	0xbc2da544	-0.010598484
153	0x3d2c8e94	0.04212816
154	0x3d6c7a57	0.05773386
155	0x3d4a3bc4	0.049373403
156	0xbd36720b	-0.044542354
157	0x3d5f306a	0.05448953
158	0xbd33ff68	-0.043944746
159	0xbd6493ce	-0.05580502
160	0x3d4436ad	0.047903705
161	0xbcf61eeb	-0.03004404
162	0x3c5fe095	0.013664384
163	0x3c065187	0.008198149
164	0x3d110113	0.035401415
165	0x3be6dc02	0.00704527
166	0xbc9b9de9	-0.018996196
167	0x3d0b0586	0.033940814
168	0xbd1603cc	-0.036624715
169	0x3d551b4b	0.05202798
170	0x3d0cd54f	0.034383114
171	0x3cda1ed4	0.026626028
172	0x3c6d4f0b	0.014484177
173	0xbc95583a	-0.018230546
174	0xbab7aae1	-0.0014012718
175	0x3d584366	0.05279865
176	0xbd4e3ec3	-0.050352823
177	0xbc539bb3	-0.01291554
178	0x3b783ae6	0.0037876903
179	0xbb9dbe70	-0.0048139617
180	0x3d110027	0.035400536
181	0xbc2177d0	-0.009855226
182	0x3d51b8fd	0.05120181
183	0xbd1148bd	-0.03546976
184	0xbaf1ad6f	-0.0018438528
185	0x3daf8930	0.08571088
186	0x3d3c28a9	0.045937214
187	0x3c9efd46	0.01940788
188	0x3d28864a	0.041143693
189	0xbcb5b197	-0.022179408
190	0xbd177f69	-0.036986742
191	0x3b9868b0	0.0046511516
192	0xbd4e0a9e	-0.050303094
193	0x3c22048f	0.009888782
194	0x3c90c6a5	0.017672846
195	0x3b797539	0.0038064255
196	0xbd6c4ee4	-0.057692423
197	0x3d1df0a0	0.038559556
198	0xbc165343	-0.009175125
199	0x3d4975d9	0.049184654
200	0x3c9b3935	0.018948177
201	0xbcc0c64d	-0.023532057
202	0xbb1ffc05	-0.002441169
203	0xbce88339	-0.028382884
204	0xbd800140	-0.062502384
205	0xb978a22d	-0.00023711538
206	0xbd226b01	-0.039652828
207	0x3d5a503b	0.05329917
208	0x3a81f092	0.0009913614
209	0x39b68564	0.0003481313
210	0x3c016205	0.007896905
211	0xbd7c3d61	-0.061581973
212	0x3bd48419	0.006485474
213	0xbce6f1c0	-0.028191447
214	0xbd292c3f	-0.041301962
215	0x3d3e5b85	0.046474
216	0x3da3235b	0.07965728
217	0xbcc0b118	-0.023521945
218	0xbd7f3f1a	-0.062316038
219	0x3d141441	0.036152128
220	0xbc41dbd5	-0.011832197
221	0x3d0b0115	0.03393658
222	0x3d0d8d34	0.03455849
223	0x3cc1efac	0.023673855
224	0x3d07b273	0.033129167
225	0xbd338628	-0.043829113
226	0x3d4e5cfc	0.050381646
227	0xbbe42bb3	-0.006963217
228	0xbafa3028	-0.0019087838
229	0xbd5f1073	-0.054459047
230	0x3b22d85b	0.0024848196
231	0x3d38b94c	0.045098588
232	0xb70cfb8e	-8.40322e-06
233	0x3d7c9e32	0.061674304
234	0xbc080aca	-0.008303354
235	0xbbdd8a3e	-0.0067608645
236	0x3d4d7530	0.050160587
237	0xbc904d4f	-0.017614989
238	0xbd333206	-0.043748878
239	0xbcbe023b	-0.023194423
240	0xbd04df6f	-0.032439645
241	0xbd280bd1	-0.041026894
242	0xbd1c29dd	-0.03812586
243	0x3cf5442d	0.029939735
244	0x3cb92d40	0.022604585
245	0xbbacf43b	-0.005278138
246	0x3c7ad929	0.015310564
247	0xbb27b542	-0.0025590216
248	0xbcc65f55	-0.02421538
249	0xbd06a3b3	-0.03287096
250	0xbc960b59	-0.018315958
251	0xbae86b55	-0.0017732183
252	0x3d60662d	0.054784942
253	0x3ccdbe4c	0.025115155
254	0x3d32e794	0.04367788
255	0x3d454a40	0.048166513

gcn.ln1.weight f4 [256]
0	0x3f712e79	0.94211537
1	0x3f68c903	0.9093172
2	0x3f52d511	0.82356364
3	0x3f63028d	0.8867577
4	0x3f692a7d	0.91080457
5	0x3f26d579	0.65169483
6	0x3f3a4c33	0.7277252
7	0x3f6d5f5d	0.9272364
8	0x3f3acca3	0.729685
9	0x3f5be235	0.8589204
10	0x3f66d706	0.9017185
11	0x3f37daff	0.71818537
12	0x3f4d0ad8	0.8009467
13	0x3f61fd4f	0.88277143
14	0x3f5a9627	0.85385364
15	0x3f416428	0.7554345
16	0x3f43bcec	0.76460147
17	0x3f6dbfc5	0.9287074
18	0x3f76a800	0.963501
19	0x3f71890d	0.9434975
20	0x3f3f6e7f	0.7477798
21	0x3f1d3653	0.6141102
22	0x3f60ea40	0.8785744
23	0x3f4b4ece	0.7941712
24	0x3f658f9c	0.89672256
25	0x3ec7301b	0.3890389
26	0x3f6d3c86	0.92670476
27	0x3f5d67bd	0.8648642
28	0x3f5d34f3	0.8640892
29	0x3f348380	0.70513153
30	0x3f43452d	0.7627743
31	0x3f649227	0.8928551
32	0x3f245af9	0.64201313
33	0x3f2cef58	0.6755271
34	0x3f464c36	0.7746004
35	0x3f66d74c	0.90172267
36	0x3f320d1c	0.69551253
37	0x3f3badf2	0.73312294
38	0x3f315ff5	0.69287044
39	0x3f701409	0.9378057
40	0x3f643fbe	0.8915976
41	0x3f62336e	0.88359725
42	0x3f2cc750	0.67491627
43	0x3f53e913	0.8277752
44	0x3f38c42c	0.72174335
45	0x3f3a726e	0.72830856
46	0x3f550016	0.83203256
47	0x3f44359f	0.7664432
48	0x3f6828c4	0.90687203
49	0x3f62611a	0.88429415
50	0x3f381bb5	0.7191728
51	0x3f4b5573	0.7942726
52	0x3f41d73c	0.75719047
53	0x3f6f2a3d	0.93423826
54	0x3f4fe854	0.8121388
55	0x3f3aaa6f	0.7291631
56	0x3f6f0c2e	0.9337796
57	0x3f4f8e66	0.8107666
58	0x3f57b09c	0.8425386
59	0x3f554235	0.8330415
60	0x3f6c4702	0.9229585
61	0x3f43b5fd	0.7644957
62	0x3f0845f5	0.53231746
63	0x3f4646b4	0.77451634
64	0x3f528932	0.82240593
65	0x3f60f1a8	0.8786874
66	0x3f6d4790	0.9268732
67	0x3f499b27	0.7875237
68	0x3f3a149f	0.72687715
69	0x3f643c6a	0.89154685
70	0x3f7487ea	0.9551989
71	0x3f549026	0.83032453
72	0x3f529fe0	0.822752
73	0x3f6f8368	0.93559885
74	0x3f3c4903	0.7354891
75	0x3f6f0799	0.9337097
76	0x3f4903b4	0.78521276
77	0x3f5c13d2	0.85967743
78	0x3f658d89	0.8966909
79	0x3f3d0071	0.738288
80	0x3f2e6ce2	0.6813489
81	0x3f689edd	0.90867406
82	0x3f5dd1be	0.86648166
83	0x3f4ef3e1	0.8084088
84	0x3edf7591	0.43644384
85	0x3f294257	0.6611685
86	0x3f72a1ab	0.94777936
87	0x3f49f57f	0.7889022
88	0x3f341815	0.70349246
89	0x3f4a5f65	0.7905181
90	0x3f445eb0	0.7670698
91	0x3f6d6787	0.92736095
92	0x3f6c48fc	0.92298865
93	0x3f454e97	0.77073044
94	0x3f694973	0.911277
95	0x3f53e60a	0.82772887
96	0x3f6d12d3	0.9260685
97	0x3f16909a	0.58814394
98	0x3f59b2c3	0.85038394
99	0x3f4fc30b	0.81156987
100	0x3f45af84	0.7722094
101	0x3f6df620	0.9295368
102	0x3f671792	0.9027034
103	0x3f409a14	0.75235105
104	0x3f7045f5	0.93856746
105	0x3f65bed6	0.8974432
106	0x3f69a6ac	0.91269946
107	0x3f55216d	0.8325413
108	0x3f5e9a02	0.8695375
109	0x3f6a10a3	0.91431636
110	0x3f47a296	0.7798246
111	0x3f2b317d	0.6687239
112	0x3f4d2a06	0.8014225
113	0x3f75a189	0.9594961
114	0x3f2c9b8b	0.6742484
115	0x3f52066e	0.8204106
116	0x3efee491	0.49783757
117	0x3f490788	0.78527117
118	0x3f157398	0.5837951
119	0x3f4926ad	0.7857464
120	0x3f284542	0.6573068
121	0x3f6fbce4	0.936476
122	0x3f661c69	0.898871
123	0x3f4df378	0.8044963
124	0x3f6070e5	0.87672263
125	0x3f598352	0.84966004
126	0x3f54d151	0.8313189
127	0x3f32b54a	0.69807875
128	0x3f6c6a4f	0.92349714
129	0x3f6a4bd8	0.9152198
130	0x3f5debce	0.86687934
131	0x3f6bba1c	0.92080855
132	0x3f66af44	0.90111184
133	0x3f5c80d8	0.861341
134	0x3f71faae	0.9452313
135	0x3f5f599d	0.87246114
136	0x3f525189	0.8215566
137	0x3f4b28e3	0.79359263
138	0x3f6898e3	0.90858287
139	0x3f5f6118	0.8725753
140	0x3f59e4a4	0.851145
141	0x3f4556f9	0.77085835
142	0x3f57b056	0.8425344
143	0x3f7ac115	0.9795087
144	0x3f692f7a	0.9108807
145	0x3f51346e	0.81720626
146	0x3f30af52	0.6901752
147	0x3f4111a8	0.75417566
148	0x3f6d9496	0.9280485
149	0x3f72f465	0.94904166
150	0x3f31680d	0.69299394
151	0x3f5ffc7a	0.87494624
152	0x3f59bd52	0.85054505
153	0x3f53d40c	0.8274543
154	0x3f2f6711	0.6851664
155	0x3f4ff75f	0.81236833
156	0x3f5d7e09	0.8652044
157	0x3f3c5bbf	0.73577493
158	0x3f60735c	0.87676024
159	0x3f5dad94	0.86592984
160	0x3f32c4f2	0.69831765
161	0x3f5c4079	0.8603588
162	0x3f4f0b59	0.8087669
163	0x3f5b12ed	0.85575753
164	0x3f4f6387	0.8101124
165	0x3f3b2bff	0.7311401
166	0x3f3dbca3	0.7411596
167	0x3f600f7b	0.8752362
168	0x3f5d9306	0.86552465
169	0x3f4d97a3	0.80309504
170	0x3f77b479	0.96759754
171	0x3f404858	0.7511039
172	0x3f5b25e5	0.856047
173	0x3f0e06e5	0.5547927
174	0x3f57bfa5	0.842768
175	0x3f674664	0.9034178
176	0x3f60c48d	0.8779991
177	0x3f59904d	0.8498581
178	0x3f371ae8	0.7152543
179	0x3f486337	0.7827639
180	0x3f6112c3	0.87919253
181	0x3f41db93	0.7572567
182	0x3f6e593a	0.931049
183	0x3f4e8139	0.8066593
184	0x3f6e10db	0.9299447
185	0x3f4b0642	0.79306424
186	0x3f4d30cd	0.8015259
187	0x3f74b243	0.95584506
188	0x3f600d9f	0.87520784
189	0x3f5a70cd	0.8532837
190	0x3f52af58	0.82298803
191	0x3f5f53e4	0.8723738
192	0x3f5d6a36	0.8649019
193	0x3f35f496	0.71076334
194	0x3f40f724	0.75377107
195	0x3f65ecbb	0.8981435
196	0x3f52576f	0.82164663
197	0x3f6aad18	0.9167037
198	0x3f425b1f	0.7592029
199	0x3f538665	0.82626945
200	0x3f4971c2	0.78689206
201	0x3f5da7f4	0.865844
202	0x3f599832	0.84997857
203	0x3f75beb6	0.95994127
204	0x3f6cfdbf	0.92574686
205	0x3f2fed49	0.68721443
206	0x3f550745	0.8321422
207	0x3f666215	0.8999341
208	0x3f4ef41d	0.8084124
209	0x3f68764a	0.90805495
210	0x3f544eed	0.8293293
211	0x3f497bc2	0.78704464
212	0x3f379cce	0.7172364
213	0x3f6e52b5	0.9309495
214	0x3f475880	0.77869415
215	0x3f3b5df9	0.73190266
216	0x3f563530	0.8367491
217	0x3f51ec23	0.8200094
218	0x3f3fae7f	0.74875635
219	0x3f766a12	0.962556
220	0x3f5593d5	0.834287
221	0x3f3049a1	0.6886235
222	0x3f6488f5	0.8927148
223	0x3f387e8e	0.7206811
224	0x3f364900	0.7120514
225	0x3f4ceabf	0.80045694
226	0x3f456735	0.77110606
227	0x3f56d887	0.83924145
228	0x3f5aac30	0.8541899
229	0x3f3ff65a	0.7498528
230	0x3f2da6e3	0.67832774
231	0x3f4e62b5	0.80619365
232	0x3f5da879	0.86585194
233	0x3f5244f6	0.82136476
234	0x3f3f78ae	0.7479352
235	0x3f10cbf8	0.5656123
236	0x3f68f68f	0.9100122
237	0x3f6c3785	0.92272216
238	0x3f4b5436	0.7942537
239	0x3f5c903d	0.8615759
240	0x3f50f06f	0.8161687
241	0x3f5f2451	0.8716479
242	0x3f6a333c	0.9148443
243	0x3f4857a4	0.7825873
244	0x3f57046c	0.8399112
245	0x3f444b9f	0.7667789
246	0x3f5e0176	0.8672098
247	0x3f51f7e1	0.8201886
248	0x3f4e9ceb	0.8070819
249	0x3f5dfce3	0.86714
250	0x3f1c0b2f	0.60954565
251	0x3f5a6940	0.8531685
252	0x3f4f8406	0.81060827
253	0x3f4eb549	0.8074537
254	0x3f38ae03	0.7214052
255	0x3f6c6862	0.92346776

gcn.ln1.bias f4 [256]
0	0xbb816891	-0.003949233
1	0xbc595214	-0.013264198
2	0xbcb93fa0	-0.022613347
3	0xbc7cc91c	-0.015428808
4	0xbc156163	-0.009117457
5	0xbd06e6e0	-0.032935023
6	0xbd182dfe	-0.037153237
7	0xbc713ae9	-0.014723518
8	0xbcc9dbfe	-0.024641033
9	0xbc7ce023	-0.015434298
10	0xbba13696	-0.004919837
11	0xbc75486e	-0.014970882
12	0xbc9fe8c1	-0.019520165
13	0xbc948c95	-0.018133441
14	0xbc539cb0	-0.012915775
15	0xbcdb9997	-0.026806636
16	0xbcae6bd3	-0.021291649
17	0xba62e541	-0.00086553773
18	0xbc286b8a	-0.010279546
19	0xbbf0fbc6	-0.0073542325
20	0xbd0b96f0	-0.034079492
21	0xbccf381c	-0.02529531
22	0xbc2f99e7	-0.0107178455
23	0xbc85cc81	-0.016332867
24	0xbc131844	-0.008977953
25	0xbd3668b6	-0.044533454
26	0xbb2aad4f	-0.0026043241
27	0xbc160617	-0.009156725
28	0xbc1a8e52	-0.009433346
29	0xbcaf39a7	-0.021389795
30	0xbce111ee	-0.02747437
31	0xbbac0756	-0.005249898
32	0xbcb94f7d	-0.02262091
33	0xbcec40c7	-0.028839482
34	0xbc40cd37	-0.011767677
35	0xbc36b56c	-0.011151653
36	0xbd143062	-0.036178954
37	0xbcb41f5c	-0.02198761
38	0xbcc1b2e8	-0.02364488
39	0xbbe2f3e0	-0.006926045
40	0xbc20538f	-0.009785547
41	0xbcadbea7	-0.021209074
42	0xbcadd4fd	-0.021219725
43	0xbce16393	-0.027513301
44	0xbc3be809	-0.011468896
45	0xbba1ba51	-0.0049355407
46	0xbc88bbe1	-0.01669115
47	0x3be395f7	0.0069453674
48	0xbc19be5f	-0.009383767
49	0xbc993565	-0.018702218
50	0xbd1db1f8	-0.038499802
51	0xbc914ee3	-0.017737811
52	0xbcba83e0	-0.022767961
53	0x3ad915f2	0.0016562326
54	0x3b45d64e	0.003018755
55	0xbcdc7902	-0.02691317
56	0x3a69b40a	0.00089150725
57	0xbbe72947	-0.007054481
58	0xbc46f7d6	-0.01214405
59	0xbd0bbac8	-0.034113675
60	0x3a341e64	0.00068709836
61	0xbcc8722b	-0.024468502
62	0xbce64d86	-0.028113138
63	0xbd065e91	-0.03280503
64	0xbb837bbb	-0.0040125526
65	0xbc500f9c	-0.012699034
66	0xbbbfab45	-0.0058492743
67	0xbc08e743	-0.008355918
68	0xbc81ba71	-0.015835973
69	0xbb09220e	-0.002092484
70	0xbc5a2e49	-0.013316699
71	0xbc7f94ea	-0.015599469
72	0xba21117f	-0.000614427
73	0xbbc6fb80	-0.0060724616
74	0xbc89135e	-0.016732868
75	0x3bb5bd68	0.0055462606
76	0xbd0d39e6	-0.034479044
77	0xbc466f66	-0.01211152
78	0xbc5d9229	-0.013523617
79	0xbcd5c5a4	-0.026095219
80	0xbc316cf7	-0.010829202
81	0xbc8d4de6	-0.017249059
82	0xbc28cd5e	-0.01030287
83	0xbc9193a6	-0.0177706
84	0xbd18b340	-0.03728032
85	0xbd0bca12	-0.034128256
86	0xbbe8ffc6	-0.0071105687
87	0xbc87bea7	-0.016570402
88	0xbb4a235b	-0.0030843827
89	0xbc018d30	-0.007907197
90	0xbc512be0	-0.012766808
91	0xbc18f2fc	-0.009335276
92	0xbb60c9ae	-0.0034299898
93	0xbc7932d7	-0.015209875
94	0xbc45be9c	-0.012069371
95	0xbc78dddf	-0.015189617
96	0xbc3800b8	-0.01123064
97	0xbd0ba0a6	-0.034088753
98	0xbc60cec0	-0.013721168
99	0xbbdab8c8	-0.0066748597
100	0xbbddedef	-0.0067727487
101	0xbbd162c4	-0.0063899476
102	0xbc6d1238	-0.014469676
103	0xbce57ac3	-0.028012639
104	0xbbbad9ad	-0.0057022185
105	0xbc0c92a1	-0.008579881
106	0xbc44cf44	-0.012012307
107	0xbc9086c6	-0.01764239
108	0xbc75a197	-0.014992139
109	0xbb25bb54	-0.0025288658
110	0x3b124833	0.0022320866
111	0xbcc65066	-0.024208259
112	0xbcfda0f5	-0.03096054
113	0xbbb219a4	-0.0054351855
114	0xbc79119e	-0.015201954
115	0xbcda4488	-0.026644006
116	0xbd1814fc	-0.037129387
117	0xbc64d818	-0.013967536
118	0xbbc8902e	-0.006120703
119	0xbc2049ff	-0.009783267
120	0xbc3108c1	-0.01080531
121	0xbc3eb48d	-0.011639726
122	0xbc499d3e	-0.012305556
123	0xbc3bfad6	-0.011473378
124	0xbc311143	-0.010807338
125	0xbbd059da	-0.0063583674
126	0xbc6aab86	-0.014323121
127	0xbd157d98	-0.03649673
128	0xbc85aa3b	-0.016316524
129	0xbc1ac592	-0.0094465185
130	0xbc30cc17	-0.010790846
131	0xbc6f7635	-0.014615585
132	0xbc0b3cd4	-0.008498389
133	0xbbf3beb9	-0.0074385074
134	0xbaee9c3d	-0.0018204522
135	0xbc7b32ed	-0.015331966
136	0xbb8ec35e	-0.0043567857
137	0xbce22793	-0.027606761
138	0xbbfd9160	-0.0077382773
139	0xbbeb8be8	-0.007188309
140	0xbb53533f	-0.0032245663
141	0xbca5e1dd	-0.020249302
142	0xbc669391	-0.0140732685
143	0xbbaf59a3	-0.0053512617
144	0xbc04a8f5	-0.008096923
145	0xbbc9df70	-0.006160669
146	0xbb899344	-0.0041984636
147	0x3a407948	0.0007342291
148	0xbbf94db2	-0.007608139
149	0xba8f0e33	-0.0010914266
150	0xbd1bbd4d	-0.03802233
151	0xbc38a636	-0.0112700965
152	0xbcc7202b	-0.024307331
153	0xbca006a8	-0.019534424
154	0xbd0a8289	-0.033815894
155	0xbc9021c3	-0.017594224
156	0xbc90074c	-0.017581604
157	0xbc82b767	-0.015956594
158	0xbcb56894	-0.022144593
159	0x3a893283	0.0010467324
160	0xbc9a1100	-0.018806934
161	0xbc86c61f	-0.016451893
162	0xbcfb6ef4	-0.030692555
163	0xbc5f3ec6	-0.013625806
164	0xbcd1a8e3	-0.025593227
165	0xbcd745c9	-0.026278393
166	0xbcca63dc	-0.02470582
167	0xbc7003f3	-0.014649379
168	0xbc51484d	-0.0127735855
169	0xbd104e32	-0.035230823
170	0xbb6470b1	-0.0034857208
171	0xbc87faf7	-0.016599162
172	0xbce578ba	-0.028011668
173	0xbcc6c13e	-0.024262067
174	0xbcc94103	-0.024567133
175	0xbbc60c28	-0.0060439296
176	0xbb9ef71d	-0.0048512355
177	0xbc0a2728	-0.008432187
178	0xbc9d4bcb	-0.01920118
179	0xbc439a16	-0.011938592
180	0xbb1088ed	-0.002205427
181	0xbca3d645	-0.019999633
182	0xb9ca60a8	-0.00038600457
183	0xbb7b51b6	-0.0038348264
184	0xbb4349db	-0.002979866
185	0xbc9f11ab	-0.019417604
186	0xbc377d4f	-0.0111993095
187	0xbc327fd1	-0.010894732
188	0xbcd7f5b5	-0.02636228
189	0xbc019792	-0.007909672
190	0xbc4389e0	-0.011934727
191	0xbd0e2c68	-0.034710318
192	0xbc8fffbb	-0.017577996
193	0xbd080e3e	-0.033216707
194	0xbcb4eee6	-0.022086572
195	0xbb25cfbe	-0.0025300826
196	0xbc58c263	-0.013229939
197	0xbbeeec3f	-0.0072913463
198	0x3ac84a72	0.0015280975
199	0xbcee1a6f	-0.029065339
200	0xbca884a4	-0.02057106
201	0xbc6981e2	-0.014252158
202	0xbc338167	-0.010956145
203	0xba4eed45	-0.0007893632
204	0xbc56490d	-0.01307894
205	0xbc7c7117	-0.015407822
206	0xbcaa3822	-0.02077872
207	0xbb6a8d84	-0.0035789916
208	0xbc9722ec	-0.01844927
209	0xbb10014b	-0.0021973427
210	0xbce1a4e1	-0.02754444
211	0xbc225f54	-0.009910423
212	0xbcf6e837	-0.030140026
213	0xbc4debd0	-0.012568429
214	0xbc30a748	-0.01078207
215	0xbd075ba6	-0.033046387
216	0xbc9e7f8b	-0.019347927
217	0xbc0c1439	-0.008549743
218	0xbcfff354	-0.031243958
219	0x390d07b9	0.00013449685
220	0xbc0757ec	-0.008260708
221	0xbd0dcaed	-0.034617353
222	0xbbeac5e7	-0.007164705
223	0xbd1b0d19	-0.037854288
224	0xbd2419eb	-0.04006378
225	0xbbc6732b	-0.0060562096
226	0xbcc33684	-0.023829706
227	0xbc7893ea	-0.015171984
228	0xbb7a6865	-0.0038209197
229	0xbcd60154	-0.02612368
230	0xbc21c260	-0.009873003
231	0xbcbec533	-0.023287391
232	0x3add663c	0.001689143
233	0xbc586531	-0.01320772
234	0xbd0335ba	-0.03203366
235	0xbc9cc391	-0.019136222
236	0xbca81339	-0.020516979
237	0xbbd54974	-0.0065090004
238	0xbcdb0db2	-0.026739929
239	0xbc4ce2bf	-0.012505232
240	0xbb388729	-0.0028156734
241	0xbc8521f4	-0.016251542
242	0xb7171016	-9.004047e-06
243	0xbc9c9880	-0.019115686
244	0xbc648353	-0.013947326
245	0xbbb158f3	-0.005412215
246	0xbbce278f	-0.006291337
247	0xbc9a5ca5	-0.018843004
248	0xbc7c335b	-0.0153931035
249	0xbc35652d	-0.0110714855
250	0xbcb014fc	-0.021494381
251	0xbc1da20b	-0.009621154
252	0xbc964d8e	-0.018347528
253	0xbc8bf07a	-0.017082442
254	0xbd01e898	-0.03171596
255	0xbc748e26	-0.014926469

gcn.gc2.weight f4 [256, 64]
0	0xbdeaaf2c	-0.11459193
1	0x3b4c314d	0.0031157315
2	0x3c97075c	0.018436126
3	0x3dd0f824	0.10203579
4	0xbd66e201	-0.056367878
5	0x3d86d6aa	0.06583913
6	0x3de746b8	0.112927854
7	0xbd81007b	-0.0629892
8	0xbdf33e91	-0.11877168
9	0xbc2e842e	-0.010651631
10	0x3db4d313	0.08829322
11	0xbd6a5a24	-0.05721487
12	0x3cb90263	0.022584146
13	0x3cf2cd23	0.029638832
14	0xbdbe9fc8	-0.093078196
15	0xbdb15e6b	-0.08660587
16	0x3d182ace	0.037150197
17	0xbd8b16be	-0.06791447
18	0xbdaed168	-0.08536035
19	0xbdca1e7b	-0.09869095
20	0x3cecb5e2	0.028895322
21	0x3c98660e	0.018603351
22	0x3d063ebe	0.03277468
23	0x3d52189d	0.051293004
24	0xbde990f5	-0.114046015
25	0xbc4265eb	-0.011865119
26	0xbdf3adf5	-0.11898414
27	0x3a8d33fb	0.0010772938
28	0x3d3a7b04	0.045527473
29	0xbd38a336	-0.045077525
30	0x3d6e1e27	0.058134224
31	0xbdae8c9c	-0.08522913
32	0x3d3bc6d6	0.04584392
33	0x3b54f9aa	0.0032497444
34	0x3dc50660	0.096203566
35	0xbdc802ce	-0.0976616
36	0x3cf38994	0.029728688
37	0xbc9f205d	-0.019424612
38	0x3d904d27	0.07045966
39	0x3d0f13c5	0.034930963
40	0xbde2cb66	-0.110739514
41	0x3c147211	0.009060399
42	0x3dc9120c	0.09817895
43	0x3d84e190	0.06488335
44	0x3e099c23	0.13438468
45	0xbd4c8955	-0.049935658
46	0xbbdabef2	-0.0066755945
47	0x3cb5f92b	0.02221354
48	0xbd0673bf	-0.032825228
49	0x3d88b210	0.06674588
50	0x3c62596c	0.013815265
51	0x3d11b0f3	0.035569143
52	0xbd0dd3ea	-0.034625925
53	0x3c0897b8	0.008336954
54	0xbbb52c80	-0.0055289865
55	0xbdd278fc	-0.10276982
56	0xbe027934	-0.12741548
57	0xbcabe780	-0.020984411
58	0x3cea9e8f	0.02864006
59	0x3d832985	0.064044036
60	0x3da75d0d	0.08172045
61	0x3d9e7ba8	0.07738429
62	0xbd27b654	-0.040945366
63	0x3dac87ef	0.08424365
64	0xbc732ade	-0.014841763
65	0x3d85f67c	0.06541154
66	0xbcc52e9d	-0.024070079
67	0x3dc504bd	0.096200444
68	0x3daf3ed1	0.08556903
69	0xbdb0b6ed	-0.0862864
70	0xbcf514db	-0.029917171
71	0x3c9c357c	0.019068472
72	0xbde35a94	-0.11101261
73	0xbde0ccfa	-0.10976596
74	0xbda6c132	-0.08142318
75	0xbc8afcde	-0.01696628
76	0xbdac628c	-0.08417234
77	0xbd931665	-0.07182006
78	0xbd02d622	-0.031942494
79	0xbd89a3e0	-0.0672071
80	0x3ce95222	0.028481547
81	0xbd3cf525	-0.046132226
82	0x3dc33e11	0.095333226
83	0x3d9c0a6c	0.07619175
84	0x3dd55eb4	0.10418454
85	0x3d0156ee	0.031577043
86	0x3d7cfccc	0.061764523
87	0x3d2e84a5	0.04260697
88	0xbcde4785	-0.027133713
89	0x3ba161aa	0.0049249725
90	0x3cfccac7	0.03085841
91	0xbd3961af	-0.045259174
92	0xbc58240f	-0.013192191
93	0xbcaf4ba9	-0.021398382
94	0x3df102a6	0.11768083
95	0xbdb93039	-0.09042401
96	0xbd8f102a	-0.06985505
97	0xbd87f723	-0.066389345
98	0xbd847cc7	-0.06469112
99	0x3c661909	0.014044055
100	0xbbad0d5e	-0.0052811345
101	0x3d376669	0.0447754
102	0xbc965f6c	-0.018356048
103	0x3df05ef2	0.117368594
104	0xbc96f82d	-0.018428886
105	0xbd135ff6	-0.035980187
106	0x3bd4b2e1	0.0064910506
107	0xbdc2f874	-0.09520045
108	0x3b917b93	0.00443978
109	0x3c7a826f	0.015289887
110	0xbd2ebdcf	-0.042661484
111	0xbd98cff5	-0.0746154
112	0x3dc59f98	0.09649581
113	0x3dbc52df	0.09195494
114	0x3d516ceb	0.051129263
115	0xbd070c94	-0.03297098
116	0x3c8a7aa7	0.016904188
117	0xbc072ab8	-0.008249931
118	0xbd9165c9	-0.07099492
119	0x3dcfb803	0.10142519
120	0xbd3604cf	-0.04443818
121	0x3cbec119	0.023285436
122	0xbd083f04	-0.03326322
123	0x3dbdd2e2	0.09268738
124	0xbadfb305	-0.0017066902
125	0xbd56f0c3	-0.052475702
126	0x3d1975c3	0.037465822
127	0x3c3df6f6	0.011594525
128	0xbdbea5e6	-0.09308986
129	0x3bc3f882	0.005980552
130	0xbd841e10	-0.064510465
131	0xbdde6093	-0.10858264
132	0xbd7324c0	-0.05936122
133	0x3ca9cb53	0.020726835
134	0x3d6ac962	0.05732096
135	0x3de7a20b	0.11310204
136	0xbc96d57e	-0.018412348
137	0x3ad595cf	0.0016295257
138	0x3d9e775f	0.07737612
139	0xbd9fd270	-0.0780381
140	0xbcd6ffcd	-0.026245022
141	0xbda3ac41	-0.07991839
142	0x3df648f6	0.12025635
143	0x3dc379e1	0.09544731
144	0xbdee750d	-0.116434194
145	0xbdbda33d	-0.09259651
146	0x3cbff253	0.023430979
147	0xbde45af0	-0.111501575
148	0xbd896a54	-0.067097336
149	0x3c8eaa2b	0.017415127
150	0xbd6e305b	-0.058151584
151	0x3d29fb17	0.041499224
152	0x3cc4a364	0.024003692
153	0xbdc6a757	-0.09699886
154	0x3d5e029f	0.05420172
155	0xbc4ee644	-0.012628142
156	0x3d3f613e	0.046723597
157	0xbc8797f5	-0.016551951
158	0x3d9de84b	0.07710322
159	0x3d3a54f2	0.045491166
160	0xbc9dd8ae	-0.01926836
161	0x3d8e2b27	0.069418244
162	0xbc2fee50	-0.0107379705
163	0xbadb514e	-0.0016732605
164	0x3ca2d589	0.019877212
165	0x3d054b23	0.03254236
166	0x3bd6bce6	0.00655328
167	0xbda96bd4	-0.0827252
168	0x3cd511e7	0.026009513
169	0x3d5ce9bd	0.053933848
170	0xbdb95ea6	-0.09051256
171	0x3d145ed0	0.036223233
172	0xbca38950	-0.019962937
173	0xbd174376	-0.03692957
174	0xbd830857	-0.06398075
175	0xbd958d24	-0.07302311
176	0x3cc65c5c	0.024213962
177	0xbd7a9fb3	-0.061187457
178	0x3e01f28f	0.12690185
179	0x3c7ef974	0.015562404
180	0xbc1684dc	-0.00918695
181	0x3c75e12d	0.015007299
182	0xbdc159a0	-0.09440923
183	0xbc102f03	-0.008800271
184	0x3bee47c6	0.0072717397
185	0x3dbd5004	0.092437774
186	0x3d95116d	0.07278714
187	0x3ccf5d08	0.025312915
188	0x3d33f253	0.04393227
189	0xbcf5897e	-0.029972788
190	0xbbfcdaad	-0.007716498
191	0xbd874e26	-0.066067025
192	0xbdaa9cb5	-0.08330671
193	0x3c89c7a8	0.016818836
194	0x3d971f7d	0.07379053
195	0xbdb5a0ac	-0.08868536
196	0xbd276973	-0.04087205
197	0xbdc08f85	-0.09402374
198	0xbdd170f5	-0.10226623
199	0xbd047686	-0.032339595
200	0x3dba2376	0.09088795
201	0xbdc90ce6	-0.09816913
202	0xbc52d939	-0.012869173
203	0xbd9e660e	-0.07734309
204	0x3ca5cf83	0.02024055
205	0xbd4009ff	-0.046884533
206	0xbcd9f87e	-0.026607748
207	0xbd41b3e0	-0.047290683
208	0xbd81f4d9	-0.06345529
209	0xbd22245d	-0.03958546
210	0x3ce99ffc	0.02851867
211	0xbdd08f68	-0.101836026
212	0xbc453708	-0.012037046
213	0x3d3369ca	0.04380206
214	0xbd6e24e5	-0.058140654
215	0xbd1f7cc0	-0.03893733
216	0xbc935725	-0.01798589
217	0x3cf79157	0.03022067
218	0xbd9a444a	-0.07532556
219	0x3bdb428d	0.006691283
220	0x3d6b9a52	0.05752022
221	0x3cbd88eb	0.023136577
222	0xbd02e32d	-0.031954933
223	0xbd42bd3c	-0.04754375
224	0xbc5a71ca	-0.0133327935
225	0xbdd0d7b4	-0.10197392
226	0x3d5d6521	0.054051522
227	0xbd8ce267	-0.0687912
228	0xbc8a4294	-0.01687745
229	0x3c52c527	0.012864388
230	0xbd80c7bd	-0.06288097
231	0xbd40048e	-0.046879344
232	0xbdbb3b2b	-0.09142145
233	0x3d8646d7	0.065564804
234	0x3dedc33d	0.11609504
235	0x3cccc33b	0.024995437
236	0x3d42ad3a	0.047528483
237	0x3d06bb96	0.03289374
238	0x3ce11102	0.02747393
239	0x3d94b289	0.072606154
240	0xbd0f0850	-0.034920037
241	0x3db94b84	0.090476066
242	0x3db6b9d3	0.08922162
243	0xbc553363	-0.01301274
244	0xbb9f7300	-0.004866004
245	0x3c91ed71	0.017813416
246	0x3cd186ab	0.02557691
247	0x3d863a16	0.06554048
248	0xbd433415	-0.04765709
249	0xbd4ce182	-0.05001975
250	0x3da9eea0	0.08297467
251	0x3d86b7a2	0.06577994
252	0xbc9be028	-0.019027784
253	0xbce688a3	-0.028141325
254	0x3df9b2aa	0.121922806
255	0xbcb6db71	-0.022321435

gcn.gc2.bias f4 [64]
0	0x3d739ef3	0.059477758
1	0x3cfebf9d	0.031097228
2	0x3da05301	0.07828332
3	0x3d6247c3	0.05524422
4	0x3c39126c	0.011295896
5	0xbd671117	-0.056412783
6	0xbdcdc45f	-0.100472204
7	0xbd9df1e6	-0.07712154
8	0xbddb7c7f	-0.10717105
9	0x3dc67f55	0.096922554
10	0xbd9413e0	-0.07230353
11	0xbdd8fe46	-0.10595374
12	0x3db99840	0.090622425
13	0xbdb76ddc	-0.08956501
14	0x3ccce647	0.025012149
15	0x3d2589a0	0.040414453
16	0xbd173883	-0.03691913
17	0xbd097601	-0.033559803
18	0x3d6375c3	0.05553223
19	0xbdc5012d	-0.09619365
20	0x3d0b74a4	0.034046784
21	0xbd4920dd	-0.049103606
22	0xbd909c60	-0.07061076
23	0x3d955b58	0.07292813
24	0xbd68cb07	-0.056834247
25	0xbd6703b1	-0.056400005
26	0xbd202e33	-0.03910656
27	0x3d440f30	0.047866046
28	0x3db2f566	0.08738212
29	0x3dc4e558	0.09614056
30	0x3e006966	0.12540206
31	0xbd7db053	-0.061935734
32	0x3d658706	0.05603697
33	0xbbdc500c	-0.0067234095
34	0x3d910ff5	0.07083122
35	0x3ddaada4	0.106776506
36	0x3c82bee6	0.015960168
37	0x3d1570e6	0.03648462
38	0x3c95756b	0.018244466
39	0x3d8cd848	0.0687719
40	0xbd0a927c	-0.033831105
41	0xbd82ab8f	-0.063803785
42	0xbdce95a1	-0.10087133
43	0x3dbed89c	0.09318659
44	0xbd12e18d	-0.035859633
45	0x3d2eb3d5	0.04265197
46	0x3c7924b5	0.015206506
47	0xbd1efc35	-0.038814742
48	0x3de8e9e7	0.11372738
49	0xbd6c0d92	-0.05763013
50	0x3ca0757a	0.019587267
51	0x3ce628f5	0.028095702
52	0xbd737e02	-0.059446342
53	0x3db79c13	0.08965316
54	0xbd804cc7	-0.06264644
55	0xbdb66e27	-0.08907729
56	0x3dd7c4a8	0.10535556
57	0x3c9e5172	0.019325946
58	0x3cf5786a	0.029964644
59	0x3d66228c	0.05618529
60	0x3de9b2ac	0.11411032
61	0x3c93c1d5	0.018036762
62	0xbd57d709	-0.052695308
63	0xbd4f94ab	-0.05067889

gcn.ln2.weight f4 [64]
0	0x3f819f42	1.0126727
1	0x3f70decd	0.94089967
2	0x3f829de1	1.0204431
3	0x3f800bb5	1.0003573
4	0x3f126205	0.57180816
5	0x3f81bcbe	1.0135725
6	0x3f820f61	1.0160943
7	0x3f763134	0.9616883
8	0x3f728e9f	0.9474887
9	0x3f7b2bae	0.98113525
10	0x3f822f0b	1.0170606
11	0x3f68e21b	0.9097001
12	0x3f6279b9	0.88466984
13	0x3f7e4511	0.99324137
14	0x3f811724	1.0085187
15	0x3f787a4d	0.97061616
16	0x3f320460	0.69537926
17	0x3f761c5a	0.9613701
18	0x3f75b986	0.9598621
19	0x3f81f93d	1.0154186
20	0x3f73fe72	0.9531013
21	0x3f26be8e	0.65134513
22	0x3e92bb35	0.28658453
23	0x3f1b6145	0.60695297
24	0x3f7051dc	0.9387491
25	0x3f7347f4	0.95031667
26	0x3f79b19a	0.97536623
27	0x3f2e71e4	0.68142533
28	0x3eec4871	0.46149018
29	0x3f699065	0.91235954
30	0x3f71cc7c	0.94452643
31	0x3f4630ce	0.7741822
32	0x3f3fb09f	0.7487888
33	0x3f6b2149	0.91847664
34	0x3f5f5d36	0.87251604
35	0x3f82df72	1.022444
36	0x3e28ef10	0.16497445
37	0x3f7b7f70	0.9824133
38	0x3f7f5087	0.9973225
39	0x3f83bd68	1.0292177
40	0x3f850f99	1.0395385
41	0x3f62bce2	0.8856946
42	0x3f83f958	1.0310469
43	0x3f5215f3	0.8206474
44	0x3f718b62	0.94353306
45	0x3f78f123	0.97242945
46	0x3e882519	0.26590803
47	0x3f82712e	1.019079
48	0x3f7db61f	0.9910602
49	0x3f824e38	1.018012
50	0x3f49147a	0.7854687
51	0x3ebcc613	0.3686987
52	0x3f2b54aa	0.6692606
53	0x3f70940a	0.9397589
54	0x3f649679	0.89292103
55	0x3f810b8b	1.0081648
56	0x3f7611c6	0.9612087
57	0x3f7e52f0	0.993453
58	0x3f7e5278	0.9934459
59	0x3f607983	0.8768541
60	0x3f4e95c0	0.8069725
61	0x3f4ee146	0.8081249
62	0x3f7d1e6b	0.9887454
63	0x3f3516cf	0.7073793

gcn.ln2.bias f4 [64]
0	0x3bfffacf	0.007811881
1	0x3c16e147	0.009208984
2	0x3c5cae29	0.013469257
3	0xbbec6fe5	-0.0072154873
4	0xbb7f74a8	-0.0038979445
5	0x3c4b8c7d	0.012423632
6	0x3c17d631	0.009267376
7	0x3ad7c01b	0.001646045
8	0x3bcefbcd	0.006316638
9	0x3cffbd0d	0.031218076
10	0x3c2dbb3d	0.010603723
11	0xbc4be2d7	-0.01244422
12	0xbbf713af	-0.0075401883
13	0x3c4591c2	0.012058677
14	0x3be0b145	0.0068570697
15	0x3c17f984	0.009275798
16	0xba5cb33b	-0.00084190414
17	0xbb41a88a	-0.002954992
18	0xbaa24322	-0.0012379626
19	0x3c1c1004	0.009525303
20	0x3a204a8f	0.0006114626
21	0xbbad7f4d	-0.0052947165
22	0xbd29e5d1	-0.041478936
23	0xbbe12e0b	-0.006871944
24	0x3bb1f62f	0.0054309587
25	0x3b95c540	0.004570633
26	0x3cdffd8c	0.02734258
27	0x3afabde2	0.0019130076
28	0xbcea7f07	-0.028625024
29	0xbbbdf940	-0.005797535
30	0x3c84b041	0.016197326
31	0x3c88a21b	0.01667886
32	0xbc41a7bd	-0.011819777
33	0x3c0b8bb0	0.008517191
34	0x3bd1d5e9	0.006403674
35	0x3b9f965f	0.0048702206
36	0xbbd26046	-0.006420168
37	0x3bcd138c	0.0062584337
38	0x3c5621d9	0.013069593
39	0x3c668fe4	0.014072392
40	0x3c30c2d4	0.010788638
41	0x3c8125fb	0.01576518
42	0x3b44c17a	0.0030022548
43	0x393c8b9a	0.00017981083
44	0xbb414a14	-0.0029493617
45	0x3a09d2d7	0.0005257553
46	0xbca62e82	-0.020285849
47	0x3c10e278	0.008843057
48	0x3bfe6d75	0.007764513
49	0x3ccf6c0c	0.025320075
50	0x3c3132c0	0.010815322
51	0xbc1a2f01	-0.009410621
52	0xbc17b13c	-0.009258565
53	0xba92dcd2	-0.0011204726
54	0xbb77aadc	-0.003779105
55	0x3c23612f	0.009971901
56	0x3c6651b3	0.014057565
57	0x3d3de1ef	0.046358045
58	0x3ba3276d	0.004979065
59	0x3ca5edd9	0.020255016
60	0xbbe64288	-0.007026974
61	0x3bbeab17	0.0058187353
62	0x3c3cc2f2	0.011521088
63	0x3bfc9a13	0.0077087968

attention.fc1.weight f4 [16, 64]
0	0xbbc40d96	-0.005983065
1	0xbcb8821c	-0.022522978
2	0x3dcf8fa7	0.101348214
3	0x3df060dc	0.117372245
4	0xbd15cc70	-0.03657192
5	0xbd46e2cf	-0.048556145
6	0x3cba8717	0.022769494
7	0xbd2ba6b8	-0.041907042
8	0x3c1c022e	0.009522004
9	0xbdc32d82	-0.09530164
10	0xb8ab203f	-8.159922e-05
11	0x3ddf61c4	0.10907319
12	0xbcca076a	-0.024661738
13	0xbb845209	-0.0040380997
14	0x3cfe7dc6	0.031065833
15	0xbdeacb50	-0.1146456
16	0xbd73e5f0	-0.059545457
17	0xbd455399	-0.048175428
18	0xbc3d12da	-0.011540139
19	0x3c935adb	0.01798766
20	0xbd4f73e2	-0.050647624
21	0xbd2ea842	-0.042640932
22	0x3d20994a	0.039208688
23	0xbd9fa59e	-0.07795261
24	0x3d46a55d	0.048497546
25	0xbde14268	-0.10998994
26	0xbcdd741f	-0.02703291
27	0xbd249414	-0.04018028
28	0xbd0c559c	-0.03426133
29	0x3dcc96e6	0.09989719
30	0xbdbc51c8	-0.09195286
31	0xbd0e4603	-0.034734737
32	0x3db746ca	0.08949049
33	0x3bd50399	0.006500673
34	0xbd3d3336	-0.046191417
35	0xbd060219	-0.032716844
36	0x3b162753	0.0022911623
37	0xbd9ee8fa	-0.077592805
38	0x3cc6f051	0.024284514
39	0xbce83345	-0.02834476
40	0x3d451dbd	0.048124064
41	0x3ce2f7c5	0.027706036
42	0x3c464b34	0.012102891
43	0x3d2702b8	0.040774077
44	0xbba268b3	-0.004956329
45	0xbe1fe97b	-0.1561641
46	0x3c4e5eed	0.012595874
47	0xbd9d5e9d	-0.07684062
48	0xbd3d0b40	-0.046153307
49	0xbb29dc33	-0.0025918602
50	0xbd193934	-0.03740807
51	0x3d0ecefb	0.03486536
52	0xbcce35c8	-0.02517213
53	0xbc291a0e	-0.010321153
54	0x3d23162e	0.039816074
55	0x3af58a77	0.0018733282
56	0xbdcbb1a2	-0.0994599
57	0xbcc76341	-0.02433932
58	0x3be0366c	0.006842425
59	0xbdb23130	-0.08700788
60	0x3d070405	0.032962818
61	0xbdb5fe6c	-0.08886418
62	0x3d956c75	0.07296077
63	0xbd28c524	-0.041203633
64	0xbd2f97f0	-0.04286951
65	0xbca9fed9	-0.020751404
66	0xbd4c1222	-0.04982198
67	0xbd3c3a7a	-0.045954205
68	0x3d144ed9	0.036208007
69	0x3d62aa94	0.055338457
70	0xbd8feba4	-0.07027367
71	0x3dc645a0	0.09681249
72	0x3e0488b8	0.12942779
73	0x3e6c003d	0.23046966
74	0x3c01016e	0.007873876
75	0xbe301e3a	-0.1719903
76	0xbc693945	-0.0142348455
77	0xbd35a31a	-0.044345
78	0xbc94ab36	-0.018148046
79	0x3df65007	0.12026983
80	0x3dca7992	0.09886469
81	0xbcdee36e	-0.027208056
82	0x3d1134b4	0.035450652
83	0x3d59be77	0.053160157
84	0xbdc4400f	-0.09582531
85	0xbd738c6f	-0.0594601
86	0xbdbb2bd9	-0.09139223
87	0xbaba18c7	-0.0014198058
88	0x3b2f61fb	0.0026761282
89	0x3e1177d4	0.14205867
90	0x3d9b1914	0.07573143
91	0x3d49329c	0.04912053
92	0xbc2b9701	-0.010473014
93	0xbd158c12	-0.036510535
94	0xbcaff02c	-0.021476828
95	0xbd89e92b	-0.067339264
96	0xbdc4e1bc	-0.09613368
97	0x3dd83936	0.10557787
98	0x3d500052	0.050781555
99	0xbd8071b0	-0.06271684
100	0xbd3096bb	-0.043112498
101	0x3daff01a	0.085907176
102	0xbd495d0c	-0.049161002
103	0x3dcc8909	0.09987075
104	0x3d3c753e	0.04601025
105	0x3cca13e3	0.024667686
106	0xbd3ce171	-0.046113435
107	0xbd7476cf	-0.059683617
108	0xbd9087f7	-0.07057183
109	0x3e534108	0.20630276
110	0xbd7fac82	-0.062420376
111	0xbb89f0c7	-0.004209611
112	0xbdc70c29	-0.09719116
113	0xbb3095fc	-0.0026944866
114	0xbccbf016	-0.024894755
115	0x3d2b52be	0.041826956
116	0x3dc05d89	0.093928404
117	0xbc993cb5	-0.018705705
118	0xbe0a05a5	-0.13478716
119	0xbbfd4b6c	-0.0077299383
120	0x3d65a61c	0.056066617
121	0x3dd39ba6	0.10332422
122	0xbcb69f95	-0.022292892
123	0x3cfaa7ad	0.030597532
124	0x3dfcd4fb	0.1234531
125	0x3dcc823f	0.0998578
126	0xbe092f36	-0.13396916
127	0x3d7374d2	0.05943758
128	0x3da70efb	0.08157154
129	0x3d7ce7a1	0.061744336
130	0x3d89baf3	0.06725111
131	0xbdfd5ac2	-0.12370826
132	0x3ce63311	0.028100522
133	0x3cce7bbe	0.02520549
134	0xbc0f18bf	-0.008733927
135	0xb89965b5	-7.314553e-05
136	0x3da0cce1	0.078515776
137	0x3daecafc	0.0853481
138	0x3df28590	0.11841881
139	0xbd9c7946	-0.076403186
140	0xbdc9d44d	-0.09854946
141	0xbc509c16	-0.012732526
142	0xbd943fc3	-0.07238724
143	0x3e2d58e0	0.16928434
144	0x3d42898e	0.047494464
145	0xbd0274fa	-0.03184984
146	0xbda01fe1	-0.078185804
147	0x3d836f54	0.064177185
148	0x3d558ef6	0.05213829
149	0x3d9361c8	0.07196385
150	0xbd5595dd	-0.052144874
151	0x3d438114	0.04773052
152	0xbd99e05e	-0.07513498
153	0x3b56a457	0.0032751763
154	0xbd2329eb	-0.039834898
155	0x3d225ce0	0.039639354
156	0x3d4c26c6	0.049841665
157	0x3d2e5642	0.04256273
158	0x3dfca0f5	0.123353876
159	0x3d7845b8	0.060613364
160	0xbd2b0cc2	-0.041760214
161	0x3da23d46	0.07921843
162	0x3cff996a	0.031201083
163	0x3dc5046b	0.09619983
164	0xbc19cbfa	-0.009387011
165	0xbdaae847	-0.08345085
166	0x3e0a67e2	0.1351619
167	0x3d89fec9	0.067380495
168	0xbdb51280	-0.08841419
169	0xbd745d0e	-0.059659056
170	0xbdc997d9	-0.09843416
171	0x3d9f370f	0.077741735
172	0xbd9576a9	-0.07298023
173	0x3df0ef24	0.117643625
174	0x3bb17b4b	0.005416309
175	0x3cf818e0	0.030285299
176	0xbdee4aad	-0.11635337
177	0x3d040952	0.03223545
178	0x3dfcadd2	0.12337841
179	0xbd18ee7d	-0.037336815
180	0x3da6fe72	0.08154
181	0x3d50bcf8	0.050961465
182	0xbd33536f	-0.04378074
183	0xbda83f7c	-0.08215234
184	0xbd112fc4	-0.035445943
185	0x3e202a0f	0.15641044
186	0xbdff48ac	-0.12465033
187	0x3df6b0fc	0.12045476
188	0x3d1b701d	0.037948716
189	0x3dc084a2	0.09400298
190	0xbda3979d	-0.07987902
191	0x3dcb6474	0.09931269
192	0x3db77ca9	0.08959324
193	0xbd815463	-0.063149236
194	0xbc505aa7	-0.012716926
195	0x3dc64784	0.09681609
196	0xbdb55326	-0.0885375
197	0xbd857301	-0.06516076
198	0x3deeb426	0.11655454
199	0xbd62dff1	-0.05538935
200	0xbdb8cd6c	-0.09023556
201	0xbe17d7a4	-0.14828354
202	0x3d62375c	0.055228576
203	0x3e0c2c4f	0.13688777
204	0x3d80532b	0.06265863
205	0xbce5521d	-0.027993256
206	0x3de04323	0.10950305
207	0xbe336759	-0.17519893
208	0xbdcb44b2	-0.09925212
209	0x3d8da713	0.069166325
210	0x3d17f19a	0.037095644
211	0x3dac9d2e	0.08428417
212	0xbdd51a9c	-0.10405466
213	0xb8586d35	-5.160012e-05
214	0x3d93472e	0.07191311
215	0xbdcbcf5f	-0.09951662
216	0x3d9d6151	0.07684577
217	0xbddab540	-0.10679102
218	0xbda63ae1	-0.08116699
219	0x3d087473	0.03331418
220	0xbca7ad57	-0.020468397
221	0xbabc367d	-0.00143595
222	0x3bc1ca21	0.005913988
223	0x3da07bc3	0.07836106
224	0xbc581853	-0.013189393
225	0xbd53e0b9	-0.051727984
226	0x3c712888	0.014719136
227	0x3e028307	0.12745295
228	0x3d0e0934	0.034676746
229	0xbcc0d13d	-0.023537273
230	0xbd81acec	-0.0633181
231	0x3db13f13	0.086546086
232	0x3d1cf6f5	0.038321454
233	0xbdb97feb	-0.090576015
234	0x3e2684aa	0.16261545
235	0xbc9f389c	-0.019436173
236	0xbc2bc384	-0.010483626
237	0xbdc338df	-0.09532332
238	0x3b94df2d	0.004543206
239	0xbd1cc7fc	-0.038276657
240	0x3d175436	0.036945544
241	0xbdf61a29	-0.120167084
242	0x3d08610d	0.03329568
243	0xbd081f04	-0.033232704
244	0xbd8b5728	-0.06803733
245	0x3ccad872	0.024761412
246	0x3ca86fab	0.02056106
247	0xbddad13e	-0.10684441
248	0x3dc92a7d	0.09822557
249	0xbe05d5ca	-0.13069835
250	0x3d7dc7c4	0.06195809
251	0xbdf70572	-0.120615855
252	0xbd8056dc	-0.06266567
253	0xbe0771db	-0.13227026
254	0xbcd615f4	-0.026133515
255	0x3d259366	0.040423773

attention.fc1.bias f4 [16]
0	0x3ce7e44c	0.028307103
1	0xbe0dec37	-0.1385964
2	0x3d92408c	0.071412176
3	0x3a882a8f	0.001038866
4	0xbc31c460	-0.010850042
5	0xbd560eee	-0.05226033
6	0x3cffc4a9	0.031221705
7	0x3d7c025f	0.0615257
8	0xbd144ac8	-0.03620413
9	0x3c067f0e	0.008209003
10	0xbda984dd	-0.08277295
11	0x3b9d4386	0.004799309
12	0x3c5eae24	0.013591323
13	0xbbfce113	-0.0077172606
14	0x3cb23dbd	0.021757955
15	0x3bfa87c8	0.007645581

attention.fc2.weight f4 [4, 16]
0	0x3dc5bdb4	0.096553236
1	0xbe64a4b5	-0.22328456
2	0xbea09529	-0.313638
3	0x3ebc456e	0.3677172
4	0xbe02e2a1	-0.12781765
5	0x3e6d14d2	0.23152474
6	0xbeb59c0f	-0.35470626
7	0xbeabf030	-0.33581686
8	0x3d7951c5	0.060868997
9	0xbe9b83c9	-0.30373982
10	0x3e167321	0.14692356
11	0xbe8ba990	-0.27277803
12	0x3eb643e4	0.3559867
13	0xbebcb035	-0.36853185
14	0x3bb6cdb9	0.0055787233
15	0xbe0e2535	-0.13881381
16	0xbc1578a0	-0.0091229975
17	0xbe87d627	-0.26530573
18	0x3a9b603d	0.0011854243
19	0x3d4394db	0.04774938
20	0xbd29d57e	-0.041463368
21	0x3d850777	0.064955644
22	0x3d2a6815	0.041603167
23	0xbdc5f7de	-0.096664175
24	0x3ce0fcaf	0.027464239
25	0xbe9bf236	-0.3045823
26	0xbcfd9ab5	-0.03095756
27	0xbe6f08fa	-0.23343268
28	0x3ebed4d3	0.37271747
29	0xbc34c269	-0.011032679
30	0xbe129aa0	-0.14316797
31	0xbe427d4f	-0.18993114
32	0x3d05a7f5	0.03263088
33	0xbe9d2ea5	-0.3069965
34	0xbeabd6ed	-0.33562413
35	0x3e2eb398	0.17060697
36	0x3e8dc529	0.27689484
37	0xbd977fec	-0.07397446
38	0xbe0a734a	-0.13520542
39	0x3dcdcbb7	0.10048621
40	0x3d8c731e	0.06857894
41	0xbea8fa79	-0.33003595
42	0x3e511602	0.20418552
43	0xbe8253de	-0.2545461
44	0x3e2ef0c9	0.1708404
45	0xbe8dd1f1	-0.27699235
46	0xbdc736d5	-0.09727255
47	0x3d405104	0.046952263
48	0x3e18c1bb	0.14917652
49	0xbd2485f1	-0.0401668
50	0x3dea96e9	0.11454565
51	0x3e31208e	0.17297575
52	0x3e1107e1	0.14163162
53	0x3e3c3b65	0.18382032
54	0xbe5e186f	-0.21689008
55	0xbe84d2bb	-0.25942025
56	0x3e844158	0.25831103
57	0xbe255f53	-0.16149645
58	0x3d5b161f	0.053487893
59	0xbe9b55a6	-0.30338782
60	0xbcbabb4e	-0.022794392
61	0xbe8f80c4	-0.28027928
62	0xbe0c1a94	-0.13682014
63	0x3ded1bf2	0.11577596

attention.fc2.bias f4 [4]
0	0xb765779f	-1.3677315e-05
1	0x36f1315e	7.188107e-06
2	0xb62b55c5	-2.553091e-06
3	0xb669a438	-3.4815293e-06

fc_final.weight f4 [1, 64]
0	0x3e135873	0.1438921
1	0x3da1104c	0.078644365
2	0x3e35bcfe	0.17747876
3	0xbdc4c187	-0.09607225
4	0x3be84eff	0.007089495
5	0xbe23b852	-0.15988281
6	0xbe34c8ec	-0.1765477
7	0xbdcc4c07	-0.099754386
8	0x3d726cd3	0.059185814
9	0x3cfe86d4	0.03107015
10	0xbe2b8b91	-0.16752459
11	0x3d9b1adf	0.07573485
12	0xbda455e7	-0.08024197
13	0xbde6216c	-0.112368435
14	0xbe143310	-0.14472604
15	0x39830ae3	0.00024994378
16	0x3d2da2ed	0.042391706
17	0xbe01566f	-0.12630628
18	0xbd6f0518	-0.058354467
19	0x3e2e3638	0.1701287
20	0xbdd1126d	-0.102085926
21	0x3d8e3a3c	0.06944701
22	0x3c14d509	0.009083995
23	0x3c406cb8	0.011744671
24	0x3df16c09	0.11788184
25	0xbce72446	-0.028215539
26	0x3e1c04b8	0.15236175
27	0x3cde7b31	0.027158352
28	0x3bce0bb0	0.0062880144
29	0xbe13128f	-0.14362548
30	0xbdd883d3	-0.105720185
31	0x3dac7749	0.08421189
32	0x3d2387e1	0.039924506
33	0x3ddd9c5a	0.10820837
34	0xbcac4a6c	-0.02103158
35	0x3e2cfb2b	0.16892688
36	0x3be1bac7	0.0068887207
37	0x3e01ccf6	0.12675843
38	0x3e036c57	0.12834297
39	0x3e489db9	0.19591416
40	0x3e5752f4	0.21027738
41	0xbdaf8799	-0.08570785
42	0xbe03db2b	-0.12876575
43	0x3d90d528	0.07071906
44	0xbdd9f042	-0.10641529
45	0x3d800688	0.06251246
46	0x3a918649	0.0011102642
47	0xbe2e3369	-0.17011799
48	0x3e249cf9	0.16075505
49	0xbdf63cf6	-0.12023346
50	0xbd6a1d55	-0.05715688
51	0xbbe680e4	-0.007034408
52	0x3d4184a2	0.04724563
53	0x3d879bc3	0.06621506
54	0x3d514189	0.05108789
55	0x3e21ade7	0.15788995
56	0x3e1cc8e0	0.15311003
57	0xbd70022e	-0.05859583
58	0xbe0a2874	-0.13491994
59	0x3d70822c	0.05871789
60	0x3d9bb6a8	0.07603198
61	0xbc6ab37b	-0.014325018
62	0x3e1ea27a	0.15491667
63	0xbd054e0a	-0.032545127
