Predict_workflow/Model/Fold3_best_model.pkl (torch_old, 172687 bytes, 13 tensors)

gcn.gc1.weight f4 [94, 256]
-0.007415272 0.01179336 0.03006829 0.048887976 -0.007867177 -0.008615456 0.035510242 0.02255439
-0.02498774 0.04079654 -0.035600137 0.023152534 -0.066532955 0.041439254 0.034083806 -0.04196625
0.01841394 0.056731917 0.038287878 -0.012918861 -0.024632238 0.030306056 0.015977774 -0.03200002
-0.02393487 -0.04509508 -0.04062224 0.0018976105 -0.029100312 0.057040438 -0.048240464 -0.026700795
-0.0076020127 0.034578495 -0.034284547 0.048799027 0.09743212 0.0069663203 -0.056235373 -0.053328928
6.859839e-05 0.021488937 0.045346223 0.01054707 -0.024985569 0.032736067 0.01826765 0.005547111
-0.05209679 0.037404574 0.061988756 0.023180893 -0.032561943 -0.04784874 -0.04819804 0.056042954
-0.0018050605 -0.007018116 0.009547768 0.001017503 -0.042629786 -0.026978299 -0.050614428 -0.033442713
0.018787833 0.051869903 0.020668088 -0.0636601 0.06382212 -0.053521894 0.047091182 0.05436822
0.04059668 -0.053060763 -0.06115332 0.036770236 -0.042910628 0.025458323 0.03419301 0.010827741
-0.004278594 0.0011163147 -0.027539834 -0.015710514 0.05402098 0.05592457 -0.02618978 -0.021714324
-0.01380925 0.014868853 0.0538094 -0.060277466 0.061268765 0.00028115156 0.0053898 0.03826174
-0.028438173 -0.03391814 0.04667314 0.062325254 -0.015918162 0.020864062 -0.029348684 0.0045304373
-0.016838424 0.010945844 0.024935985 0.04811837 -0.04043318 0.020909363 -0.030410144 0.015066207
-0.024122195 0.019784944 0.010868929 0.010167241 -0.00018120292 0.042570338 0.04111871 -0.027380915
-0.0348371 -0.040358003 -0.020074468 0.03105493 0.015734762 0.028633064 0.006002463 -0.023534713
0.01876369 0.0190215 -0.009247737 -0.017571472 0.052724864 0.021596132 -0.04942686 -0.03348258
0.03305805 0.02115331 0.018269682 0.018202648 -0.04477799 -0.038313694 -0.007084991 -0.06572887
-0.02827045 0.0071196575 -0.01236935 0.040475134 -0.027452275 0.019443285 0.04108162 -0.027313866
-0.054994814 -0.04017053 0.016510649 -0.0076502305 0.07690097 0.038910165 0.03939133 0.041969687
-0.032944515 -0.038479596 -0.029223237 -0.04949925 0.010246215 -0.026067711 -0.040386092 -0.028313134
0.022563823 -0.0342737 0.07801458 -0.021322913 0.058673475 0.042787913 0.03260068 -0.053992197
0.02280002 0.025934706 0.049929198 0.053365167 -0.07727414 -0.04926536 0.045084544 -0.040682156
-0.014895811 0.052798834 0.014708921 -0.003054233 0.028469454 -0.014058803 -0.012403329 0.051233098
0.049408965 0.013892418 0.069879904 -0.04179159 0.03910739 0.028555572 0.05137096 -0.013593103
0.04441659 -0.018710302 0.06089466 0.07420485 -0.07669538 0.017660856 0.014474541 0.02967484
0.00093031814 -0.01642463 -0.061969645 0.06788589 0.007411472 -0.029237349 0.018811954 0.00753218
-0.028818797 -0.02479143 0.021315156 -0.018235462 0.05309192 -0.052431867 0.00065192016 -0.066917785
0.004915291 -0.06125879 0.029323665 0.014745344 -0.06286863 0.022078602 0.0020619922 -0.04306965
-0.06885644 0.064725384 -0.013495927 -0.04178237 -0.030447898 0.021627361 -0.00039362002 -0.0010991038
0.001823674 -0.02042315 -0.0032151034 -0.07898926 -0.048481166 -0.036130402 0.033741094 0.07021005
-0.023834469 0.052898 -0.01179661 -0.003413216 0.05873026 0.01739144 -0.0010051954 -0.008514061
00000000: cffb f2bb f038 413c c651 f63c c23e 483d
00000010: 55e5 00bc d727 0dbc 3073 113d fcc3 b83c
00000020: 17b3 ccbc 461a 273d 73d1 11bd 62aa bd3c
00000030: 6e42 88bd 35bc 293d 769b 0b3d cde4 2bbd
00000040: d5d8 963c ba5f 683d c0d3 1c3d a1a9 53bc
00000050: 8cc9 c9bc 6844 f83c d2e3 823c 7412 03bd
00000060: 0f13 c4bc 9eb5 38bd 8263 26bd 3eb9 f83a
00000070: c763 eebc 3ca3 693d cb97 45bd a0bb dabc
00000080: 4e1a f9bb 2ea2 0d3d f46d 0cbd 7de1 473d
00000090: 7e8a c73d bb45 e43b 1057 66bd 6f6f 5abd
000000a0: 7bdc 8f38 9109 b03c f6bc 393d 9ecd 2c3c
000000b0: 89ae ccbc 4116 063d 0aa6 953c 8ac4 b53b
000000c0: 7263 55bd 8a35 193d ece7 7d3d dbe5 bd3c
000000d0: ac5f 05bd 0afd 43bd 4f6b 45bd 4c8d 653d
000000e0: c897 ecba 39f8 e5bb 3e6e 1c3c bc5d 853a
000000f0: 929c 2ebd 9801 ddbc 1351 4fbd 3afb 08bd
00000100: f1e8 993c 8975 543d 1f50 a93c 3a60 82bd
00000110: 2cb5 823d c639 5bbd afe2 403d 36b1 5e3d
00000120: b448 263d 3e56 59bd e77b 7abd 639c 163d
00000130: 0ec3 2fbd f98d d03c f80d 0c3d d666 313c
00000140: 7333 8cbb 4e51 923a 389b e1bc 56b3 80bc
00000150: 1a45 5d3d 2911 653d f38b d6bc 3de2 b1bc
00000160: 3140 62bc 7d9c 733c 3f67 5c3d 81e5 76bd
00000170: f5f4 7a3d 8667 9339 eb9c b03b 58b8 1c3d
00000180: 2cf7 e8bc bfed 0abd 562c 3f3d c448 7f3d
00000190: ce66 82bc 1ceb aa3c a76c f0bc 1074 943b
000001a0: bcf0 89bc 3356 333c 8d46 cc3c c517 453d
000001b0: 439d 25bd 1d4a ab3c b21e f9bc 41d8 763c
000001c0: e99b c5bc 0914 a23c 9813 323c 8094 263c
000001d0: 4a01 3eb9 3c5e 2e3d 186c 283d f14d e0bc
000001e0: 59b1 0ebd 6f4e 25bd 3673 a4bc e966 fe3c
000001f0: 30e6 803c e38f ea3c 4fb0 c43b dfcb c0bc
00000200: 4fb6 993c fad2 9b3c d283 17bc 0cf2 8fbc
00000210: 07f6 573d 5fea b03c d273 4abd 0825 09bd
00000220: e167 073d b549 ad3c 4daa 953c b81d 953c
00000230: 2069 37bd d2ee 1cbd 3629 e8bb dc9c 86bd
00000240: 6e97 e7bc 044c e93b d0a8 4abc 41c9 253d
00000250: 98e3 e0bc 8647 9f3c 3345 283d 54c1 dfbc
00000260: 3e42 61bd db89 24bd 5741 873c c9ae fabb
00000270: 417e 9d3d 4460 1f3d ce58 213d 68e8 2b3d
00000280: d4f0 06bd c89c 1dbd 9265 efbc babf 4abd
00000290: bedf 273c f48b d5bc e36b 25bd f2f0 e7bc
000002a0: c4d7 b83c 9462 0cbd 1cc6 9f3d 64ad aebc
000002b0: 9953 703d 6142 2f3d 4a88 053d ec26 5dbd
000002c0: 1cc7 ba3c 0575 d43c 8f82 4c3d 6f95 5a3d
000002d0: e841 9ebd 79ca 49bd 92aa 383d 55a2 26bd
000002e0: 8f0d 74bc 9743 583d b0fd 703c 8729 48bb
000002f0: c638 e93c e556 66bc 5537 4bbc ccd9 513d
00000300: 0e61 4a3d 069d 633c 321d 8f3d a92d 2bbd
00000310: 122f 203d 60ed e93c 5b6a 523d 9bb5 5ebc
00000320: 2cee 353d 5946 99bc ae6c 793d b6f8 973d
00000330: 7812 9dbd 80ad 903c a026 6d3c a618 f33c
00000340: 98e0 733a f28c 86bc e2d3 7dbd c207 8b3d
00000350: efdb f23b 2a83 efbc 871b 9a3c 81d0 f63b
00000360: 6615 ecbc 6617 cbbc 1f9d ae3c 8962 95bc
00000370: ea76 593d ccc2 56bd 9fe5 2a3a 310c 89bd
00000380: 7310 a13b 7fea 7abd 2f38 f03c 7596 713c
00000390: 45c1 80bd 2fde b43c 7d22 073b cd69 30bd
000003a0: 9b04 8dbd be8e 843d 051e 5dbc fe23 2bbd
000003b0: df6d f9bc dd2b b13c c95e ceb9 ce0f 90ba
000003c0: 5808 ef3a 734e a7bc 7cb4 52bb 1fc5 a1bd
000003d0: 3094 46bd 79fd 13bd 1a34 0a3d 49ca 8f3d
000003e0: 8140 c3bc 93ab 583d 9246 41bc 43b0 5fbb
000003f0: 248f 703d 7e78 8e3c c3c0 83ba 8f7e 0bbc

gcn.gc1.bias f4 [256]
-0.03577971 -0.029377624 -0.015586727 -0.029789487 -0.005899408 -0.038980987 -0.047933586 0.041135143
-0.024332168 0.05802706 -0.030399809 0.05438114 -0.03676099 0.018245788 -0.039677083 -0.0023072658
0.041145436 0.011673292 -0.035410143 0.026271317 0.0025894716 0.015551434 0.051315557 -0.0072722137
0.047042284 -0.05227544 0.047239996 -0.0716472 -0.015146792 0.05329402 0.040705524 -0.01958349
0.03169478 0.02128492 -0.034378786 0.04898223 0.053575706 0.01788344 -0.017881759 -0.05667456
-0.06192394 0.025079252 0.014194731 0.054025866 0.041275617 0.017765658 0.03516639 0.013657687
0.05211577 0.045541182 0.026540237 0.01078842 3.3411383e-05 -0.052010424 0.006751182 -0.0009821525
-0.04814972 0.022233957 -0.0035226278 -0.03455643 5.1702096e-05 0.038473524 0.03700323 -0.010597961
0.011276316 -0.03345998 0.016650151 -0.061028097 -0.0015298154 0.054482028 -0.02919668 0.03258472
-0.033429056 0.03942132 0.05434019 0.051416688 0.02347911 0.038330905 0.05454823 0.005387663
-0.032537613 0.014438249 0.05942748 0.038282596 0.056278113 0.020383183 -0.017312843 -0.002283391
-0.04003247 0.077937365 0.043127522 -0.02769883 -0.042027183 -0.040095933 -0.004927625 -0.016437784
-0.026396733 -0.031055376 0.020973295 0.05213999 -0.0466229 0.040012468 -0.0099428985 -0.0026242451
-0.00455441 -0.03588754 0.06048135 0.045607578 0.007818744 0.031853333 -0.019757472 0.012680321
-0.0061872564 0.022389313 -0.033118896 -0.018287791 -0.028336886 -0.041688573 0.056462396 0.03805818
0.032750227 0.02606978 -0.055177312 0.023519246 0.02592201 0.00464561 -0.04085296 0.0223934
-0.03691879 0.021364965 0.013652671 -0.016716827 0.020327225 0.032502007 0.050217375 -0.031008411
0.033210225 0.017045334 -0.004096325 -0.00844785 0.0008367965 0.051502332 0.04274859 0.028755352
0.007567114 0.033595935 -0.034498207 0.058580536 -0.052116763 0.024463734 0.022363858 -0.0068843337
-0.017854838 0.002041336 -0.028822217 0.002664266 0.05824819 0.050785847 0.008313778 0.031076856
-0.055531368 -0.015331587 0.012618726 -0.014377996 0.0014191298 0.042438548 -0.0066808076 -0.018908592
0.026914215 -0.045766763 0.0043532634 -0.019514117 0.042554673 -0.028482111 -0.015036899 0.036118995
0.004690983 0.0006543817 -0.03530554 0.012948332 0.0058384216 -0.00036415068 0.018033352 -0.060420956
0.051524226 0.04641359 0.008227785 -0.02466138 -0.011455957 0.051944453 -0.019210296 0.039118316
-0.030984247 0.008172964 -0.060304802 0.0017073 -0.020229055 -0.03114448 0.0030003604 -0.026563464
-0.03001361 0.018236253 0.011644366 0.0014131775 -0.022905918 -0.036130007 0.022842377 -0.061027966
0.05523207 -0.020600649 -0.011350727 -0.0014803902 -0.010667738 -0.03479984 -0.031061962 -0.0055749603
-0.04100707 -0.0014882348 0.01459998 0.032390278 0.04993503 0.011344287 0.032415446 -0.0008640659
-0.050535653 0.023490269 0.021746611 -0.034529492 -0.031752586 -0.0029241117 0.032773018 0.041468453
0.024989141 0.052220635 0.060598128 -0.018473266 -0.016450386 -0.03170201 -0.058965657 -0.02737429
0.055205926 -0.03975591 -0.030025544 -0.010917597 0.03249337 -0.056015056 0.028523479 0.038143296
0.03579195 -0.044729915 0.033388004 0.0551084 0.048611328 -0.00020090248 -0.023134707 0.009495724
00000000: bf8d 12bd 58a9 f0bc 795f 7fbc 1509 f4bc
00000010: d24f c1bb 87aa 1fbd 0256 44bd 537d 283d
00000020: 4154 c7bc c8ad 6d3d 0509 f9bc c2be 5e3d
00000030: b192 16bd 3178 953c 7084 22bd 7f35 17bb
00000040: 1e88 283d 5641 3f3c 3a0a 11bd f236 d73c
00000050: 20b4 293b 71cb 7e3c 4330 523d c04b eebb
00000060: 69af 403d c61e 56bd ba7e 413d c4bb 92bd
00000070: 402a 78bc d54a 5a3d d6ba 263d 8e6d a0bc
00000080: 63d2 013d b65d ae3c c5d0 0cbd 97a1 483d
00000090: 3372 5b3d 4b80 923c c47c 92bc 9523 68bd
000000a0: f5a3 7dbd 0173 cd3c 0491 683c 3a4a 5d3d
000000b0: 9f10 293d 4989 913c a20a 103d 7ec4 5f3c
000000c0: 5877 553d 6489 3a3d e96a d93c eac1 303c
000000d0: 3323 0c38 e208 55bd 0539 dd3b 92bb 80ba
000000e0: a438 45bd fd23 b63c e3db 66bb 0b8b 0dbd
000000f0: b4da 5838 6a96 1d3d b390 173d 12a3 2dbc
00000100: 4cc0 383c 550d 09bd e665 883c 99f8 79bd
00000110: 1684 c8ba 8c28 5f3d e02d efbc 8e77 053d
00000120: e8ec 08bd 4078 213d d293 5e3d 4e9a 523d
00000130: 4357 c03c de00 1d3d f76d 5f3d fe8a b03b
00000140: 2946 05bd 688e 6c3c 3b6a 733d 36ce 1c3d
00000150: e183 663d a2fa a63c aad3 8dbc f2a4 15bb
00000160: 16f9 23bd a09d 9f3d 7ca6 303d a8e8 e2bc
00000170: b224 2cbd a23b 24bd ea77 a1bb 88a8 86bc
00000180: f63d d8bc d867 febc 30d0 ab3c be90 553d
00000190: a7f7 3ebd 1de4 233d 8ae7 22bc 87fb 2bbb
000001a0: 293d 95bb d0fe 12bd 4bbb 773d 03cf 3a3d
000001b0: 301a 003c a478 023d 6cda a1bc 1fc1 4f3c
000001c0: 78be cabb cb69 b73c aea7 07bd 47d0 95bc
000001d0: c222 e8bc a3c1 2abd 1d45 673d e5e2 1b3d
000001e0: 1a25 063d 4b90 d53c 9b01 62bd 6fab c03c
000001f0: 655a d43c 343a 983b 6f55 27bd 5d72 b73c
00000200: 2838 17bd 9405 af3c 74af 5f3c baf1 88bc
00000210: 4885 a63c d320 053d bcb0 4d3d 5a05 febc
00000220: 7207 083d a8a2 8b3c 773a 86bb da68 0abc
00000230: 765c 5b3a 1cf4 523d 2519 2f3d 5890 eb3c
00000240: 8ef5 f73b e49b 093d fe4d 0dbd 25f2 6f3d
00000250: 6378 55bd 2b68 c83c 6934 b73c fa95 e1bb
00000260: 4f44 92bc efc7 053b 921c ecbc f79a 2e3b
00000270: a795 6e3d d204 503d 8336 083c e494 fe3c
00000280: dc74 63bd 5631 7bbc c6be 4e3c b091 6bbc
00000290: 1802 ba3a 0bd4 2d3d adea dabb 31e6 9abc
000002a0: 337b dc3c ee75 3bbd d2a5 8e3b 12dc 9fbc
000002b0: cf4d 2e3d 5153 e9bc 535d 76bc 83f1 133d
000002c0: d1b6 993b d08a 2b3a 8b9c 10bd 3e25 543c
000002d0: 3b50 bf3b 7aeb beb9 aeba 933c f77b 77bd
000002e0: 110b 533d 2d1c 3e3d d5cd 063c aa06 cabc
000002f0: c4b1 3bbc b5c3 543d e95e 9dbc 873a 203d
00000300: add2 fdbc e5e7 053c 2b02 77bd 7bc7 df3a
00000310: 67b7 a5bc b522 ffbc b2a1 443b 9f9b d9bc
00000320: 1adf f5bc 3264 953c 03c8 3e3c 5e3a b93a
00000330: 31a5 bbbc 0ffd 13bd f01f bb3c 76f8 79bd
00000340: 063b 623d b1c2 a8bc 66f8 39bc a709 c2ba
00000350: bcc7 2ebc 478a 0ebd a875 febc 28ae b6bb
00000360: 08f7 27bd e010 c3ba c134 6f3c abab 043d
00000370: ad88 4c3d 63dd 393c 0fc6 043d 7b82 62ba
00000380: 79fe 4ebd aa6e c03c f325 b23c cc6e 0dbd
00000390: 000f 02bd 74a2 3fbb 003d 063d d3da 293d
000003a0: 07b6 cc3c 4ee5 553d be35 783d 3f55 97bc
000003b0: f6c2 86bc f8d9 01bd f985 71bd 0c40 e0bc
000003c0: 9c1f 623d 18d7 22bd 21f8 f5bc b9df 32bc
000003d0: c517 053d 0b70 65bd 12aa e93c 253c 1c3d
000003e0: 949a 123d b736 37bd dcc1 083d 58b9 613d
000003f0: ac1c 473d 59a9 52b9 ff84 bdbc f493 1b3c

gcn.ln1.weight f4 [256]
0.6063934 0.7496435 0.9036356 0.9167925 0.9592299 0.74566585 0.9771273 0.9497679
0.93653864 0.73426515 0.9331833 0.94988525 0.96996427 0.91947114 0.9160421 0.9134917
0.73396224 0.7823546 0.7884384 0.9599887 0.8220712 0.91226465 0.9215209 0.9084545
0.8514466 0.8932762 0.8149388 0.9155595 0.9046408 0.8978139 0.9402213 0.557031
0.81926584 0.7742665 0.9584992 0.91650444 0.8560705 0.8399432 0.7840883 0.92088395
0.939794 0.9358248 0.824501 0.9678097 0.8073154 0.83489585 0.87118334 0.953
0.96469307 0.93979865 0.92712766 0.9309181 0.9341177 0.7847151 0.9203693 0.9247302
0.71604264 0.94056636 0.9154059 0.6159681 0.7758258 0.90355027 0.89108425 0.95501864
0.9328448 0.8876034 0.78986776 0.8066183 0.8469002 0.9739379 0.870334 0.8361034
0.83093697 0.96362823 0.95203334 0.8803647 0.90534186 0.95833176 0.96707255 0.93781596
0.72158056 0.9363145 0.94474614 0.8289549 0.81150645 0.96275854 0.61244905 0.9018487
0.93862104 0.7543461 0.9437343 0.9063286 0.8572732 0.7909605 0.9444661 0.8888944
0.9526974 0.50619453 0.89840865 0.90009755 0.9344754 0.9469232 0.6234773 0.8082348
0.79961365 0.7035006 0.91741794 0.8422768 0.74380803 0.84483284 0.9293653 0.92062336
0.9032465 0.91565406 0.8146784 0.942653 0.913797 0.7146342 0.93312615 0.9479099
0.6801452 0.86175305 0.9070571 0.8692027 0.8163361 0.79762876 0.80551654 0.789858
0.67544 0.83592874 0.9401195 0.7967822 0.956898 0.8710411 0.8544815 0.74546874
0.917155 0.9271734 0.7493413 0.96395135 0.94248414 0.94998574 0.93839294 0.9557727
0.79676855 0.9632026 0.9092652 0.7983353 0.91629523 0.8997813 0.9080146 0.9368921
0.9692994 0.8551886 0.8639145 0.8406043 0.944206 0.95250934 0.93494135 0.91130877
0.89153165 0.7294166 0.9576183 0.8691289 0.81177735 0.7880847 0.68290234 0.91544425
0.9204753 0.8437526 0.86386126 0.7529843 0.87084943 0.868748 0.9474688 0.95021105
0.8780607 0.8934555 0.86991405 0.89987195 0.9040569 0.89850914 0.93797266 0.8484471
0.7958473 0.988054 0.97437966 0.8993112 0.7760385 0.9618066 0.9212255 0.75072515
0.98586524 0.7545093 0.9174282 0.87645996 0.8379377 0.90136516 0.95225334 0.93206334
0.8654816 0.9674477 0.9523703 0.89955163 0.9407 0.7450419 0.94320923 0.8780488
0.86698824 0.9395382 0.94537574 0.8551227 0.9269942 0.73310584 0.8309457 0.9187971
0.95769316 0.799342 0.83764505 0.82405704 0.90739083 0.8072818 0.9365421 0.7907505
0.8714168 0.93381494 0.93837625 0.853387 0.7406194 0.7813585 0.87744075 0.7335226
0.85516465 0.7872019 0.7614833 0.74161375 0.85123146 0.7974365 0.83754855 0.88404536
0.9512896 0.7545007 0.94773835 0.9561999 0.80091876 0.83021057 0.9605674 0.90860903
0.80691403 0.9450011 0.9417004 0.9495568 0.91863346 0.86908627 0.9181859 0.7400303
00000000: 993c 1b3f a3e8 3f3f aa54 673f eab2 6a3f
00000010: 1790 753f f5e3 3e3f 0425 7a3f fd23 733f
00000020: ffc0 6f3f cdf8 3b3f 1ae5 6e3f ae2b 733f
00000030: 944f 783f 7662 6b3f bc81 6a3f 98da 693f
00000040: f3e4 3b3f 6448 483f 19d7 493f d2c1 753f
00000050: 4273 523f 2d8a 693f cbe8 6b3f 7990 683f
00000060: 68f8 593f c0ad 643f d49f 503f 1b62 6a3f
00000070: 8a96 673f 22d7 653f 58b2 703f 9599 0e3f
00000080: 68bb 513f 5436 463f 3460 753f 09a0 6a3f
00000090: 7027 5b3f 8406 573f 03ba 483f 0dbf 6b3f
000000a0: 5796 703f 3792 6f3f 7f12 533f 60c2 773f
000000b0: 39ac 4e3f bcbb 553f df05 5f3f cff7 733f
000000c0: 20f6 763f a596 703f 3d58 6d3f a650 6e3f
000000d0: 5622 6f3f 17e3 483f 539d 6b3f 1ebb 6c3f
000000e0: 924e 373f f5c8 703f 0b58 6a3f 16b0 1d3f
000000f0: 859c 463f 124f 673f 191e 643f 1a7c 743f
00000100: ebce 6e3f fa39 633f c634 4a3f 897e 4e3f
00000110: 74ce 583f ff53 793f 36ce 5e3f df0a 563f
00000120: 49b8 543f 57b0 763f 75b8 733f 955f 613f
00000130: 7cc4 673f 3b55 753f 1192 773f b514 703f
00000140: 81b9 383f 4fb2 6f3f e2da 713f 6336 543f
00000150: e3be 4f3f 5877 763f 76c9 1c3f 8edf 663f
00000160: 7849 703f d31c 413f 9298 713f 2705 683f
00000170: 4276 5b3f 637c 4a3f 88c8 713f 958e 633f
00000180: fae3 733f f795 013f 1cfe 653f cb6c 663f
00000190: c839 6f3f 8f69 723f 359c 1f3f 7ae8 4e3f
000001a0: 7bb3 4c3f 9e18 343f e7db 6a3f 749f 573f
000001b0: 346a 3e3f f746 583f e2ea 6d3f f9ad 6b3f
000001c0: 2a3b 673f 4e68 6a3f c38e 503f b551 713f
000001d0: 9aee 693f 44f2 363f 5be1 6e3f 39aa 723f
000001e0: ff1d 2e3f d99b 5c3f e534 683f 1184 5e3f
000001f0: 67fb 503f 6631 4c3f 5536 4e3f 2234 4a3f
00000200: a3e9 2c3f 6dff 553f acab 703f ebf9 4b3f
00000210: 44f7 743f 8dfc 5e3f 4dbf 5a3f 0ad7 3e3f
00000220: acca 6a3f 3c5b 6d3f d5d4 3f3f 84c5 763f
00000230: a446 713f 4432 733f 853a 703f 85ad 743f
00000240: 06f9 4b3f 7294 763f 9bc5 683f b45f 4c3f
00000250: 5392 6a3f 1158 663f a573 683f 29d8 6f3f
00000260: 0124 783f a4ed 5a3f 8029 5d3f d831 573f
00000270: 7cb7 713f a7d7 733f 5158 6f3f 884b 693f
00000280: 6b3b 643f 0cbb 3a3f 7926 753f 3b7f 5e3f
00000290: a4d0 4f3f ebbf 493f b0d2 2e3f 8e5a 6a3f
000002a0: 45a4 6b3f 2c00 583f 0326 5d3f 94c3 403f
000002b0: fdef 5e3f 4566 5e3f 518d 723f 0841 733f
000002c0: 96c8 603f 80b9 643f b0b2 5e3f 025e 663f
000002d0: 4670 673f b204 663f fa1e 703f d433 593f
000002e0: a6bc 4b3f 1bf1 7c3f f270 793f 4239 663f
000002f0: 76aa 463f f538 763f 6fd5 6b3f 862f 403f
00000300: aa61 7c3f 8627 413f 93dc 6a3f ae5f 603f
00000310: 1683 563f debf 663f e0c6 733f b49b 6e3f
00000320: 3490 5d3f a7aa 773f 8ace 733f 0449 663f
00000330: b7d1 703f 11bb 3e3f 2976 713f cec7 603f
00000340: f1f2 5d3f 9385 703f 2504 723f 52e9 5a3f
00000350: 7e4f 6d3f d3ac 3b3f dbb8 543f 4936 6b3f
00000360: 612b 753f ada1 4c3f e86f 563f 67f5 523f
00000370: c44a 683f 05aa 4e3f 39c1 6f3f a06e 4a3f
00000380: 2c15 5f3f 7f0e 6f3f 6d39 703f 9277 5a3f
00000390: 3c99 3d3f 1c07 483f f59f 603f 23c8 3b3f
000003a0: 12ec 5a3f 1086 493f 92f0 423f 66da 3d3f
000003b0: 4eea 593f cc24 4c3f 9569 563f cc50 623f
000003c0: b787 733f f526 413f fb9e 723f 84c9 743f
000003d0: 0309 4d3f ae88 543f bfe7 753f 9a9a 683f
000003e0: eb91 4e3f 98eb 713f 4713 713f 2816 733f
000003f0: 902b 6b3f 707c 5e3f 3b0e 6b3f a072 3d3f

gcn.ln1.bias f4 [256]
-0.013720201 -0.018088352 -0.0007505407 -0.0014628817 0.0007188144 -0.011826178 0.0033440406 -0.004715411
-0.0037551916 -0.018063815 -0.00077688025 -0.007840533 -0.0012783174 -0.003954893 0.007891718 -0.009084563
-0.037366617 -0.0082826745 -0.005529767 -0.013989141 -0.0151855955 -0.008505211 -0.013750201 -0.009713531
-0.022086566 0.0012692895 -0.019106548 -0.010445893 -0.0073314854 -0.015037121 -0.015319026 -0.015707571
-0.0010369482 -0.026925012 -0.0032849424 -0.012665254 -0.014211673 -0.017809259 -0.0002219812 -0.007031795
-0.009096737 -0.006315239 -0.0088800555 -0.0036375022 -0.029124215 -0.022388063 -0.02151482 -0.012884356
-0.0017097674 -0.0009532134 -0.0038132942 -0.008510129 -0.007223867 -0.0152284885 -0.00016354724 -0.00015261966
-0.0061610434 -0.0031575288 -0.0038436605 -0.0067923334 -0.02068926 -0.007869522 -0.013947327 -0.01098069
0.0031075624 0.0020701606 -0.0049878657 -0.016861837 -0.011306356 -0.0072662067 -0.0053614853 -0.031198524
-0.02573114 -0.007660337 -0.005478644 0.0040717814 -0.025350615 -0.0030812183 0.00045064284 -0.0033260176
-0.01649246 -0.005694317 0.0037168968 -0.020263547 -0.0338586 0.00085236004 -0.009389669 -0.01065406
-0.007684093 -0.0055095423 -0.0030450353 -0.008820515 -0.008406861 -0.01850028 -0.0012919768 -0.00070850516
0.003837404 -0.012610467 -0.0015489749 -0.002581782 -0.0009886764 -0.00789818 -0.008355129 -0.005411019
-0.0075592548 -0.016952967 -0.010282313 -0.014594617 -0.029774256 -0.004103087 -0.009847335 -0.0094195325
-0.0066120313 -0.0076686274 -0.002197334 0.0037365558 -0.0012075113 -0.003914941 -0.003426687 -0.005443046
-0.015590678 -0.0072634458 -0.0035506873 -0.020703746 -0.014015808 -0.011450606 -0.009097788 -0.028149629
-0.010767258 -0.0060062255 0.001360248 -0.0073141577 -0.008163943 -0.0062025147 -0.0074158134 -0.0071437
-0.010986931 0.0021687588 -0.015593127 -0.004572284 0.0010671039 -0.013335113 -0.0033958019 -0.0017739324
-0.024677217 -0.007067669 -0.004438592 -0.017651329 -0.008033052 -0.0061879046 -0.006540534 0.0057825986
0.003922273 -0.0052140974 0.0014044441 -0.015161099 -0.0026434003 -0.008248759 -0.0042381673 -0.0049911034
-0.00744588 -0.011500739 -0.006697914 -0.007074208 -0.0042294227 -0.0022464842 -0.016916309 -0.008001745
-0.007062327 -0.011816906 -0.010404629 -0.018172536 -0.012990853 -0.0049233907 -0.008105858 -0.005441042
-0.012295308 0.0031686053 -0.010502969 -0.012189061 -0.01204238 -0.019432923 0.0016225328 -0.019220103
-0.02738013 -0.0043891873 0.00014280615 -0.0010959475 -0.022051105 -0.0032287543 -0.001675487 -0.033766758
-0.0032133765 -0.017843332 -0.006084127 -0.018585186 -0.02354142 -0.007599785 -0.0070465007 -0.00030727996
-0.024634488 -0.009172306 -0.0037223054 -0.009436641 -0.005486763 0.0057484596 -0.004163381 -0.0067683617
-0.013800484 -0.003609278 -0.003740669 -0.0073759714 0.00017131957 -0.013525845 0.0006658786 -0.009576416
0.0010511181 -0.01684444 -0.02757893 -0.01618102 -0.013417102 -0.018847978 -0.0033482723 -0.017003644
-0.009720768 -0.004162733 -0.006313851 -0.0020588534 -0.016210556 -0.025144137 -0.010331403 -0.015402761
-0.012628195 -0.02387403 -0.021528462 -0.021385245 -0.007615755 -0.024007753 -0.010864753 -0.000988684
-0.006541806 -0.0067855953 -0.003903038 -0.0008297563 -0.030659925 -0.0009850949 -0.003139828 -0.0048765684
-0.0042933635 -2.9101986e-05 -0.0069275345 -0.00862728 -0.0054477397 -0.0120635955 -0.00557585 0.005317975
00000000: b2ca 60bc 062e 94bc efbf 44ba 2abe bfba
00000010: d16e 3c3a 96c2 41bc b127 5b3b bc83 9abb
00000020: a919 76bb 91fa 93bc 8da7 4bba 9475 00bc
00000030: 378d a7ba 0c98 81bb 444c 013c 6bd7 14bc
00000040: bd0d 19bd 0eb4 07bc 0c33 b5bb b632 65bc
00000050: 01cd 78bc 7159 0bbc 8648 61bc 8025 1fbc
00000060: e3ee b4bc 4a5e a63a 5685 9cbc 4025 2bbc
00000070: f53c f0bb 425e 76bc a7fc 7abc 2aad 80bc
00000080: 35ea 87ba d891 dcbc 3048 57bb ed81 4fbc
00000090: 14d8 68bc b9e4 91bc a0c3 68b9 f96a e6bb
000000a0: 7b0a 15bc 10f0 cebb a77d 11bc 2963 6ebb
000000b0: e895 eebc 2c67 b7bc d93f b0bc e818 53bc
000000c0: 461a e0ba 12e1 79ba 76e8 79bb 116e 0bbc
000000d0: 30b6 ecbb e980 79bc e17d 2bb9 8708 20b9
000000e0: 94e2 c9bb 8bee 4ebb ece5 7bbb 3992 debb
000000f0: 867c a9bc 2bef 00bc 5483 64bc 5ae8 33bc
00000100: 3fa8 4b3b 88ab 073b 4071 a3bb d621 8abc
00000110: 4b3e 39bc 5c19 eebb 66af afbb 0c94 ffbc
00000120: 1dca d2bc 9003 fbbb 3286 b3bb 946c 853b
00000130: 18ac cfbc 44ee 49bb 4244 ec39 51f9 59bb
00000140: 321b 87bc 6597 babb 2e97 733b bdff a5bc
00000150: 51af 0abd ea70 5f3a 20d7 19bc 5e8e 2ebc
00000160: d8ca fbbb 6489 b4bb 378f 47bb ec83 10bc
00000170: eebc 09bc e68d 97bc 8c57 a9ba faba 39ba
00000180: f57c 7b3b 229c 4ebc f906 cbba 1d33 29bb
00000190: 7a96 81ba 5e67 01bc f3e3 08bc eb4e b1bb
000001a0: a0b3 f7bb f3e0 8abc 2677 28bc 431e 6fbc
000001b0: 24e9 f3bc 3073 86bb b756 21bc 6254 1abc
000001c0: bda9 d8bb 1c49 fbbb 2601 10bb 01e1 743b
000001d0: 5b45 9eba e848 80bb 4592 60bb 945b b2bb
000001e0: 0b70 7fbc 3302 eebb a6b2 68bb e79a a9bc
000001f0: 8fa2 65bc 539b 3bbc e30e 15bc 0d9a e6bc
00000200: 2769 30bc dfcf c4bb 594a b23a 9aab efbb
00000210: 0fc2 05bc 773e cbbb 5a00 f3bb b315 eabb
00000220: 8702 34bc bc21 0e3b 517a 7fbc 19d3 95bb
00000230: 11de 8b3a 857b 5abc 1a8c 5ebb 4b83 e8ba
00000240: e027 cabc e897 e7bb 9c71 91bb 8599 90bc
00000250: 109d 03bc e8c3 cabb fa51 d6bb f47b bd3b
00000260: 6986 803b 05db aabb 5315 b83a 4266 78bc
00000270: e63c 2dbb ce25 07bc 53e0 8abb 698c a3bb
00000280: 92fc f3bb 986d 3cbc 2d7a dbbb c2ce e7bb
00000290: f896 8abb c039 13bb 1294 8abc c019 03bc
000002a0: 186b e7bb b29b 41bc 2d78 2abc 92de 94bc
000002b0: 96d7 54bc 6554 a1bb 6fce 04bc c54a b2bb
000002c0: 4272 49bc 60a8 4f3b a514 2cbc a1b4 47bc
000002d0: 674d 45bc cb31 9fbc 2bab d43a 7a73 9dbc
000002e0: 4b4c e0bc 2cd3 8fbb 3cbe 1539 e5a5 8fba
000002f0: 85a4 b4bc 8299 53bb 049c dbba 034f 0abd
00000300: 8397 52bb 2e2c 92bc 5b5d c7bb f63f 98bc
00000310: f0d9 c0bc 9e07 f9bb 55e6 e6bb 6b1a a1b9
00000320: 44ce c9bc 7147 16bc ecf1 73bb 249c 1abc
00000330: 4eca b3bb 935d bc3b f96c 88bb 22c9 ddbb
00000340: 6d1b 62bc a389 6cbb 0326 75bb 22b2 f1bb
00000350: 3fa4 3339 819b 5dbc 5b8e 2e3a 66e6 1cbc
00000360: acc5 893a 5afd 89bc 35ed e1bc 0f8e 84bc
00000370: 68d3 5bbc 1367 9abc b06e 5bbb 3a4b 8bbc
00000380: db43 1fbc 8967 88bb 6ce4 cebb d4ed 06bb
00000390: 00cc 84bc 14fb cdbc 0c45 29bc dd5b 7cbc
000003a0: 7de6 4ebc 7893 c3bc 755c b0bc 1c30 afbc
000003b0: 958d f9bb e8ab c4bc 1402 32bc bb96 81ba
000003c0: a55c d6bb b359 debb 1dca 7fbb 0184 59ba
000003d0: 862a fbbc 4d1e 81ba 93c5 4dbb 9fcb 9fbb
000003e0: 58af 8cbb 0a20 f4b7 5f00 e3bb 6f59 0dbc
000003f0: f482 b2bb 63a6 45bc 9fb5 b6bb 6842 ae3b

gcn.gc2.weight f4 [256, 64]
0.030070012 0.03983795 -0.029225709 -0.02194831 -0.016098503 -0.08690802 -0.053964242 -0.046743844
0.06311919 0.027818717 -0.06399203 0.06647445 -0.06324207 0.026642054 -0.012080968 -0.043727923
0.0059850034 0.019222243 -0.032704607 -0.034190148 -0.018007334 -0.031560224 0.03293079 0.0048768003
-0.00089630036 0.0172084 -0.011467608 0.032471072 0.08796006 0.074926935 0.0071588713 0.02762473
-0.04043371 0.0013702696 0.002973471 -0.06547491 0.074239336 -0.105808444 -0.060212895 0.009536738
-0.05294309 0.08843621 -0.055109713 0.036360003 0.07505927 0.06168257 0.00081905676 -0.059809648
0.043677904 0.005144934 0.065417364 0.01482821 0.027270252 -0.056896217 0.08147139 -0.061574686
0.0073438585 -0.090293415 0.010956817 -0.05254282 -0.0115285795 -0.0809347 -0.040896628 0.00032100567
-0.0919451 -0.01873366 -0.01551412 -0.0919445 -0.067603014 -0.099893935 -0.06302146 0.032791656
0.04852598 0.094629966 -0.027895108 -0.08874337 -0.014638767 0.07264726 0.032810375 0.0974427
0.03275258 0.06926425 0.107573874 0.006627766 -0.06763893 0.026055058 -0.06336371 0.065159634
-0.01752435 -0.059355386 -0.10011694 0.010011101 0.029935706 -0.0032290393 -0.1052159 0.0833415
-0.08966083 -0.09754852 -0.044697635 -0.05666332 -0.048936576 -0.040994577 -0.07005626 -0.0036294146
0.01120287 0.098249234 0.07407701 -0.0013908802 0.03217213 0.011010485 0.100780845 0.02467728
0.020751506 0.011973654 0.09933854 0.0208205 -0.04138375 0.00017146909 -0.029484993 0.11742869
-0.0028101262 0.06288391 -0.08329692 0.03987548 -0.044273913 0.041819677 0.058926888 0.009101587
-0.044132397 -0.03798377 0.10492964 0.04340499 -0.080890015 -0.0054033035 -0.10980982 0.083081566
-0.084210835 0.0076977476 -0.056809165 0.07461187 0.11381098 -0.032426067 -0.1089325 0.003952414
-0.030719943 0.102965474 0.049273293 -0.06343532 0.06564002 -0.010992008 0.07145532 -0.090936095
-0.051382042 0.076676734 -0.029123649 -0.06849453 -0.044063404 -0.048266668 0.10159219 0.033711877
0.09641151 0.08856007 0.0668904 -0.109290704 -0.02774258 0.03339031 -0.066538624 0.03235259
-0.03169659 0.10931754 -0.064469345 -0.018067874 -0.10775501 0.03749891 -0.0022857715 -0.12724352
0.015546978 0.03385701 0.027938932 -0.03435257 -0.017542912 -0.074459486 -0.038326282 0.014427059
0.0075264797 0.00016265686 0.055234544 -0.050758824 -0.05952147 -0.02222114 -0.029255936 0.08226382
-0.08961636 0.054090373 -0.032834925 -0.104938164 -0.10857206 0.11768732 -0.013572749 -0.031749498
-0.07183088 -0.06539114 0.050203394 0.1000662 -0.047772653 0.033110917 0.07660673 0.11175996
0.06059319 -0.01822027 -0.08696527 -0.10157781 -0.11365731 0.069350645 -0.029227449 0.1158908
0.037689574 0.011816076 0.03924864 0.014676569 -0.07064158 -0.07596039 0.070994444 0.036697038
0.027045269 0.0042377803 0.056372948 -0.025244713 -0.048783887 0.054676916 0.12533762 -0.019868806
0.072108716 -0.0608029 0.022676487 0.071357 0.09621262 -0.073437825 0.087782845 -0.089815415
-0.079161674 0.045847774 0.09522734 0.07454914 0.083806336 -0.019437693 0.02308161 -0.00071371044
-0.1250967 -0.113515824 -0.0044878973 0.08914112 0.0925268 0.03562466 0.038279485 -0.034998957
00000000: 6355 f63c 1e2d 233d c16a efbc f1cc b3bc
00000010: 02e1 83bc d5fc b1bd 9c09 5dbd 7976 3fbd
00000020: a244 813d 14e4 e33c 410e 83bd c223 883d
00000030: 0f85 81bd 7040 da3c 41ef 45bc 0d1c 33bd
00000040: d91d c43b f777 9d3c 44f5 05bd f80a 0cbd
00000050: 1e84 93bc 4b45 01bd 70e2 063d 91cd 9f3b
00000060: b3f5 6aba a1f8 8c3c a2e2 3bbc 6300 053d
00000070: 6724 b43d 4b73 993d f794 ea3b 424d e23c
00000080: d19d 25bd 9e9a b33a 91de 423b b617 86bd
00000090: cb0a 983d 19b2 d8bd cca1 76bd fa3f 1c3c
000000a0: dbda 58bd 0b1e b53d b9ba 61bd 3aee 143d
000000b0: adb8 993d dda6 7c3d f8b5 563a f6fa 74bd
000000c0: 9ae7 323d d696 a83b 8af9 853d 05f2 723c
000000d0: dd65 df3c 020c 69bd 79da a63d bd35 7cbd
000000e0: c0a4 f03b c1eb b8bd 3984 333c 2437 57bd
000000f0: 5ee2 3cbc 18c1 a5bd 3983 27bd a74c a839
00000100: b64d bcbd 5577 99bc f02e 7ebc 664d bcbd
00000110: 7373 8abd 3195 ccbd 6511 81bd 8b50 063d
00000120: 2ec3 463d 5bcd c13d 4884 e4bc 15bf b5bd
00000130: 70d7 6fbc 16c8 943d 2c64 063d 0a90 c73d
00000140: 9227 063d 6ada 8d3d b14f dc3d bb2d d93b
00000150: 4886 8abd 6b71 d53c d5c4 81bd 6a72 853d
00000160: 3a8f 8fbc a21e 73bd 1c0a cdbd 9a05 243c
00000170: ba3b f53c 4a9e 53bb 6f7b d7bd f3ae aa3d
00000180: 19a0 b7bd 85c7 c7bd de14 37bd cc17 68bd
00000190: b871 48bd eee9 27bd a879 8fbd 79db 6dbb
000001a0: 3e8c 373c e536 c93d b0b5 973d 324e b6ba
000001b0: ecc6 033d 5265 343c 3066 ce3d 0228 ca3c
000001c0: 10ff a93c 252d 443c 0172 cb3d c18f aa3c
000001d0: 0282 29bd 62cc 3339 838a f1bc 747e f03d
000001e0: 182a 38bb 48c9 803d 9397 aabd 7954 233d
000001f0: 9058 35bd 1c4b 2b3d 525d 713d d31e 153c
00000200: 2cc4 34bd df94 1bbd 5ae5 d63d 6ec9 313d
00000210: aaa9 a5bd 320e b1bb f9e3 e0bd ab26 aa3d
00000220: bb76 acbd 633d fc3b bab0 68bd 1cce 983d
00000230: bb15 e93d 32d1 04bd 0118 dfbd 4083 813b
00000240: 64a8 fbbc 90df d23d cbd2 493d 61ea 81bd
00000250: 466e 863d d317 34bc 2b57 923d b43c babd
00000260: fa75 52bd b108 9d3d b894 eebc dc46 8cbd
00000270: d47b 34bd 45b3 45bd 910f d03d 7715 0a3d
00000280: 6673 c53d fb5e b53d d6fd 883d ced3 dfbd
00000290: 6844 e3bc 47c4 083d 6745 88bd 2684 043d
000002a0: 49d4 01bd e0e1 df3d 8108 84bd 1403 94bc
000002b0: a9ae dcbd 7598 193d e2cc 15bb 204c 02be
000002c0: c1b8 7e3c a6ad 0a3d 30e0 e43c 48b5 0cbd
000002d0: 27b6 8fbc 377e 98bd 05fc 1cbd 795f 6c3c
000002e0: b0a0 f63b de8e 2a39 9e3d 623d 7ce8 4fbd
000002f0: c9cc 73bd 1c09 b6bc 25aa efbc ef79 a83d
00000300: c888 b7bd de8d 5d3d ea7d 06bd d2e9 d6bd
00000310: 075b debd 0d06 f13d 3c60 5ebc c30b 02bd
00000320: 121c 93bd caeb 85bd 13a2 4d3d 82ef cc3d
00000330: 42ad 43bd 509f 073d fde3 9c3d 68e2 e43d
00000340: 9130 783d ad42 95bc d91a b2bd 0708 d0bd
00000350: 2ac5 e8bd b607 8e3d 676e efbc 2858 ed3d
00000360: 6260 1a3d 3798 413c 2fc3 203d fe75 703c
00000370: 88ac 90bd 1f91 9bbd 8965 913d a24f 163d
00000380: 0a8e dd3c 14dd 8a3b 52e7 663d 00ce cebc
00000390: 9dd1 47bd e7f4 5f3d 8158 003e e8c3 a2bc
000003a0: bcad 933d 760c 79bd 0ac4 b93c 9e23 923d
000003b0: 1f0b c53d 9266 96bd 7ec7 b33d 25f1 b7bd
000003c0: 841f a2bd e0ca 3b3d 8d06 c33d 38ad 983d
000003d0: a8a2 ab3d cc3b 9fbc a515 bd3c 4c18 3bba
000003e0: 5919 00be fc7a e8bd 360f 93bb 9f8f b63d
000003f0: b17e bd3d 2aeb 113d f3ca 1c3d 115b 0fbd

gcn.gc2.bias f4 [64]
0.019958317 0.03289391 0.0119144535 -0.0941695 0.0032247428 0.08778085 0.01591355 0.053081993
0.03360273 -0.01918763 -0.076987386 0.0034558433 -0.0461067 0.02074903 0.061186552 0.009136699
-0.033973284 0.043295585 0.09864908 0.08449993 0.05762048 -0.09332236 -0.029714366 -0.047167145
0.01159188 0.11019284 -0.07065279 -0.04317106 0.023289524 -0.088484354 -0.09350914 -0.008011636
0.0030055663 -0.050902158 0.020309368 -0.021251485 0.02067678 0.0943605 -0.051660225 -0.008394571
-0.070958614 0.07033434 -0.06851298 -0.029323453 -0.06374537 -0.042216677 0.11563734 0.06992853
0.12118487 0.010823697 -0.05441997 -0.07437519 -0.046102494 0.020984655 -0.103618905 -0.08758216
0.07657476 -0.11343135 0.011564812 -0.06989447 0.116049714 0.11761881 -0.038627736 0.060126435
00000000: a07f a33c c4bb 063d d734 433c f0db c0bd
00000010: 3556 533b 72c6 b33d 225d 823c 816c 593d
00000020: 04a3 093d 602f 9dbc 90ab 9dbd 6e7b 623b
00000030: 61da 3cbd dff9 a93c c09e 7a3d 18b2 153c
00000040: 9227 0bbd b656 313d 8708 ca3d 4d0e ad3d
00000050: 7403 6c3d cb1f bfbd 8b6b f3bc 5632 41bd
00000060: deeb 3d3c c9ac e13d 69b2 90bd 23d4 30bd
00000070: acc9 be3c 4937 b5bd b881 bfbd 3d43 03bc
00000080: 09f9 443b c87e 50bd d55f a63c 9817 aebc
00000090: 5a62 a93c 1440 c13d ac99 53bd 6289 09bc
000000a0: c052 91bd 730b 903d 8950 8cbd bd37 f0bc
000000b0: ef8c 82bd 65eb 2cbd 45d3 ec3d b036 8f3d
000000c0: c62f f83d e055 313c 79e7 5ebd 0552 98bd
000000d0: f8d5 3cbd 03e8 ab3c 2636 d4bd 475e b3bd
000000e0: 3ad3 9c3d b24e e8bd 567a 3d3c d524 8fbd
000000f0: 79ab ed3d 21e2 f03d 1e38 1ebd 2347 763d

gcn.ln2.weight f4 [64]
1.0016952 0.9511361 0.77764046 0.96973914 1.0212625 0.9965368 0.993287 0.966101
0.9487298 0.86589044 0.9598931 1.0242753 0.9123778 0.88516855 0.97884524 0.9887228
0.67252 0.6343457 0.8149244 0.95635587 0.9858299 0.8368053 0.78084224 0.9878807
0.4304684 0.97752476 0.7381608 0.9340527 1.004577 0.93415314 0.97618765 0.6958134
0.9977435 1.0155308 0.72243357 1.0036979 0.950446 0.98970246 0.96889895 0.9447683
1.0050571 0.9654864 0.99400055 1.0022924 0.9913305 0.97627443 0.97592396 1.0018189
0.9993493 1.0009181 1.0068365 0.5671286 0.9156925 0.92800933 0.9596131 0.9927038
0.9855657 0.99366736 0.73427683 0.9958726 0.94111985 0.96441156 0.9864843 0.31907904
00000000: 8c37 803f a87d 733f 7213 473f d340 783f
00000010: bbb8 823f 091d 7f3f 0f48 7e3f 6552 773f
00000020: f5df 723f ffaa 5d3f 8ebb 753f 741b 833f
00000030: 9791 693f 689a 623f 9a95 7a3f f01c 7d3f
00000040: 452a 2c3f 7b64 223f e39e 503f bdd3 743f
00000050: 595f 7c3f df38 563f 47e5 473f c0e5 7c3f
00000060: 5b66 dc3e 103f 7a3f 1bf8 3c3f 141e 6f3f
00000070: fb95 803f a924 6f3f 6fe7 793f d420 323f
00000080: 1e6c 7f3f eafc 813f 68f1 383f 2c79 803f
00000090: 6e50 733f 245d 7d3f c309 783f 56dc 713f
000000a0: b6a5 803f 1e2a 773f d276 7e3f 1e4b 803f
000000b0: d6c7 7d3f 1fed 793f 27d6 793f 9a3b 803f
000000c0: 5bd5 7f3f 161e 803f 05e0 803f 572f 113f
000000d0: d36a 6a3f 0592 6d3f 34a9 753f d621 7e3f
000000e0: 094e 7c3f fc60 7e3f 91f9 3b3f 82f1 7e3f
000000f0: 3bed 703f ade3 763f 3c8a 7c3f 545e a33e

gcn.ln2.bias f4 [64]
0.0054180194 0.006380926 0.008923577 0.0012600134 0.007356795 0.013543883 0.0018591555 -0.00412497
-0.003110636 0.040490776 -0.00079438154 0.016965434 -0.0059120883 -0.01415778 0.00072147365 0.0081021
0.01253048 0.016293861 0.008471447 0.016027385 0.003027333 0.018224226 -0.005531143 0.013422258
-0.00860145 0.013193641 -0.005367751 0.0047103707 0.0272561 0.0023996795 -0.0075476323 -0.0036199444
0.008080393 0.013997229 0.0008280348 0.0018016284 0.005852865 0.0085902065 0.012891973 0.012618784
0.0018828275 0.0029493668 0.003104306 0.004226705 0.0057155555 0.01404872 0.01151948 0.012275004
0.0046178787 0.012347845 0.016126383 0.0047388165 0.006641954 0.005468476 0.009136825 0.010982004
0.019109702 0.0022982026 0.014298779 -0.007208146 0.017777203 -0.0018808634 0.013493682 0.00040883612
00000000: a489 b13b 1617 d13b 3234 123c 0927 a53a
00000010: 4511 f13b 2ae7 5d3c e8ae f33a c22a 87bb
00000020: d0db 4bbb a8d9 253d 0b3e 50ba 18fb 8a3c
00000030: 31ba c1bb 09f6 67bc 4721 3d3a acbe 043c
00000040: a44c 4d3c b47a 853c d3cb 0a3c dd4b 833c
00000050: 3866 463b f94a 953c 973e b5bb 08e9 5b3c
00000060: 19ed 0cbc 242a 583c f5e3 afbb 7459 9a3b
00000070: 2f48 df3c f143 1d3b 2152 f7bb 973c 6dbb
00000080: a063 043c a254 653c 7a10 593a 9e24 ec3a
00000090: 64c9 bf3b f0bd 0c3c db38 533c 04bf 4e3c
000000a0: 35c9 f63a 2a4a 413b 9d71 4b3b 2c80 8a3b
000000b0: 8e49 bb3b 9a2c 663c 33bc 3c3c 191d 493c
000000c0: 9351 973b 9e4e 4a3c 7a1b 843c 1348 9b3b
000000d0: c0a4 d93b e730 b33b 9fb2 153c dded 333c
000000e0: f38b 9c3c 719d 163b 6d45 6a3c 5032 ecbb
000000f0: 7fa1 913c 4e87 f6ba 9b14 5d3c 0e59 d639

attention.fc1.weight f4 [16, 64]
-0.036564883 0.090933956 0.08427226 0.034853727 -0.08798462 -0.050252434 0.009947941 0.074045874
-0.008770868 -0.14464915 0.012073507 0.081108645 0.024789793 -0.017383916 -0.008912648 0.008516103
-0.046853088 -0.06592298 -0.092304505 -0.031293742 0.08449697 0.12465324 0.014636731 0.03221739
0.00970498 -0.044870287 0.009958538 0.087214336 -0.026528113 0.12294682 0.12908393 -0.018011127
0.028161248 0.11487595 0.06109314 0.07781359 -0.0049565705 0.10730784 0.006980342 0.124288365
0.006088929 0.09785118 -0.06046245 -0.034519777 -0.011215925 0.04343268 -0.1167964 -0.06010052
-0.014032336 -0.02373688 0.024082819 0.014272511 -0.06474155 0.084141694 -0.054439828 -0.027690845
-0.04766671 -0.009041375 0.01760234 0.15306807 -0.0051922044 -0.008218967 0.04002398 0.034005594
0.118861586 0.049375016 -0.09051592 -0.0033531655 0.05746288 0.09857461 -0.08429056 -0.08834131
0.0074014226 0.052793797 -0.0081864735 -0.034914438 -0.12270354 0.040097192 -0.0014395089 0.03705631
0.021306695 0.12196963 -0.0040429155 0.04848293 0.002630336 -0.0934187 0.00398137 -0.0040257084
-0.059032165 -0.10609783 0.046751656 -0.05727062 0.16452834 -0.103525154 -0.08654368 0.009853524
-0.1002145 -0.073524185 -0.032688707 -0.02380947 0.12203877 -0.040126514 0.0071989787 -0.1063599
-0.076640785 -0.010852837 0.075721204 -0.019624993 0.06235726 0.084939525 0.12734805 -0.11143962
-0.08081956 -0.08969286 -0.11794921 0.052721318 0.012898208 0.090305194 -0.051278993 0.06793237
-0.012414152 -0.055793874 0.111791566 -0.03680705 0.079560764 0.04384995 -0.068761155 -0.072322235
-0.073155716 0.11751217 0.038235772 0.091267005 0.028291749 -0.07986952 0.026891142 -0.008401832
0.08628675 -0.16348435 0.090093635 0.048696116 0.14267659 0.055424027 -0.051464163 -0.0621024
-0.09874429 0.009735077 -0.13557023 -0.04950215 0.10585196 0.10440719 0.04020803 0.08203783
0.0771904 0.08502827 0.030136649 0.09333498 -0.024443178 -0.02966436 0.03159759 0.08935729
0.08746011 -0.050768603 0.01219514 0.08578856 -0.1323304 -0.08585295 -0.1326988 -0.015142277
0.13040967 0.0032921375 -0.09207783 -0.016510444 0.078891166 0.00646612 -0.13410145 0.007322715
-0.046801787 0.041112248 -0.0837484 -0.045657117 0.089432046 0.060514677 -0.10467108 -0.025482422
0.011000329 0.0033825466 -0.0521005 0.0036364165 0.0056817336 -0.0034934569 0.045061525 0.0749273
-0.030645553 -0.07983653 -0.109644376 -0.10232956 -0.057800703 0.089744486 0.0005455456 -0.03471867
-0.0014202863 0.12392234 -0.012087093 -0.050559483 -0.12059388 0.022089016 0.04267741 -0.04375621
0.027343087 0.04547178 0.063793965 0.040901743 0.052471492 -0.03253923 0.095701404 -0.11274377
0.004174851 0.07413448 -0.09861455 0.0038796614 0.18326837 0.040002324 -0.13127637 0.002372805
0.0270783 0.04198297 -0.041675635 -0.03504521 0.12603818 0.089006655 -0.005433408 -0.056239087
-0.0626679 -0.00043787516 0.025909515 0.06737405 -0.033898614 -0.10672102 0.021918567 -0.06991603
-0.13197312 -0.02759859 -0.025596688 -0.011615541 -0.13019125 0.10155256 0.102893025 -0.039228894
0.081602305 -0.09453847 0.11096692 -0.058743287 0.070399836 0.022891322 -0.0024499355 -0.040996272
00000000: 0fc5 15bd 953b ba3d ef96 ac3d c8c2 0e3d
00000010: 4831 b4bd 7fd5 4dbd b0fc 223c 5da5 973d
00000020: b0b3 0fbc e81e 14be f5cf 453c 4a1c a63d
00000030: f713 cb3c b768 8ebc 5b06 12bc 2087 0b3c
00000040: 06e9 3fbd a102 87bd 250a bdbd de2d 00bd
00000050: bf0c ad3d 334a ff3d e6ce 6f3c 62f6 033d
00000060: a301 1f3c e8c9 37bd 2329 233c 6e9d b23d
00000070: 7c51 d9bc 8bcb fb3d 942e 043e 128c 93bc
00000080: 6bb2 e63c 1544 eb3d cd3c 7a3d bb5c 9f3d
00000090: ba6a a2bb 36c4 db3d 5abb e43b e68a fe3d
000000a0: a385 c73b 3366 c83d 79a7 77bd 9c64 0dbd
000000b0: 00c3 37bc 77e6 313d f332 efbd f62b 76bd
000000c0: e2e7 65bc d873 c2bc 5549 c53c 40d7 693c
000000d0: 3897 84bd 7b52 ac3d 4cfc 5ebd e9d7 e2bc
000000e0: 2b3e 43bd 4622 14bc c832 903c e0bd 1c3e
000000f0: 5e23 aabb d9a8 06bc 2ff0 233d 7349 0b3d
00000100: b46d f33d 753d 4a3d 6960 b9bd c8c0 5bbb
00000110: 325e 6b3d 7ce1 c93d 87a0 acbd 4aec b4bd
00000120: a287 f23b 4f3e 583d 8f20 06bc 7102 0fbd
00000130: fe4b fbbd f43c 243d e7ad bcba 5bc8 173d
00000140: 618b ae3c 37cb f93d 6f7a 84bb 0996 463d
00000150: b761 2c3b 4e52 bfbd 2776 823b 17ea 83bb
00000160: b6cb 71bd d249 d9bd aa7e 3f3d 9994 6abd
00000170: 1e7a 283e ff04 d4bd d03d b1bd ad70 213c
00000180: 433d cdbd d993 96bd 98e4 05bd 140c c3bc
00000190: 76ef f93d b35b 24bd 69e5 eb3b 38d3 d9bd
000001a0: d8f5 9cbd 19d0 31bc b813 9b3d 98c4 a0bc
000001b0: 546a 7f3d c6f4 ad3d 8767 023e 753a e4bd
000001c0: ba84 a5bd e4b0 b7bd 5b8f f1bd 4ff2 573d
000001d0: 0153 533c eef1 b83d ec09 52bd 2020 8b3d
000001e0: ba64 4bbc 1e88 64bd faf2 e43d fdc2 16bd
000001f0: c1f0 a23d 019c 333d a6d2 8cbd ae1d 94bd
00000200: aad2 95bd 38aa f03d 1d9d 1c3d 32ea ba3d
00000210: 19c4 e73c a292 a3bd d04a dc3c d6a7 09bc
00000220: 1cb7 b03d 7168 27be 0383 b83d 9475 473d
00000230: d019 123e 4e04 633d 16cc 52bd 165f 7ebd
00000240: 723a cabd df7f 1f3c ecd2 0abe c4c2 4abd
00000250: eac8 d83d 70d3 d53d 2db1 243d 7303 a83d
00000260: 0016 9e3d 4d23 ae3d 22e1 f63c 6926 bf3d
00000270: 0f3d c8bc ac02 f3bc 796c 013d f400 b73d
00000280: 491e b33d bdf2 4fbd 20ce 473c eab1 af3d
00000290: 9f81 07be acd3 afbd 32e2 07be 5017 78bc
000002a0: 1d8a 053e e7c0 573b 4d93 bcbd e940 87bc
000002b0: b191 a13d bfe1 d33b e451 09be 63f3 ef3b
000002c0: 3bb3 3fbd 5165 283d 4884 abbd f502 3bbd
000002d0: 2628 b73d 3dde 773d cb5d d6bd 83c0 d0bc
000002e0: b93a 343c b7ad 5d3b 5567 55bd f250 6e3b
000002f0: d62d ba3b 7bf2 64bb 6f92 383d 7c73 993d
00000300: 620c fbbc 5681 a3bd 3b8d e0bd 2992 d1bd
00000310: 6ec0 6cbd f5cb b73d f202 0f3a 2a35 0ebd
00000320: e628 baba ffca fd3d f108 46bc 7617 4fbd
00000330: edf9 f6bd 06f4 b43c 82ce 2e3d b639 33bd
00000340: 9cfe df3c 9e40 3a3d 69a6 823d 9688 273d
00000350: 59ec 563d db47 05bd 19ff c33d 35e6 e6bd
00000360: 30cd 883b d1d3 973d 6df6 c9bd eb41 7e3b
00000370: b4aa 3b3e 7ad9 233d 506d 06be 1081 1b3b
00000380: 50d3 dd3c 56f6 2b3d 12b4 2abd 918b 0fbd
00000390: 2710 013e 1f49 b63d bb0a b2bb f55a 66bd
000003a0: 0758 80bd 9c92 e5b9 3140 d43c 68fb 893d
000003b0: 46d9 0abd 8d90 dabd 918e b33c 2330 8fbd
000003c0: f623 07be 7016 e2bc 25b0 d1bc 1c4f 3ebc
000003d0: db50 05be cafa cf3d 94b9 d23d 7aae 20bd
000003e0: 1c1f a73d 639d c1bd a042 e33d cd9c 70bd
000003f0: ca2d 903d 9586 bb3c 198f 20bb b5eb 27bd

attention.fc1.bias f4 [16]
-0.0095341345 0.033555783 -0.04131688 -0.0060426886 -0.052181568 -0.0136057995 0.057574093 -0.007301267
0.053904086 -0.00016464255 -0.008483784 0.096422695 -0.005628828 -0.030784257 0.04828226 0.06150049
00000000: 0f35 1cbc ca71 093d e43b 29bd bf01 c6bb
00000010: 57bc 55bd dcea 5ebc d0d2 6b3d 773f efbb
00000020: 88ca 5c3d e6a3 2cb9 92ff 0abc 4379 c53d
00000030: 0872 b8bb 442f fcbc 9ec3 453d f0e7 7b3d

attention.fc2.weight f4 [4, 16]
0.12561747 0.026777586 0.04037216 -0.21269944 -0.07327703 -0.07481484 -0.017740315 -0.13459317
0.020962466 0.13993008 -0.20184706 -0.25210568 -0.17203246 -0.2930549 -0.19414091 -0.20852411
0.22917841 -0.19591877 0.23413056 -0.19987805 0.13400702 -0.2380893 0.2539414 0.06068047
-0.05487383 -0.19107202 0.17777325 -0.261925 -0.0826888 -0.19801067 -0.0721779 -0.24237245
0.06081372 -0.25173086 0.21863127 0.14086746 -0.20278348 0.11413529 0.01962589 0.07335774
-0.12313754 0.00041194723 0.02872827 -0.14326257 0.045142427 -0.20730075 -0.21620855 -0.2330377
-0.06395462 0.04474139 0.15970382 -0.29094043 -0.10915385 -0.12855528 0.08225838 0.26973382
-0.10414792 -0.26954612 -0.0042760526 -0.2228733 -0.0666196 -0.24853446 -0.20141649 0.07091302
00000000: dea1 003e ab5c db3c 475d 253d e2cd 59be
00000010: 4412 96bd 8638 99bd 2354 91bc cbd2 09be
00000020: 7ab9 ab3c d549 0f3e ffb0 4ebe ff13 81be
00000030: 4729 30be 4b0b 96be e0cc 46be 5887 55be
00000040: bfad 6a3e ee9e 48be ecbf 6f3e d5ac 4cbe
00000050: 2339 093e aecd 73be 9b04 823e 168c 783d
00000060: 62c3 60bd 62a8 43be 310a 363e 091b 86be
00000070: bf58 a9bd 4fc3 4abe 02d2 93bd 7c30 78be
00000080: cf17 793d dee2 80be e0e0 5f3e 8f3f 103e
00000090: 79a6 4fbe c3bf e93d 79c6 a03c 953c 963d
000000a0: 892f fcbd 9ffa d739 8d57 eb3c 6cb3 12be
000000b0: 44e7 383d a646 54be c665 5dbe 6fa1 6ebe
000000c0: a4fa 82bd bf42 373d 6689 233e 25f6 94be
000000d0: 0e8c dfbd ffa3 03be 1577 a83d 8d1a 8a3e
000000e0: 814b d5bd f301 8abe 211e 8cbb e638 64be
000000f0: db6f 88bd d17f 7ebe 2040 4ebe d83a 913d

attention.fc2.bias f4 [4]
1.0373154e-06 -3.6893437e-07 1.1178317e-05 -2.6666632e-06
00000000: e339 8b35 f411 c6b4 828a 3b37 edf4 32b6

fc_final.weight f4 [1, 64]
-0.13396342 0.07559171 -0.0057320734 -0.109853216 -0.14539742 0.11029188 -0.13773434 -0.09442128
-0.105903015 -0.0025990407 -0.10542318 0.17512567 0.04007301 -0.0068050427 -0.08196411 0.090627596
0.026851766 -0.01116863 0.022284213 0.06542342 -0.12759314 0.0064569474 -0.019017987 0.11685827
-0.0066260123 0.06680376 -0.025115408 0.11556209 0.042098507 -0.10371927 -0.050559077 -0.026418194
0.118925646 0.1563195 0.014017515 -0.1558701 0.0733806 0.080856085 0.08511014 0.06257003
-0.14455791 -0.1051512 -0.11641488 -0.119425 0.13935865 0.06797119 0.07645951 0.12610574
-0.12943006 0.15940142 0.11586403 0.01191735 0.06408722 0.06406998 -0.0779873 0.093265906
-0.03913928 -0.14830592 0.02567867 -0.11698825 0.088404894 -0.088767774 0.15952131 -0.0016135266
00000000: b52d 09be d4cf 9a3d 1ed4 bbbb b9fa e0bd
00000010: 10e3 14be b6e0 e13d 3b0a 0dbe f25f c1bd
00000020: aee3 d8bd ab54 2abb 1ce8 d7bd 2554 333e
00000030: 9923 243d d6fc debb cddc a7bd f69a b93d
00000040: 3cf8 db3c a1fc 36bc 628d b63c b7fc 853d
00000050: c7a7 02be cd94 d33b 9ccb 9bbc 6353 ef3d
00000060: 051f d9bb 69d0 883d d4be cdbc d1ab ec3d
00000070: 7c6f 2c3d c56a d4bd 0917 4fbd f86a d8bc
00000080: 4a8f f33d 3812 203e b8a9 653c 699c 1fbe
00000090: 9148 963d e097 a53d 3a4e ae3d b724 803d
000000a0: fd06 14be 8359 d7bd ed6a eebd 1895 f4bd
000000b0: 09b4 0e3e 7b34 8b3d ce96 9c3d dd21 013e
000000c0: 5089 04be 203a 233e 1f4a ed3d fd40 433c
000000d0: 2940 833d 1f37 833d ceb7 9fbd 3202 bf3d
000000e0: 8250 20bd 82dd 17be 135c d23c 8997 efbd
000000f0: a00d b53d e1cb b5bd 8e59 233e f87c d3ba
