Predict_workflow/Model/Fold2_best_model.pkl (torch_old, 172687 bytes, 13 tensors)

gcn.gc1.weight f4 [94, 256]
00000000: edc9 043d 3583 4bbd 4cec b73c fcc0 8d3c
00000010: 20a4 1fba 3985 7bbc 0e4a abbc c89e 003d
00000020: e6ee a53b c601 4fbd 6795 373d dc7d 3d3d
00000030: 7cee 1e3d 9424 25bd 4385 ea3a 44a7 1a3d
00000040: 60ba ecbc 8503 203d 6f18 4ebd 3301 093d
00000050: 27b8 0b3d d492 753d 07dc 353d 82d9 7d3d
00000060: a794 3bbd c33c 8a3d 02e5 763c 7f65 13bb
00000070: 8e6b c63c 21f0 893c 65d3 68bc 5190 bebb
00000080: ec82 84bd 26ba e5bc 198d 3fbd 4f8f 803d
00000090: 3aab 30bc 4530 8b3b e1dc 03bd 0542 6d3d
000000a0: 3b38 0dbc a505 283d edbf 7d3d 7c27 803b
000000b0: a8c7 82bc 1855 163d 3a27 39bb 78cd bbbc
000000c0: 2c40 f9bc 6275 4abd cd9e 183d f5b8 743d
000000d0: 72cc 0fbd 3a7b 8f3c 0aef e8bc f3b7 cebc
000000e0: bcd2 5f3c 761c 8bbd bc6c 403d ef9d c7bc
000000f0: cbd6 6ebc 79c2 16bd 21d1 0c3c 9fcd 18bd
00000100: cadb c6bc 1dd4 3f3c 1706 4c3d 0d31 183c
00000110: 78f2 5dbd 042c b9bc e915 c9ba 8a82 a53b
00000120: 92c1 723d 9c04 9ebc fe52 eeba b490 113d
00000130: 57c7 11bd 67bc 62bd ead5 06bb 10cd 60bd
00000140: b453 593c bf75 013d 9db7 ddbc 634c 1c3d
00000150: fc0f 3e3d fe74 1abd f8d5 f23c 4177 35bd
00000160: b33c 2f3d 3a46 1d3b 1e0d b13a de3a 6ebd
00000170: 6314 fc3c 974e ab3c bda2 cb3c 2121 a8bb
00000180: 37e5 0abd 2049 863c 1be7 483b d65a 913d
00000190: d847 1ebc f33b ac3b 0c81 debc 8dce 393c
000001a0: 4bdd 07bd 62f8 65bd ead0 3bbd 3cbe 453c
000001b0: a426 3c3d fa36 4fbd 33b6 94bb fce3 fc3b
000001c0: 680f 563d d8ad 003d f915 1b3d a99a 3a3d
000001d0: ef46 5ebd 0eec 713d 95c9 f2bb 6a7b e1bc
000001e0: b3d2 93bc 6873 8d3c 4540 1c3d b985 21ba
000001f0: 9563 e33b d69b 3c3c 7aab e7bc b1a5 143d
00000200: bfff 9c3c 0f4e 26bc 116c b93c 5e07 b6bc
00000210: 8762 123d d0a7 533c e58c 03bb 4c6b c33c
00000220: 8158 833a 6657 9c3c 3768 f63c 633c 133d
00000230: 777d adbc 521f 653d 4a08 453d 9645 d63c
00000240: 840f ddbc edce 23bd cf36 e5bc e487 e13c
00000250: e634 043d 46bb 143d d48e 12bd eb7b 5c3d
00000260: a636 ae3b 821f 073d 526e 32bd 3c0a 58bd
00000270: 0564 3d3d 4c5e d2bc 9e82 183d b24b fb3b
00000280: f000 c93c 194a 20b9 951f bebb d0bc 073d
00000290: 9dc1 60bc 15a2 d73c 053e 8c3c d3d6 643c
000002a0: 3815 223d 5e49 1cbc 0f96 43bd a48c bebc
000002b0: c8d0 423d f73b 24bd 504a 3b3d 20fd c33c
000002c0: 9dd5 1bbd 9f83 5a3c fb78 cdbb 3c7d f7ba
000002d0: 0745 2cbd 20eb bbba e789 893a 2bc7 14bd
000002e0: 8ec7 0e3d b3f2 823d a3a6 df3c 1572 7f3c
000002f0: c316 dcbc 368d 66bd d19d 06bd a68b 13bd
00000300: 498e d1bc 28f1 ef39 a2f4 253d bc8a b5bc
00000310: f8be fdbb 9cc4 4c3c 250b 583d 6081 46bd
00000320: 931b 733d 6fe8 db3b 417a 32bb a90c e5ba
00000330: 73a0 e93c df66 cebc e321 a43b 25b5 3bbc
00000340: 52bc 6cbc 1a04 273d 4996 f03a e8b7 09bd
00000350: 178c 313b e827 ad3c d525 d03b 8029 933b
00000360: 4b33 4d3a d8b5 08bd f8b1 46bd 8e60 35bd
00000370: b150 bcbd c30b 2d3c 3174 f8bb 9167 2ebd
00000380: 217f 58bb 4154 71bc 6abe 443c d82f 20bd
00000390: f413 603d 071d 1ebd a816 1e3d 2251 8c3c
000003a0: 767a 0d3d 6098 173c c9b6 673d 8673 13bd
000003b0: 1149 a03c ffed 3e3d 793a df3c f1a0 f6bc
000003c0: 9038 debc b9ae fa3c c748 2ebd 26c6 4bbd
000003d0: 8f8a 743d cc3a 0e3a 89d2 2b3d 5086 b0bc
000003e0: b9f0 7e3d 8990 713d 9471 1d3d 227c 74bc
000003f0: 38d0 9c3c 2765 4dbc 058c 3f3d b05e 4f3c
0.032419134 -0.049685676 0.022451542 0.017303936 -0.0006089825 -0.015351587 -0.020909335 0.031401426
0.0050638793 -0.0505388 0.044820216 0.046262607 0.038801655 -0.040318087 0.0017892498 0.037757173
-0.028897464 0.039065856 -0.05031627 0.03344841 0.03411117 0.05995448 0.044399288 0.06197501
-0.045796063 0.06749871 0.015069248 -0.0022490916 0.024221208 0.016838135 -0.014210557 -0.0058155437
-0.06470284 -0.028042864 -0.04676542 0.06277334 -0.010783011 0.0042476975 -0.03219307 0.05792429
-0.008619363 0.041021008 0.061950613 0.003910957 -0.015964344 0.036702245 -0.002825214 -0.022925124
-0.030426107 -0.04942835 0.03726082 0.0597467 -0.035107084 0.017514814 -0.028434295 -0.025234198
0.013661083 -0.06792538 0.046978697 -0.0243673 -0.014577578 -0.036806557 0.008594782 -0.03730547
-0.024274725 0.011708287 0.049810495 0.009289038 -0.054186314 -0.022603996 -0.0015341613 0.005050962
0.059266634 -0.019289307 -0.0018182693 0.03553839 -0.035590496 -0.055355456 -0.002057428 -0.054883063
0.013264585 0.031606432 -0.027065093 0.038158786 0.046401963 -0.03770923 0.029643044 -0.044303183
0.042782497 0.0023998157 0.0013507938 -0.05816161 0.03077144 0.020911498 0.024857873 -0.0051309024
-0.033910003 0.01639229 0.0030655328 0.07097404 -0.009660684 0.00525617 -0.027161144 0.011340749
-0.033170026 -0.05614508 -0.045853533 0.012069281 0.045935288 -0.05058954 -0.0045383214 0.0077176075
0.052260786 0.03141579 0.03786275 0.04555765 -0.054266866 0.05906301 -0.0074092844 -0.027524669
-0.018044805 0.017266944 0.03814723 -0.0006161589 0.0069393613 0.011511764 -0.028280009 0.03629083
0.019164918 -0.010150447 0.022634538 -0.02222031 0.035738494 0.012918428 -0.0020072993 0.023854874
0.0010020883 0.019084644 0.03007899 0.03594626 -0.02117799 0.055938073 0.04810361 0.026156228
-0.026984937 -0.03999226 -0.027980236 0.027530618 0.03227701 0.03631141 -0.035780743 0.053829115
0.005316573 0.032989033 -0.04356224 -0.052744135 0.046237964 -0.02567973 0.03723394 0.0076689357
0.02453658 -0.00015286393 -0.0058021047 0.03313905 -0.013718036 0.026322404 0.017119417 0.013967234
0.039571017 -0.0095389765 -0.04775053 -0.023260422 0.04756239 -0.04009625 0.045725167 0.02392441
-0.038045514 0.013337045 -0.0062705255 -0.0018881927 -0.042058017 -0.001433704 0.0010493369 -0.036322754
0.03485828 0.063939475 0.027301138 0.015591164 -0.026866322 -0.056287013 -0.03286535 -0.03602185
-0.025580542 0.00045765308 0.040516503 -0.02216088 -0.0077437125 0.012498047 0.052745003 -0.048463225
0.05935247 0.006711058 -0.0027233514 -0.0017475086 0.028518891 -0.025195537 0.0050089224 -0.011456762
-0.014449196 0.040775396 0.0018355335 -0.033622652 0.0027091557 0.021137193 0.006352166 0.004491031
0.00078277726 -0.033376545 -0.048509568 -0.044281535 -0.09195078 0.010561886 -0.0075822105 -0.042579237
-0.003303476 -0.01472956 0.012008289 -0.039108127 0.05470653 -0.0386019 0.038595825 0.01712853
0.034540616 0.009252638 0.056570802 -0.035998844 0.01956609 0.04661369 0.027249562 -0.03010604
-0.02712658 0.030600892 -0.042549875 -0.049749516 0.059702452 0.00054256315 0.04194883 -0.02154842
0.06224129 0.05897573 0.038438395 -0.014922174 0.019142255 -0.012536324 0.046764392 0.012656853

gcn.gc1.bias f4 [256]
00000000: d2c2 c3bc eee2 b13a 888c 1e3c 1912 34bc
00000010: f558 22bd 85a9 17bd 6424 3cbd c89d 303d
00000020: dc71 613d 5eda 393d 7459 1b3d 8601 913c
00000030: 0804 1cbd 5a15 2d3d b208 75bc e840 35bd
00000040: 3ffd 9dbb ef22 5bbd fafa 39bd 8cac 323d
00000050: 4681 1c3d 64a6 113c c598 b03c dbb8 e0bb
00000060: 49ea 373d 70b1 d8bc a71c dd3c 284d 2fbd
00000070: 5c1d 9f3c 2718 92bc d565 f1bb 01e9 ab3c
00000080: 1d2e 61bb fe8d 48bc ce4a 07bd 43ac 623d
00000090: d0ac 1bbd 1ada 0c3d b056 b0bc 8499 3e3d
000000a0: 5684 54bb b3dd 1a3d 51e0 88bc 4fb1 81bc
000000b0: a15c 1c3d 6144 ee3c 6e07 2bbd 41ec f93c
000000c0: ae37 0cbd a761 7c3b c56f eeba da1b 2cbd
000000d0: 78dd 273d 01a7 26bd a724 713d 610d e1ba
000000e0: 3f33 40bd a8c5 6bbb c0ef 13bd 41ff 1e3c
000000f0: 98b9 553c cfd3 493d 416e 69bd 4784 cdbc
00000100: 2b44 463d 4dc4 e2bb 9e12 3f3d 4dfc 87bc
00000110: aff4 c1bb c656 1a3d 37c4 a73c e228 803c
00000120: 81b0 78bc 1e02 003d 89d3 b4ba cade 2d3d
00000130: 00c7 37bd aa78 033d 5a9c c4bc 0325 593d
00000140: e56f b9bc 55a6 7b3c f91a c6bc 8d12 b0bc
00000150: afe1 0dbd e84c 2a3d f3bd 003d 353f 0e3d
00000160: 5076 4fbd f99b 5abd 63d7 cf3c 8748 b8bc
00000170: 1cfb 10bd 9e64 673c e38b f4bc 8288 76bd
00000180: 8069 c13c 29bd 0bbd 3b34 473d 633e a93b
00000190: a115 5ebc 1e59 4f3d eb39 4bbd 3019 c8bc
000001a0: b4ad 04bc 159d 973c c47e 32bc 72d4 1a3d
000001b0: cc0d 40bc 6f80 fcbc 7271 053d 9266 1b3d
000001c0: 9c49 543d 8b1a 39bd 253e b2bb f685 b63c
000001d0: af19 00bd 24e0 5ebd 2c8f 493d 7797 d83c
000001e0: fbe8 ddbb b98b 303d 0f9a 79bc 3636 0c3c
000001f0: 839b 533c 28dd 1b3d cc1f 173d aad6 59bd
00000200: 9c50 28bd 9e25 89bc 6993 933c e997 693c
00000210: 2f91 503c b406 1bbd 95d0 0bbd 84dd 3ebc
00000220: 0ee8 19bd 4f79 bfbc 01df 293d 01d5 18bc
00000230: 66d0 b73c 3c1c 0cbd a3b4 b4bc a2fa 5d3d
00000240: 9636 933c 2c4b b5bc 8f9e 9b3c 89c3 263d
00000250: 5b76 25bd 93c5 1b3d f0b7 463d 884b 103d
00000260: 2193 ed3c e6f0 a63c 54f3 b63c bce6 11bd
00000270: c655 c43c 9dbf a4bc edfd 4b3d 64d4 823c
00000280: 149d 7b3c 398b d33c 555c 923c 268a b23b
00000290: 1718 133d 9fd3 e8bc 38c8 80bd c53a 113d
000002a0: 9d8c 41bd 2354 a23b 8b73 ae3c b7a7 2cbd
000002b0: 2bd1 873b b24a 1dbd 4c1d 94bc aa37 d5bb
000002c0: 8e03 df3b e088 223d 8940 833c f767 f6bc
000002d0: 5053 3d3c ea9d 513d 6f8a 913c 5082 0abd
000002e0: 5f8e b7bb 2db7 283d 6a9f e13c 6c6e 463c
000002f0: 0962 cc3c 9a99 e3bc 69dd febc fd80 8dbc
00000300: 5266 7dbd e8c0 633d 5d92 d5bc 2a5c 0e3d
00000310: fce4 11bc 0ac9 693c 0c9a 083d f32a 4abb
00000320: cd00 553d 4ce5 423c 23cf da3b 956c 5b3d
00000330: 2a36 e63c b3df e3bc 5afd 9d3c 1f4f 2d3d
00000340: 566c b6bc 19e1 95bb 0232 123b cc68 edbc
00000350: 76ed cabc 3a9b 083d a241 33bd 20c9 de3c
00000360: b4a6 6bbc e12d 0e3c 2271 063d 2768 833b
00000370: bb44 bdbc 3402 56bd c23c c5bb d1e1 253d
00000380: 5bb9 dc3c b988 8b3a 970e 503d 36c4 093d
00000390: 34a0 31bd e81e 20bd 5ec4 55bc 3546 11bc
000003a0: 987e e9bc 2bc8 363d d52b d03c a9bb cb3c
000003b0: b90e f8bc 3161 4cbd a395 5a3b 85a2 273b
000003c0: 1cdc 073b afc6 793d a7d9 a83c 54fd 8ebc
000003d0: a0df f63c 4676 b2bc 97d4 04bd e330 16bc
000003e0: b1d0 e5bb eb93 ecbc a917 77ba 86b2 5fbd
000003f0: 4b18 8d3c 7f31 fd3c be28 d6bc 6d1f 5e3d
-0.023896609 0.0013571659 0.00967706 -0.010990643 -0.039635617 -0.0370269 -0.045933142 0.043119222
0.055040225 0.045374267 0.037927106 0.017700922 -0.038089782 0.04225669 -0.014955686 -0.044251353
-0.004821449 -0.053500112 -0.045405366 0.043621585 0.038209222 0.008889768 0.021557221 -0.006857974
0.044901166 -0.026451796 0.026991202 -0.04279819 0.01942318 -0.017833782 -0.0073668757 0.020985128
-0.003435976 -0.012240885 -0.033030324 0.055340063 -0.038006604 0.034387685 -0.02152571 0.046533123
-0.0032427511 0.037809085 -0.016708525 -0.015831618 0.038174275 0.02908534 -0.041755132 0.030508162
-0.034232788 0.0038510354 -0.0018191269 -0.04201875 0.040982693 -0.04068661 0.058872845 -0.0017170125
-0.046923872 -0.0035975967 -0.036117315 0.009704412 0.013044737 0.049274262 -0.056989912 -0.025087489
0.048404854 -0.0069203735 0.046648614 -0.016599799 -0.005919061 0.03768041 0.020479305 0.015644494
-0.015178801 0.03125202 -0.0013795953 0.042448796 -0.044867516 0.032097496 -0.024000335 0.053013813
-0.022636363 0.015359481 -0.024182783 -0.02149322 -0.034639057 0.04157725 0.03143115 0.034728248
-0.05064994 -0.053371403 0.02537126 -0.022495521 -0.035395727 0.01412311 -0.02985186 -0.060188778
0.023609877 -0.034115944 0.048633795 0.005164908 -0.013554961 0.0506221 -0.04961578 -0.024426073
-0.008098055 0.01850752 -0.010894481 0.03780026 -0.011722039 -0.03082296 0.032578893 0.037939616
0.051828012 -0.04519133 -0.005439537 0.022280674 -0.031274494 -0.054412976 0.049208805 0.026439412
-0.006772158 0.043102 -0.015234484 0.008557847 0.012915495 0.038052708 0.03689556 -0.053183235
-0.0410925 -0.01674157 0.018014627 0.01425741 0.012729927 -0.03784819 -0.034134466 -0.011649493
-0.03757482 -0.023373274 0.04147244 -0.009328128 0.02243824 -0.034206614 -0.02205879 0.0541941
0.017970365 -0.022130571 0.018996505 0.04071382 -0.040396076 0.03803022 0.04851526 0.035228282
0.02900082 0.020378541 0.022332825 -0.035620436 0.023966681 -0.0201109 0.04980271 0.015970416
0.015357275 0.025823222 0.017866293 0.0054485975 0.035911646 -0.028421221 -0.06288189 0.035456438
-0.04725324 0.0049538775 0.02129533 -0.042152133 0.004144808 -0.038401313 -0.018080376 -0.00650688
0.0068058437 0.039681315 0.016021984 -0.030078871 0.011555508 0.05117599 0.017766206 -0.033815682
-0.0056016888 0.041190315 0.027541835 0.012111288 0.02494909 -0.027783204 -0.031111436 -0.01727342
-0.06186516 0.05560389 -0.026070768 0.034755863 -0.008904692 0.014269123 0.033350036 -0.0030848354
0.052002717 0.011895489 0.0066775247 0.05357035 0.028102 -0.027816629 0.019285847 0.042311784
-0.022268455 -0.004573953 0.002230764 -0.028980635 -0.024771433 0.03335116 -0.043763764 0.027195513
-0.014383007 0.008677931 0.032822736 0.0040102187 -0.023104062 -0.052248195 -0.006019206 0.04049856
0.026943853 0.0010645605 0.050795164 0.033634387 -0.043365672 -0.039091974 -0.013047306 -0.008866836
-0.028502747 0.04462449 0.025411526 0.024869757 -0.030280458 -0.049897376 0.003335335 0.0025579047
0.002073056 0.060980495 0.020611597 -0.01745478 0.03013593 -0.021784913 -0.032429304 -0.009166929
-0.0070134033 -0.028879127 -0.0009425828 -0.054613613 0.017223498 0.03090739 -0.026142474 0.05422919

gcn.ln1.weight f4 [256]
00000000: 5193 623f e531 6c3f 6edc 453f de5b 1d3f
00000010: 7a03 5f3f d292 4b3f 3b22 6b3f 572f 773f
00000020: be88 5e3f 9d87 683f 5aca 783f 3536 743f
00000030: 36e9 5d3f 4062 4c3f acdb 483f c16f 713f
00000040: 4d12 663f 62bc 4c3f 7198 5f3f 8e90 783f
00000050: c995 6e3f ec12 6e3f 2044 583f d711 753f
00000060: 204c 643f ae02 323f bc00 053f 34bd 553f
00000070: 66dd 6f3f 951e 4f3f 08cb 683f 7720 4e3f
00000080: 8fe3 7c3f 5774 1f3f ace2 443f e30e 733f
00000090: 9f34 743f 6da1 613f ae4b 713f 89bc 783f
000000a0: 7fae 583f d91a 753f e478 1d3f 92d2 193f
000000b0: f738 453f 483e 6d3f ab0f 423f e91b 5f3f
000000c0: 2b78 433f a790 453f 4a04 5c3f a840 5e3f
000000d0: 5a88 483f 6808 5d3f 30b7 643f 1fa0 503f
000000e0: c9f4 193f abd3 753f 2d64 663f 4904 5e3f
000000f0: 4a8b 643f d804 763f 5b3c 6a3f 2122 3a3f
00000100: 2f49 563f a754 6d3f c48e 613f 4508 7a3f
00000110: e2d1 3a3f 46d3 603f aea7 633f 1f7d 593f
00000120: 4fe0 483f 01d4 4c3f d82f 693f 3087 5a3f
00000130: bade 563f b31c 693f 2566 503f af35 713f
00000140: f70d 593f c5bc 433f 7c8d 5e3f d6e7 5a3f
00000150: 5115 443f 08b5 633f 02b9 6d3f d6cb 6e3f
00000160: 9a47 4a3f 558a 693f 155c 2e3f 6dd0 543f
00000170: c6f1 6f3f a8e5 4d3f c1f9 613f bb0a 703f
00000180: e258 4d3f 42aa 5b3f 6604 5a3f 2ab2 683f
00000190: f5af 5e3f 3458 763f fa2c 413f 6e2c 4f3f
000001a0: a122 6c3f f643 5b3f 215c 343f f881 563f
000001b0: 41e5 533f 3ea9 4b3f 8cf5 663f 636e 733f
000001c0: d6f5 723f be26 5e3f 5545 303f 2767 703f
000001d0: 022f 4e3f f99a 6a3f 9db7 723f 165f 4c3f
000001e0: e3f4 6f3f b7bf 6c3f 2911 663f 1a4c 5b3f
000001f0: 8d33 553f ae82 7a3f fc68 693f 6f77 653f
00000200: 9fbd 473f 20ed 583f a02d 723f f6bb 403f
00000210: ad24 4b3f daff 4c3f bac9 423f 10d1 4b3f
00000220: 55e1 763f 233f 2d3f d3b1 643f e647 6d3f
00000230: a105 6f3f 4634 633f 711a 533f 1e95 783f
00000240: ec3e 6c3f 5bdf 6e3f f036 653f e409 753f
00000250: e104 5c3f c0ff 5f3f 6276 683f 9a5d 783f
00000260: dc9c 723f ea70 623f 07dd 533f a173 703f
00000270: 7a81 4e3f 1730 5e3f 9e8e 703f 9317 543f
00000280: 4e7a 3e3f 139b 473f 2b83 443f 3ad6 723f
00000290: 2cbc 623f 5b40 6b3f 97db 713f f947 6c3f
000002a0: f992 613f 1a7b 513f d737 423f 08b2 5f3f
000002b0: 063d 673f 9c9c 5d3f 00bd 303f 65ba 653f
000002c0: 270a 533f 3ebc 733f a71d 403f 70f7 323f
000002d0: 8139 783f 087d 6f3f 409e 233f c01c 303f
000002e0: 827c 623f f5ff 693f ac18 6c3f 247a 4f3f
000002f0: bd4d 653f 980e 713f baf2 373f 113a 6f3f
00000300: 6487 6d3f 9864 7e3f 4f17 5c3f c889 503f
00000310: 9624 703f 462d 6d3f 2194 593f 6076 3a3f
00000320: 7edc 663f 0526 7b3f 11ee 633f 6b20 6e3f
00000330: cc31 113f 5935 3f3f 3dba 3e3f 7dd6 663f
00000340: f1b7 713f a915 713f 0228 663f 424a 2b3f
00000350: 13d6 3f3f e046 5e3f 23ce 553f e2d0 563f
00000360: 4b14 6f3f a5df 6f3f 2c30 6d3f 4612 403f
00000370: 4186 6a3f 4719 383f b107 323f 0eb1 5a3f
00000380: 7f95 6c3f 91f9 653f 6c90 663f 6a46 733f
00000390: fb84 3b3f 156a 5f3f 6502 463f f8c9 563f
000003a0: 8cf3 4a3f 56f2 6f3f 6567 573f 274f 723f
000003b0: 1212 453f df83 693f ac37 363f 6ed6 613f
000003c0: a097 683f 5eaa 7a3f dc54 763f f6bc 563f
000003d0: 3867 5c3f d537 753f 8733 4b3f db62 5c3f
000003e0: 129a 723f 37e2 3f3f 33b1 683f f4f7 5f3f
000003f0: 2212 733f 9f3b 6b3f 9480 7f3f 5955 5e3f
0.88506037 0.92263633 0.77289474 0.61468303 0.8711468 0.79520905 0.91849107 0.9655661
0.869274 0.9083193 0.97183764 0.95395213 0.86683977 0.7983742 0.7846019 0.9431115
0.89871675 0.7997495 0.8734198 0.9709557 0.93197304 0.9299762 0.8447895 0.95730346
0.8917866 0.6953534 0.51954246 0.83491826 0.936972 0.8090604 0.909348 0.8051829
0.98784727 0.62286896 0.76908374 0.9494459 0.95392793 0.8813694 0.94256103 0.9716268
0.8464126 0.9574409 0.6151259 0.6008693 0.77040046 0.9267316 0.7580516 0.8715196
0.76355237 0.77173847 0.85944045 0.8681741 0.78333056 0.8634095 0.8934202 0.81494325
0.6013914 0.96026105 0.89996606 0.8672529 0.8927504 0.9610114 0.91498345 0.72708327
0.8370542 0.92707294 0.8810847 0.9766887 0.72976506 0.8782238 0.88927734 0.84956545
0.7846727 0.8001099 0.9108863 0.8536253 0.83933604 0.91059417 0.8140586 0.9422254
0.84786934 0.76459914 0.8693464 0.85510004 0.76595026 0.88948107 0.92860425 0.9327978
0.79015505 0.912267 0.68109256 0.8313053 0.9372829 0.8042855 0.8827172 0.93766373
0.8021375 0.8580667 0.8516296 0.90896857 0.8698724 0.9622834 0.75459254 0.8092717
0.9224034 0.85650575 0.7045308 0.83792067 0.8277169 0.7955512 0.90218425 0.9509031
0.94906366 0.86777866 0.6885579 0.939074 0.8054048 0.9164272 0.9481142 0.7983259
0.9373304 0.92480034 0.89869934 0.85662997 0.83281785 0.9785565 0.9117582 0.89635366
0.78023714 0.84736824 0.9460087 0.75286806 0.7935284 0.800779 0.7608906 0.7961588
0.9643758 0.67674464 0.8933384 0.92687833 0.93367964 0.8875164 0.8246222 0.97102535
0.9228351 0.93309563 0.8953695 0.95718217 0.85944945 0.8749962 0.9080564 0.97017825
0.947706 0.88453543 0.82759136 0.93926436 0.80666316 0.8679213 0.93967617 0.8284847
0.7440537 0.77971 0.76762646 0.94858134 0.8856838 0.91895074 0.9447569 0.9229732
0.8811489 0.81828463 0.75866455 0.8738103 0.9032749 0.8656709 0.6903839 0.8973754
0.82437366 0.9520911 0.75045246 0.6990881 0.96962744 0.9355016 0.63913345 0.6879387
0.88471234 0.91406184 0.92225146 0.81045747 0.89571744 0.94162893 0.71854746 0.9344798
0.92784715 0.99372244 0.85973066 0.8146024 0.93805826 0.92647207 0.8499165 0.72836876
0.90180194 0.9810489 0.89035136 0.93018216 0.5671661 0.7469078 0.7450293 0.90171033
0.944213 0.94173676 0.899048 0.66910183 0.74936026 0.86826897 0.83517665 0.8391248
0.9339034 0.9370063 0.9265163 0.75027883 0.91611105 0.7191357 0.69542986 0.85426414
0.9241561 0.89833933 0.9006412 0.9502932 0.7324979 0.87271243 0.77347404 0.8390193
0.79277873 0.9372915 0.8414214 0.94652027 0.769807 0.91216844 0.711787 0.8821782
0.9085636 0.9791621 0.96223235 0.8388208 0.86095 0.9578832 0.793755 0.8608834
0.9476634 0.7495455 0.90895385 0.8748772 0.94949543 0.9188785 0.9980557 0.8684898

gcn.ln1.bias f4 [256]
00000000: 0460 5ebc 0ab1 15bc 3e9b 9bbc 263b 11bc
00000010: c194 533b aec0 58bb e9c9 d83a 652b 1abc
00000020: dd5e 8ebb 28d7 25bc cc2d b23b 4e64 f7b9
00000030: 18a9 08bc 2726 84bc 9a85 e3bb 13d1 4f3a
00000040: 9d00 b8bb f406 10bc 5e5a 96bb 7409 08bb
00000050: d4dc 1cbc 9e62 1dbc 1e64 69bc c54b 80bb
00000060: af44 3cbc a069 3ebc 647b d9bc dae4 06bc
00000070: c0e2 8fbc b3b2 fbbc ffac 1dbb c527 a7bc
00000080: 59f5 7c3a 89df 18bd 944d 76bc d420 c7bb
00000090: 62f5 3c3b 06a1 22bc 4c20 e93b de1d 3f3b
000000a0: d31c 82bc fee0 34bb cd97 23bc 19e0 90bc
000000b0: 6013 babc b686 43bc f09e 21bb 0686 61bc
000000c0: b6df 05bc a321 d9bb fb47 57bc 97da 94bb
000000d0: b284 03bd 6668 c6b9 cb0f 4dbc 4871 5ebc
000000e0: 57c8 2fbc b54f 04bb 6b0b 71bc e597 bbbc
000000f0: 833a 03bc f3b6 e2ba 9221 2fbb 7933 5abc
00000100: 064b 79bc 0c0b a0bc 2b76 0cbb 881e 3b3b
00000110: 7da7 41bc 8512 1bbc 1b84 cfbc 12cd 80bc
00000120: 9d47 91bc c6db aebc 5dd1 bbbb d56b d2bc
00000130: 1376 d4bb a319 1bbc 13dc 78bc c3a5 e7bb
00000140: 6c14 a0bb 6f81 04bd 2d3d 60bc 68c2 f3bb
00000150: 8fde 29bc 21c3 a7bc 2a28 33bc 5ac6 25bc
00000160: 3db8 30bb 0a8f dbbb df58 97bc c3df 8ebc
00000170: d702 ee3a 90b8 bdbc bee8 bdbb dd7c 95bb
00000180: 186b 59bc 6994 dc3b 0823 86bc e7ff 5abb
00000190: bae0 f4bb ffe4 d3bb c3c7 a3ba 0b5d 32bc
000001a0: 4314 00bc 141a b2bb f98b c7bc d8d0 f5bb
000001b0: cb40 38bc 2998 20bc 7eef 1cb9 9337 29bb
000001c0: 2a78 2fbc 6473 28bc 402a 6ebc fe73 84bb
000001d0: f545 efbc af0a 37b9 38f7 b7bb d18d 143a
000001e0: de78 19bc 165c 55bc 2b1c 3dbb 6675 d7bb
000001f0: 5977 4dbc 3b09 5bbb f9e8 60bb 08b0 0abb
00000200: 3e38 2bbb 8e83 60bc 9dbc 2b39 832b efbc
00000210: 4a7e 40bc e4a5 51bc 4e91 3fbc f3db 42bc
00000220: ec5c 0ebb 4fb3 83bc 981d afbb 5b1d 6a3b
00000230: bc6f 56bb 2c70 443b c466 71bc 9f97 8fbb
00000240: 27e8 33bc 7fef f4b9 2899 edbb 0075 90bb
00000250: 7c6d 52bc 81a6 49bc 8277 45bc 3c19 80bb
00000260: 4f17 03bc 0510 7cbc dee5 85bc 15b8 36bb
00000270: 2f58 babc 6c03 6dbc bcd3 3ebc c947 2abc
00000280: 54a0 1fbc ba07 adbc b1da 1dbc ce0b dfbb
00000290: b8db 7abc 90cf cf3a 61e0 f7bb 0bb0 05bb
000002a0: bede 843a 973e 3abd 6df6 26bc 7295 85bc
000002b0: c876 99ba 515f 67bc 2225 35bc 6e95 e2bb
000002c0: 1139 53bc 0890 e9bb 508e 4fbc 2005 3abc
000002d0: fa2f 2f3a 175c 60bb 62a1 f6bc c30f 6bbc
000002e0: ad9a debc 5015 15bc ab26 15bc 84c4 f4bc
000002f0: b7fb 30bc 0134 833a e204 79bc 8d03 38bb
00000300: 6205 15bc e077 793b a201 b4bb 6bf4 43bc
00000310: 2cf6 aa3a 02a6 87bc 71c9 c8bc be08 7ebc
00000320: f3e7 5abc ddab 12b9 4bf5 85bc 7c48 45bc
00000330: e654 14bd 2854 22bc 1993 ef37 ca41 14bc
00000340: 6f22 07bb 4f03 93bb 1c3b 84bb 72b8 67bc
00000350: 513c 30bb dbe6 7cbc d958 82bc 3c48 dcbc
00000360: 0551 77bb ca1c 36bc 0e09 22ba 5fcb 0bbc
00000370: 1c2c 0fbc f518 7ebc 49c8 8ebc 6e03 78bc
00000380: 38d6 7fbc 558f 2abc c73d 50bc f429 0abc
00000390: 33a8 26bc 9ba2 44bb 5e5b d3bc dc45 47bc
000003a0: 2a5a 38bb 8c78 cebb 6dd4 1fbc d749 10bc
000003b0: 8547 97bc 2cb1 a2bb 79a3 b1bc 85a8 493b
000003c0: e6f5 8fbb 86bf d1ba d3ad f2bb ede8 b1bc
000003d0: 072e 97bc 73e6 f6bb 6d8d 5fbc 1007 41bc
000003e0: c1f7 acbb b629 5ebc cec7 fb3b 4083 a6bb
000003f0: 53ae 10bc 0cae 87bc cf2b 323b 5538 55bc
-0.013572697 -0.009136448 -0.018994924 -0.0088642 0.003228471 -0.003307383 0.0016539666 -0.00940976
-0.0043448047 -0.010122098 0.0054375883 -0.00047186244 -0.008341096 -0.016131474 -0.006943417 0.0007927578
-0.0056153075 -0.00879072 -0.0045884093 -0.0020757588 -0.009574134 -0.009606032 -0.014245061 -0.0039152824
-0.011490985 -0.011621863 -0.026548095 -0.008233273 -0.017564178 -0.030724859 -0.0024059413 -0.020404706
0.0009649597 -0.037322555 -0.0150331445 -0.0060769115 0.0028832783 -0.009926086 0.007114446 0.002916209
-0.015882885 -0.0027599926 -0.009984923 -0.017684983 -0.022714317 -0.011933973 -0.0024661385 -0.013764864
-0.008171013 -0.0066263243 -0.01313972 -0.0045426595 -0.03210897 -0.00037843286 -0.012515972 -0.013576813
-0.010728917 -0.002018911 -0.014712195 -0.022899577 -0.008009556 -0.0017296955 -0.002672289 -0.013317936
-0.015215641 -0.019536518 -0.0021432738 0.0028552134 -0.0118197175 -0.009464865 -0.025331547 -0.015722785
-0.017734343 -0.02134503 -0.005731745 -0.025686184 -0.006483802 -0.0094665615 -0.0151891885 -0.007069321
-0.004885247 -0.03235 -0.01368646 -0.0074389465 -0.0103680035 -0.020478787 -0.010934869 -0.0101180915
-0.0026965283 -0.006700401 -0.018474994 -0.017440682 0.0018158805 -0.023159295 -0.0057955673 -0.004562004
-0.013270162 0.006731559 -0.016374126 -0.003341669 -0.0074730786 -0.0064665074 -0.0012495447 -0.010886441
-0.007817331 -0.0054352377 -0.024358736 -0.0075017028 -0.011245917 -0.009801903 -0.00014966537 -0.0025820478
-0.010709802 -0.0102814175 -0.01453644 -0.0040421477 -0.029208163 -0.0001745622 -0.0056141876 0.0005666884
-0.009367196 -0.013022443 -0.00288559 -0.0065752743 -0.012540662 -0.003342225 -0.003431855 -0.0021162052
-0.0026126052 -0.01370324 0.00016378095 -0.029195553 -0.01174886 -0.012795899 -0.011692358 -0.01189326
-0.0021722866 -0.016076712 -0.005344104 0.0035723064 -0.0032720407 0.0029974086 -0.014733974 -0.0043820883
-0.010980642 -0.00046717745 -0.0072509237 -0.0044084787 -0.012843486 -0.012307764 -0.012052419 -0.003909258
-0.008001163 -0.015384679 -0.01634496 -0.0027880718 -0.022747127 -0.014466148 -0.011647161 -0.0103930915
-0.009742815 -0.021121848 -0.00963466 -0.006806827 -0.015311174 0.0015854705 -0.00756459 -0.002039912
0.0010137183 -0.045469847 -0.010190588 -0.016306613 -0.0011708373 -0.014121846 -0.011056216 -0.006914786
-0.012892024 -0.0071277656 -0.012668207 -0.011353761 0.0006682869 -0.0034234577 -0.03010625 -0.01434702
-0.027173365 -0.00909932 -0.009103457 -0.029878862 -0.010802201 0.0010010005 -0.015198918 -0.0028078288
-0.009095522 0.0038065836 -0.0054933587 -0.011960129 0.0013043336 -0.01655865 -0.024510117 -0.015505014
-0.013360965 -0.00013987669 -0.016352316 -0.012041207 -0.036213778 -0.00990776 2.8559518e-05 -0.009048888
-0.002061989 -0.0044864784 -0.0040353667 -0.014143096 -0.002689142 -0.0154359 -0.015911506 -0.026889913
-0.00377375 -0.011115262 -0.0006181159 -0.008532374 -0.008738544 -0.01550888 -0.017429488 -0.015137536
-0.015615039 -0.01041015 -0.012710041 -0.008432854 -0.010171938 -0.0030004147 -0.025800403 -0.012162652
-0.0028129914 -0.0063009914 -0.009755236 -0.008806667 -0.01846672 -0.004964968 -0.021684395 0.0030770611
-0.004393327 -0.0016002513 -0.0074059754 -0.021717513 -0.018454565 -0.007534796 -0.013644558 -0.011781469
-0.005278558 -0.013559749 0.0076837307 -0.005081564 -0.008830625 -0.016562484 0.0027186756 -0.013013919

gcn.gc2.weight f4 [256, 64]
00000000: e298 77bd ea5d 223d 875c 57bd 38e1 43bd
00000010: f883 d3bd b916 c53d 696e 97bd ef17 a63b
00000020: d2f6 61bd b042 6e3d cdc9 eb3d a23c efbd
00000030: 91b0 d53d df1e 5bbd 1e8b 033d 8641 af3d
00000040: 32c3 24bc 3bfc 94bd 3f54 e0bd 90c9 c23d
00000050: 27cf 4abd ff67 873c 7a68 70bd 6e0b 75ba
00000060: 66f9 c4bd 9c48 3f3c e8ca 1cbc 96af b23d
00000070: 6cc0 b53b 2b59 a5bd 9800 9dbd f6ea 01be
00000080: 0dc2 bdbd 46e6 07be 9760 24bd 7125 c43c
00000090: 4a9c db3d 2fd3 20bd e7a4 66bd e678 ad3a
000000a0: 914a 0b3c 327b 11bc 3398 7d3d cfc2 f73d
000000b0: 9ff8 b13b 676a 82bc d215 a93c 624d bbbc
000000c0: 5d57 65bd e40c bdbc 7250 4abd 725b b63d
000000d0: f654 9c3c 4922 5dbd 4902 a3bd 4d9a bb3d
000000e0: 7788 38bc ae59 923a f3d7 e5bc e510 d93c
000000f0: 64b6 eb3b b8f5 c23d 66f8 b5bc 46bf 8b3d
00000100: 2060 2fbd 2298 b7bd d18f 643d fae2 abbd
00000110: 373b 663d 4067 d6bd f708 9b3c 9245 35bd
00000120: 5d77 523d ba8d 18bc e864 a93c d048 623d
00000130: 646f d13c 7f4b 14bd 7ccd 02be f7ca 5bbd
00000140: 8453 943d 02d0 87bd 826e ddbd 3c2e adbd
00000150: c8af c83d 64df 4b3d 6de2 85bd 4d00 a9bc
00000160: 6d9e f33d 1067 ecbd 245f 56bb 8cce b4bd
00000170: 0b10 cdbd f112 dd3d 2b34 64bc 82c4 9c3c
00000180: 60fa 5ebd 3bd8 c13d f701 5fbd c8bc 2dbd
00000190: 7ea2 8e3c 3f82 3b3d 5c6d 6a39 d34f c5bd
000001a0: 44ea 923d f606 d13c 0b2d efbd b751 913d
000001b0: 7f88 e6bc a8b9 d7bd 4efe 70bd 60f1 7e3d
000001c0: 7975 f0bd d9b9 5cbc f90d b73c 920e c03d
000001d0: 2069 5b3d a383 ad3b 8590 db3d 33e4 42bd
000001e0: 001c 083d a7bc a63c 06d8 08bc 4b6d ecbc
000001f0: 6a1e a23d b2d3 c43c a770 ae3d 8dc4 39bd
00000200: d627 4e3c 3bda c53d 431d edbd 07b9 e73d
00000210: 7175 bcbd 10b8 a83d 27fa 103d 44b6 0dbc
00000220: 1efb d8bd 3a67 1fbb 8b40 5b3d ccc2 533d
00000230: 090f e73d 3f1b 8abd dc91 963d f4db 6e3d
00000240: a4ce 143d 022f 03bd 79f3 863d 1132 c6bc
00000250: 6366 cebd 6b9e 5f3c 2e24 4a3d 44ef a03c
00000260: 8d58 dabd d71a c7bd 3f10 393d 3cb8 643d
00000270: 94f6 14bd 1950 51bd e875 50bd cf01 1b3d
00000280: 4e06 b839 a057 963d 2f1d 03bd 74f3 65bd
00000290: 1d68 6d3d db7c b0bd 1b8e e43d 3117 02bd
000002a0: 9ab0 8cbd b2e8 efbc bb6f f8bd 58b2 0e3c
000002b0: 342e 61bc e40c e03d de75 ffbd 2535 683c
000002c0: e869 923d 0cb6 19bd ca08 b0bd 7be2 003d
000002d0: 83ef c5bd dd4e 8d3b fe05 fb3c 7d7a e53b
000002e0: 1234 80bd 3e48 d0bd bcfc 793d 4c91 f63c
000002f0: 158f 4dbd 263a b7bd 7ab7 c63b 962b d9bd
00000300: a0f1 9abd ec7f 30bd a34d 163d d3e1 5ebd
00000310: 7e43 9c3d fb38 47bd b3a8 a73d 5e05 3ebd
00000320: 4623 91bb bd16 b7bc e7d6 603d e321 c0bd
00000330: a247 8dbd 630f 963d fca4 cdbd 7a43 943d
00000340: 806f 583d f8ba 2c3c 789b a3bd f214 acbd
00000350: 9279 b53c 62d8 b43c 35a6 143d 851c 56bb
00000360: 11c2 4abd 0c91 abbd d714 c83d 2cee d03d
00000370: 763e a0bc 22f1 22bc 17ea bdbc 7542 e1bc
00000380: c0bb e4bd ba8f 56bd 6469 8cbd 205f 183d
00000390: b8aa bb3b 68d1 6ebd 4aaa 843b 82d3 e3bd
000003a0: c07d 5d3d da60 e53c 56f3 91bd dafd aa3a
000003b0: ba3a 6e3d 20f6 a9bd 34a5 123d 8ef7 cd3d
000003c0: a492 47bd 0848 4c3d 39d7 513d f002 b23d
000003d0: 9fdd 943d ee15 5bbd c476 c3bc 44a0 c13d
000003e0: ac23 86bc fa47 c93d 6128 46bd 6dc4 c43d
000003f0: 4833 633d ae22 183c 4b36 2fbd 56e3 d83d
-0.060448535 0.039640345 -0.052578475 -0.047822207 -0.103279054 0.09623475 -0.07394106 0.005068771
-0.055167027 0.058169067 0.115131 -0.11681487 0.10434068 -0.053496238 0.032115094 0.085574195
-0.010056304 -0.07274672 -0.10953569 0.09511101 -0.049513962 0.016529081 -0.058693387 -0.00093477115
-0.096178815 0.011675026 -0.009569861 0.087248966 0.00554662 -0.08073648 -0.07666129 -0.12687287
-0.09265528 -0.13271436 -0.040131178 0.023943635 0.10723169 -0.0392639 -0.056309607 0.0013234883
0.008501665 -0.00887947 0.061912727 0.12097704 0.0054312493 -0.015919877 0.020640288 -0.022864047
-0.05599152 -0.023077436 -0.049393125 0.089041606 0.019083481 -0.053987775 -0.0795942 0.0916029
-0.0112630045 0.0011165643 -0.028057074 0.026497314 0.0071933735 0.095195234 -0.022213172 0.06823592
-0.04281628 -0.08964564 0.055801217 -0.08392902 0.056208815 -0.10468912 0.018925173 -0.0442558
0.051383365 -0.009311134 0.020677999 0.05524522 0.02556581 -0.03620481 -0.12773699 -0.05366036
0.07242492 -0.06631471 -0.10812093 -0.08456084 0.097991526 0.04977359 -0.06537328 -0.020630026
0.11895452 -0.11543095 -0.0032710517 -0.08828458 -0.100128256 0.107946284 -0.013928453 0.019136671
-0.054437995 0.09465071 -0.054445233 -0.042416364 0.017411467 0.04577851 0.00022356719 -0.09634366
0.07173589 0.025516015 -0.11678513 0.07095664 -0.028141258 -0.10533458 -0.058836274 0.062241912
-0.11741156 -0.013472044 0.02234553 0.09377779 0.053567052 0.0052952333 0.10720924 -0.04758091
0.033229828 0.020353628 -0.008352285 -0.028860709 0.07915957 0.024026725 0.085175805 -0.04535346
0.01258274 0.09660765 -0.11577847 0.11314588 -0.09202088 0.08238232 0.035394814 -0.008649413
-0.10594772 -0.0024323002 0.05352835 0.051699445 0.112821646 -0.06743478 0.07352039 0.058315232
0.03632988 -0.032027252 0.065894075 -0.024193795 -0.100781225 0.01364861 0.04935091 0.01964534
-0.10661421 -0.09721916 0.04518151 0.055839762 -0.036367968 -0.051101778 -0.050893694 0.03784352
0.00035099912 0.07340932 -0.032010254 -0.056140378 0.05796062 -0.08617564 0.11159917 -0.0317604
-0.068696216 -0.029285762 -0.12130686 0.008709513 -0.013743926 0.10939959 -0.12473653 0.014172827
0.07149106 -0.03752713 -0.085954264 0.03146599 -0.09664824 0.0043123798 0.030642506 0.007003127
-0.062599316 -0.10170029 0.061032042 0.03009858 -0.05018528 -0.08946638 0.0060643526 -0.106040165
-0.075656176 -0.043090746 0.036695134 -0.05441458 0.076300606 -0.048638325 0.08186474 -0.046391837
-0.0044292537 -0.02234971 0.054892447 -0.093814634 -0.068984285 0.073271535 -0.10041234 0.07239433
0.05284071 0.010542624 -0.07988638 -0.084024325 0.022152696 0.022075836 0.03629132 -0.0032670808
-0.049501482 -0.08377275 0.097696 0.10201678 -0.019561034 -0.009945186 -0.023182912 -0.02749751
-0.11168623 -0.052383162 -0.06856039 0.037200093 0.0057271384 -0.058305174 0.0040486204 -0.11124326
0.054075003 0.028000284 -0.07126491 0.0013045624 0.058161475 -0.08298898 0.03580208 0.10056983
-0.04872383 0.04987338 0.051230643 0.086919665 0.07268833 -0.05348771 -0.023860343 0.09454396
-0.016374432 0.098281816 -0.048378352 0.09607778 0.055468827 0.009285612 -0.042776387 0.10590236

gcn.gc2.bias f4 [64]
00000000: 4230 d6bc e199 393d a1c4 1abd fcea 01bd
00000010: 93bc c33d 8d98 d13d 8935 bb3d e604 3b3d
00000020: b14b 92bd 8b12 57bc b4ab d7bc f272 c53d
00000030: da63 44bd f906 773c 3f44 9abd 908b 803d
00000040: 99d7 1abd e4ad cd3d afe2 08bd 35d0 b1bc
00000050: ceb8 2abd ea29 cebc 3ee1 58bd 5872 923d
00000060: 3cf3 9b3d 3a75 9d3d 03fc 74bd 9cfd bc3d
00000070: 8914 d63d db53 dc3d 0d36 89bb 37e7 a83d
00000080: 5f8c 093d 65f3 a43c 0bcd c8bd 6a1e 673d
00000090: c62a 8a3d c9ff b0bd 451c 8d3d 252f 273d
000000a0: 2315 953d c09c 7bbd 9aa9 043d a711 c33d
000000b0: e670 cfbd 22d5 feba e80e 0d3b 1b8f dbbd
000000c0: 3eeb efbd d1c7 f7bc e003 e03d 17e3 5c3d
000000d0: fb79 95bd a92d be3d 871f 193d ed51 473c
000000e0: 8310 a03d 7c1c c7bc 88cd da3d 196d af3d
000000f0: fae5 d5bd 7d8d bcbc f1b7 a3bd 9045 d3bc
-0.026146058 0.045312766 -0.037785176 -0.03171824 0.09557452 0.10234175 0.091410704 0.04565897
-0.07143343 -0.01312698 -0.026326992 0.09641065 -0.04794679 0.015077346 -0.07532548 0.062766194
-0.037803266 0.10042933 -0.033419307 -0.021705726 -0.04168015 -0.02516647 -0.052949183 0.071507156
0.07614753 0.07688375 -0.05981065 0.0922806 0.104531355 0.10758182 -0.0041873516 0.08247226
0.033581134 0.02013559 -0.09804734 0.05642549 0.0674644 -0.08642537 0.068901576 0.040816445
0.07279422 -0.061428785 0.032388307 0.09524851 -0.101289555 -0.0019442181 0.0021523777 -0.107206546
-0.11714791 -0.030246647 0.10938239 0.053927507 -0.072986566 0.09286053 0.037383582 0.012165529
0.07815649 -0.024305575 0.10683733 0.085657306 -0.10444255 -0.023016686 -0.079940684 -0.025790006

gcn.ln2.weight f4 [64]
00000000: 499c 823f 19b9 843f dfbb 7a3f c512 6b3f
00000010: 2dbe 803f 9d45 643f 5ba3 663f 7369 523f
00000020: d15f 823f 6eff 213f 3aac 653f 35b6 803f
00000030: fda6 813f 4d2e 653f 0f3d 7e3f 63aa 693f
00000040: f390 6e3f 6aa9 103f 16e7 803f 64c8 7b3f
00000050: 4eda 7d3f cf0c 7d3f 703c 363f cd81 163e
00000060: 264a 683f 63ac 703f cb33 813f a86c 7e3f
00000070: 51f3 7f3f 6de6 813f b44a 503f 31bd 7d3f
00000080: 7e04 7e3f 5a29 7e3f fde6 4f3f 6448 613f
00000090: 48ec 5e3f 39d8 7c3f b2da 783f 76be 803f
000000a0: 2b8e 413f 0cb4 153f 4035 843f 262d 833f
000000b0: 9925 823f 6996 7b3f 8c43 733f ec48 843f
000000c0: 0bc6 753f 449f 6c3f ceaf 803f cd0a 513f
000000d0: 8101 673f 48f4 563f 6a71 713f b59a 793f
000000e0: 22fe 663f 0dde 6e3f 0214 473f b3e6 7b3f
000000f0: 11b9 803f b8b5 293f 79bd 223f 5d98 783f
1.0203944 1.0368987 0.9794292 0.91825515 1.0058037 0.8916872 0.9009301 0.8219215
1.0185491 0.6328038 0.8971592 1.0055605 1.0129086 0.89523774 0.9931192 0.91275615
0.93189925 0.56508505 1.0070522 0.98352647 0.9916123 0.9884767 0.7118597 0.14697953
0.9073814 0.9401304 1.0093931 0.99384546 0.99980646 1.0148445 0.8136399 0.9911681
0.99225605 0.9928185 0.81211835 0.88001084 0.87079287 0.9876743 0.972087 1.0058124
0.75607556 0.58477855 1.0328751 1.0248153 1.0167724 0.9827638 0.95024943 1.0334754
0.96005315 0.9243052 1.0053651 0.81657106 0.9023667 0.83966494 0.9431368 0.9750169
0.90231526 0.9330757 0.77764904 0.98398894 1.0056478 0.66292906 0.6357036 0.9710749

gcn.ln2.bias f4 [64]
00000000: bad4 813c a9ed 433c 538a 6b3c c4e4 dd3b
00000010: 6f99 3f3c 35df f53b 7749 253c faa1 0b3c
00000020: d47e 283c bf4a febb 32af 383c 4241 113c
00000030: 7def 653c 4769 a43b 06f5 593c fdb4 5f3b
00000040: 5f82 723c 2d26 01bc d435 bf3b 26b4 383c
00000050: 93b1 0c3c eb5b 0a3c c596 823c 7f73 2e3c
00000060: 449f 703b d354 ed3b f7e7 263c efa9 2c3c
00000070: 131e 193c 65b0 503c 7f66 06bb b84f 043c
00000080: 53a6 e93b 2adf 2b3b 43cd 62bc 82ad 803c
00000090: a4f0 a0bb a61d 0c3c dd61 8f3c e495 593c
000000a0: 4cdc ae3b 3931 fdba 1568 9c3c 99ea 663c
000000b0: 0c88 323c 9144 f83b ce8c c83b f510 4c3c
000000c0: 0d0b 703c baf6 dc3b 6da7 6d3c 92cd fd3a
000000d0: 5f7c a43b 733c b63b 3ec2 20bb ff21 4e3c
000000e0: 183d 203c 313d ca3b 5673 093c 5499 233c
000000f0: 174e 303c 2c50 fdbb d3bf 8abc 9182 a43b
0.015848506 0.011958518 0.014376241 0.0067716558 0.011694296 0.007503415 0.010088316 0.008522505
0.010284144 -0.0077603753 0.011272239 0.008865656 0.014034149 0.005017433 0.013303047 0.0034134977
0.014801591 -0.007882637 0.0058352742 0.0112734195 0.008587259 0.0084447665 0.015941033 0.010647654
0.0036716023 0.007242778 0.010187141 0.010538562 0.009345549 0.012737368 -0.002050787 0.008075647
0.007130423 0.0026225545 -0.0138428835 0.015707735 -0.004911499 0.008551991 0.01750272 0.013280366
0.00533632 -0.0019317038 0.019092599 0.014094018 0.010896694 0.007576533 0.006120301 0.012455215
0.014651072 0.0067432793 0.014505249 0.0019363633 0.005019709 0.0055614053 -0.002452984 0.0125813475
0.009780191 0.0061718454 0.008389315 0.009985287 0.010760806 -0.0077305045 -0.016937172 0.0050204475

attention.fc1.weight f4 [16, 64]
00000000: 8274 2b3b 63f3 17bd a635 14be b0a9 58bd
00000010: f1b0 ef3d cdd7 52bd 9cdd b13c 91a6 c6bd
00000020: dceb e3bc 8a68 d43c 88d5 fc3c 58d3 6f3d
00000030: 34b0 4a3d f058 85bd 7b88 5dbd 4bbc 46bd
00000040: ff80 71bd d7ef 3bbd 7154 623d a8e6 2f3d
00000050: 4685 01be 835f e13d 17ce 39bd f68c 72bc
00000060: 120d 94bc c82e 4d3d 5f3a f8bc af24 d23d
00000070: 7da8 80bd f7c1 16bd 6071 f33c 4408 773c
00000080: 513c 81bd c4f8 a63d 1ecf 973d 2581 d3bc
00000090: 86d7 71bd ce35 293d 688b a1bc 1d85 a23d
000000a0: 2759 91ba d280 e33c 9ea9 a7bc 72e9 c8bc
000000b0: e86a 1b3c fb62 393d a87a 57bd 2133 a83d
000000c0: 4e67 17bd 4ecc 173d a9c2 9e3d 8ee4 1fbd
000000d0: 1838 01be 2910 273c 494c b53d 9d7d a3bd
000000e0: 728b 1fbd 4d34 7cbd 78d3 e8bb 0e6d 5abd
000000f0: c0f3 55bd 58b4 8b39 f741 be3c 7c07 bc3c
00000100: 7fd8 103c d7d3 0bbe bc6f 94bd aab8 743d
00000110: b6e5 0cbe 3a85 023d a334 f1bc 6840 883a
00000120: 23ff e43c e997 a83d e5b1 b8bd 1d7d a7bd
00000130: c042 353c d780 253d 1249 c73d 8147 4abc
00000140: 6e4d fc3d d2f2 2cbd 5475 32bd 4c16 0fbd
00000150: afec 203c ba78 cd3b 3411 0dbd 7dea 05bd
00000160: fa5d 383d 8f34 3c3d 804d 5fbd 408e 69bd
00000170: d1d9 8e3d 572b 423c 6946 fabd 1482 6dbd
00000180: eecc b33d 7274 37bd baef 1abd f181 0f3e
00000190: 7195 13bd 9039 24bd 8611 01bc 54fc 3c3d
000001a0: 9b74 543c a682 9abd 086f 11bd d505 153d
000001b0: 79cd d03d ce21 a4bc 2291 963c 5ff7 083c
000001c0: f235 c7bd 5528 ecbb 5b0b 54bd cae2 123d
000001d0: cbb6 c03c 18e2 8bbd 5036 893d 2d78 b53d
000001e0: fccc b6bd eca8 46bd acb2 d93c 3b9c 7c3b
000001f0: bf4d f13d ba11 34bd 53f4 a6bd f5f3 a43d
00000200: 6c8a fc3d c184 ebbd cefe fa3c 1aba bd3b
00000210: 16ac 43bc ab55 0dbd 138b c1bd eae6 6f3a
00000220: 4f5b 8fbc e4ee 2bbd 1239 16bd 88b5 03be
00000230: 479a 1fbd c058 eb3a d338 3abd 591e 213d
00000240: 9541 a83c 75a5 a7bb 5f9d 94bd c243 773d
00000250: 8060 a03d 8c9c ba3d 9525 dd3d e595 b23b
00000260: a083 bc3b c006 aa3d acc7 9abd f446 963d
00000270: 511f 8ebc 1c3c a9bd d451 a5bd cfd7 7dbd
00000280: dcd0 173e 82e6 47b8 1cd1 a5bd 1365 2c3d
00000290: 2fb9 b63c 54ce 1bbc 4121 be3d 7932 443d
000002a0: e836 9fbc 58bc 213d 4417 ce3d 40f3 e53d
000002b0: eb66 81bd d93c d5bc b647 b23d 10c8 973d
000002c0: 8d6c b2bd 5f3a 39bd 1d92 c3bc 06a9 a23c
000002d0: 062a 603d 763c 643d 4111 873d 6b1b 99bc
000002e0: 7555 513d e089 0dbd 47aa 903d e653 873d
000002f0: de1f 3e3d 74c8 a4bc 1b64 1b3a 5a5e 2b3c
00000300: 6ff6 f1bc 0f30 96bd a0ee ec3c 71cd eb3d
00000310: 6a86 1ebe 7474 803d 42de c5bd 487a 7a3c
00000320: 90a8 a0bd d59b d93c 1ac2 92bd f772 d03c
00000330: fc76 20bd 9a11 9fbc 44c8 dd3d daf5 493d
00000340: 6d99 0d3e 1005 9abd a3d8 97bd bf31 753d
00000350: dbb5 473d c9cd 883d e899 3c3d 33c2 3b3d
00000360: 2aca a8bc 8321 e93d e53f ffbc cd7e af3d
00000370: 5a40 e6bd c80b d2bd 96be 0dbe ac00 e4bc
00000380: 5909 af3d 8de5 33bd f91e c3bd 85bf 75bd
00000390: 58f5 063e e906 243d deee b23c a14f bf3c
000003a0: 2c4d b8bc ff94 a1bd cb43 093d 0d56 dc3d
000003b0: 2e0e cbbd d823 30bd 9ed6 c23a ef5a aebc
000003c0: 2597 02be 97ad 2ebd 9f00 463d 4e43 4e3d
000003d0: 0eee 0b3d 75d7 a83d 8f08 81bd 148b e63d
000003e0: 6f0e 6b3d 7e66 fb3d 7a6c 773d 24f3 b4bd
000003f0: 7bf0 353d 479d 573d c0d4 653d 7983 90bd
0.0026161973 -0.037097346 -0.1447359 -0.0528962 0.11703671 -0.051475335 0.021712117 -0.09699739
-0.027822427 0.025928754 0.030863538 0.058551162 0.049484447 -0.06511104 -0.054085236 -0.048519414
-0.05896091 -0.045883026 0.05525631 0.04294458 -0.12648496 0.110045455 -0.04536256 -0.0148041155
-0.018072639 0.050093442 -0.030301271 0.10260903 -0.062821366 -0.036806073 0.029717147 0.015077654
-0.063103326 0.08152917 0.07412551 -0.025818417 -0.05904343 0.041311078 -0.019719794 0.079355456
-0.0011089192 0.027771387 -0.020466622 -0.024525378 0.009485938 0.04526041 -0.05260721 0.08212877
-0.036963753 0.037060075 0.07751972 -0.039036326 -0.12619054 0.010196724 0.08852441 -0.07982943
-0.038951345 -0.061573315 -0.007105287 -0.05332666 -0.05223441 0.00026646513 0.023224814 0.022952788
0.008840679 -0.13655029 -0.07247874 0.059746422 -0.13759503 0.031865336 -0.029444044 0.0010395171
0.02795369 0.082320996 -0.09018306 -0.0817816 0.011063278 0.040406074 0.09730734 -0.012346149
0.12319456 -0.04222376 -0.043568924 -0.034933373 0.009822055 0.0062704952 -0.034440234 -0.03269433
0.045011498 0.04594856 -0.05451727 -0.057020426 0.06975139 0.011851153 -0.12220461 -0.05798538
0.087793216 -0.044788785 -0.037826277 0.14014412 -0.03603119 -0.04009396 -0.007877713 0.046139076
0.012967254 -0.075444505 -0.03550628 0.036382515 0.10195441 -0.02003565 0.018379752 0.008359759
-0.09727086 -0.0072069564 -0.051768642 0.035860814 0.023524662 -0.06830233 0.066998124 0.08860812
-0.089258164 -0.04850094 0.026574455 0.003854527 0.11782407 -0.043962218 -0.0815207 0.080543436
0.123310894 -0.1149993 0.030639078 0.0057900073 -0.011942884 -0.034505527 -0.094503544 0.00091515353
-0.017499594 -0.04197587 -0.03667552 -0.12862217 -0.03896549 0.0017955527 -0.045464348 0.039335582
0.020539084 -0.0051161596 -0.07256579 0.060367353 0.07830906 0.0911189 0.10798184 0.0054499977
0.0057529956 0.08302069 -0.07557616 0.07337752 -0.017348917 -0.08263418 -0.08072248 -0.06197339
0.14825767 -4.7659974e-05 -0.08096525 0.04208858 0.0223051 -0.009509642 0.092836864 0.047899697
-0.019435361 0.03948626 0.10063031 0.11228037 -0.06318458 -0.026029991 0.08705084 0.07411206
-0.08712111 -0.045221683 -0.023873383 0.019855987 0.054727577 0.055721723 0.06595088 -0.018689832
0.05110689 -0.034555316 0.07063728 0.06607799 0.04641711 -0.020115115 0.00059276976 0.010459507
-0.029536454 -0.07333385 0.028922379 0.11513794 -0.15480962 0.06272212 -0.09661533 0.015287943
-0.07844651 0.026563564 -0.07165928 0.025445445 -0.039175972 -0.019417573 0.10829213 0.049306728
0.13828059 -0.07520497 -0.07414367 0.059861895 0.048757415 0.066798754 0.046045214 0.0458395
-0.020604212 0.11383345 -0.031158397 0.08569107 -0.11242743 -0.10256153 -0.13842234 -0.027832352
0.08546705 -0.04392009 -0.09527392 -0.0599971 0.13179529 0.040045653 0.021842416 0.0233534
-0.022497736 -0.07889747 0.033511918 0.107586004 -0.09914814 -0.043002933 0.0014864986 -0.021283595
-0.1275297 -0.042646017 0.048340436 0.050357156 0.034162574 0.0824422 -0.063004605 0.11256996
0.05738681 0.12275408 0.060406186 -0.08835438 0.044418793 0.052640226 0.056111097 -0.070563264

attention.fc1.bias f4 [16]
00000000: 6628 1bbd e6d3 cd3c 6571 a53c 8792 533d
00000010: 4caf 1e3e 89b8 333d 17bb 41bd e73d 4a3d
00000020: 99a8 6bbd 05ee c9bd ead7 b63a 5185 603c
00000030: 8cca 19bd 3eb6 c73d 74a5 c8bc d9e8 843d
-0.037880324 0.025125455 0.020195672 0.05165341 0.15496558 0.04387716 -0.047297563 0.04937544
-0.057533834 -0.09859852 0.0013949845 0.01370366 -0.03754668 0.09751557 -0.024492957 0.06489725

attention.fc2.weight f4 [4, 16]
00000000: 2890 783d 93c0 0cbe 2933 6bbd ebc5 79be
00000010: 9385 f63d 474b a83d e236 a93e 0ded 9dbd
00000020: 6f67 163e ee6e 3cbe 2f1a 11be 9c0f 3cbe
00000030: 7e1a fabd 9585 5ebd e23a 7abd 2d84 773e
00000040: 69a9 263e 7c36 3a3e 947b f5bd 0a97 64be
00000050: cd7a 803e f73e 8c3a 3e4e 8e3e 28d7 7fbd
00000060: daeb 51be d6a8 9bbe 9ca1 94bd 290e 4e3d
00000070: 5cd4 593e 259e 1f3d 4663 a63b 6fde 483e
00000080: a357 4b3e 50f8 33be 84a5 ec3c 099e 43bd
00000090: 2d06 8b3e 2119 873e bb99 45bc bbfa 08be
000000a0: 9cda 5fbe afe6 09be ffa2 9abe ab23 0cbe
000000b0: c400 1f3d 643b 25bc 37e6 7ebe c597 b4bd
000000c0: b2ab 08be 141d 5cbe 6700 b5bd 5933 b0bd
000000d0: 6c35 a6bd 3cc5 7cbd 5bdb a93e c749 aebd
000000e0: 311c 02be 29e6 9dbe 6fb5 61be 6a0d 6fbe
000000f0: adbb e73b 9609 1bbe adfd ebbc 2966 883e
0.060684353 -0.13745336 -0.057421837 -0.24391906 0.12037196 0.08217483 0.33049685 -0.077112295
0.14687894 -0.18401691 -0.14170144 -0.1836533 -0.12212084 -0.054326613 -0.06109131 0.24171515
0.16275562 0.18184847 -0.11986461 -0.22323242 0.2509369 0.0010699917 0.2779407 -0.06246105
-0.20500126 -0.3040225 -0.07257387 0.050306473 0.21272415 0.038969178 0.0050777523 0.19616102
0.1985765 -0.17575192 0.028887518 -0.047758136 0.2715315 0.2638636 -0.012060578 -0.13376896
-0.21860737 -0.13466905 -0.3020248 -0.13685481 0.03881909 -0.010084961 -0.24892507 -0.0881801
-0.13346747 -0.21495467 -0.08837967 -0.08603544 -0.08115658 -0.061711535 0.33175167 -0.08510166
-0.12706067 -0.3083966 -0.22041868 -0.23344961 0.0070719332 -0.15140375 -0.028807485 0.26640442

attention.fc2.bias f4 [4]
00000000: 752b a1b6 32e7 b335 6073 b6b6 4ee5 8735
-4.803233e-06 1.3403826e-06 -5.437454e-06 1.012502e-06

fc_final.weight f4 [1, 64]
00000000: fda3 093e 9293 2d3e ede4 b6bd 95e3 bf3d
00000010: 3b5f 0bbd 463f 873d 572f c53d 15a7 6e3d
00000020: 4b45 303e 1f8e 7b3c 9790 933d 9524 09be
00000030: 24f9 083e bc8b 273d c313 d6bd f048 ac3d
00000040: c0d1 a13d 9edf fbbc 87a1 06be 1da6 d03d
00000050: 5eb6 ebbd 2978 d4bd 3104 0fbd e09b e5bb
00000060: 983b a03d 32ac 953d 91f6 f43d 7d34 c83d
00000070: 3b76 f03d 25b3 153e 6483 6fbd 2a4d f4bd
00000080: e489 253d a51f bdbd 9bd3 1cbd a23c 06bd
00000090: af4c 28bd 6c3b 003e 5ea9 073e b06f 083e
000000a0: a3a2 f13c fe0a d43c 7506 03be 654c f6bd
000000b0: 7a5d 1f3e 2197 0fbe 832a c9bd 9416 31be
000000c0: 4b1a a0bd f83c 963d 2f0c ef3d 3ed1 a23c
000000d0: c312 db3a 1457 b0bc 9830 e0bc be9b 753d
000000e0: 4741 f53c acf2 97bd cacf 1d3d fe9c bebd
000000f0: 9d67 edbd 2a7c 2c3d f325 b33a 82e1 a3bd
0.13441463 0.16950825 -0.08930383 0.0936958 -0.034026366 0.06603865 0.0962817 0.05826481
0.17213933 0.0153537085 0.07205313 -0.13392861 0.1337629 0.040904745 -0.10452988 0.08412349
0.07901335 -0.030746277 -0.13147555 0.101879336 -0.11509393 -0.10374481 -0.034916107 -0.007007107
0.078238666 0.07308234 0.11961091 0.09775636 0.11741301 0.1461912 -0.058474913 -0.119287804
0.040414706 -0.09234551 -0.03828774 -0.032772668 -0.041088756 0.12522668 0.13248202 0.13323855
0.029496497 0.025884148 -0.12795432 -0.1202629 0.15563002 -0.14022495 -0.098225616 -0.17293769
-0.07817515 0.073358476 0.11672246 0.019875165 0.0016713965 -0.021525897 -0.027366921 0.05996298
0.029938353 -0.07419333 0.03852824 -0.09307288 -0.11592028 0.0421106 0.0013667926 -0.080019966
