Predict_workflow/Model/Fold4_best_model.pkl (torch_old, 172687 bytes, 13 tensors)

gcn.gc1.weight f4 [94, 256]
00000000: 331d 343d 0c2b 803b 3cb5 0fbd df87 9abc
00000010: 6f0c f03b aa38 68bc 04a6 1ebd 4fcd 463d
00000020: 670f 5abb dac5 433d 0956 0cbd c416 cb3b
00000030: bc0c f93b 7899 a3bb b4a7 4ebc 6453 8b3d
00000040: 0e36 853c 8038 b43c 2625 3dbd 0b89 f13b
00000050: 4130 2c3d dfe0 bd3c c865 fb3b fb97 c73c
00000060: 76f1 3bbd 3f65 5bbc 6449 4d3d f68c 9e3c
00000070: 75d7 b83c 587c 613d 254f 0fbd c144 42bd
00000080: 499a 013d dff9 febc 0e8d 88bc 7e83 1f3c
00000090: 4ab6 9bbc 2850 143d c560 583c f164 e03c
000000a0: d3db 29bd ea84 1fbc 4466 39bd 9209 00bd
000000b0: c7dc cf3c c7b9 933c 7dc6 f2bc 2382 dfbc
000000c0: 786a 373d 87de 37bd 583d 00bd 80c6 12bd
000000d0: 6941 04bc 6790 613c f6c7 cd3c a088 6b3c
000000e0: 8279 d4bc 1209 043d 28b2 0bbd 42af 473d
000000f0: d557 06bc d737 02bd c28d 76bd 6c83 fcbc
00000100: 8e87 243d 2bb1 a7bd 4af4 3cbd 5e67 09bd
00000110: 2b71 70bd b4de 8eba db2a efbc a9b7 893d
00000120: 3d6a a0bc 7a44 313d 338f 05bb fc7e 793b
00000130: 81ba 4d3d 58bf 3e3b 396b 473d 62a6 cc3c
00000140: 3b98 e5bc ab22 7bbc 60fc 0b3d 00b1 b0bb
00000150: 7d36 533b 8aa6 13bd c17b 30bc 7f13 21bd
00000160: 6f78 c5bc e606 763a 9580 fe38 3c58 3f3c
00000170: 6704 f4bc ee23 36bd 16c4 0dbd 8659 4a3c
00000180: 3ffb 443d d83d 433d 8926 813d 76f1 04bc
00000190: ded2 5f3d e6b0 363d 7eae 233c f16d 6c3d
000001a0: 14f2 ffbb 5f1c 8ebc d56c 023d 958b c23c
000001b0: d434 0cbd ee53 283c a82e 9abc 00c7 44bd
000001c0: 69e0 e53b 1e74 22bd d3c8 20bc 92d6 1bbd
000001d0: 7e0c 283b e150 03bd 2629 c23c 1d63 dc3b
000001e0: 7a24 ff3c 6667 6abd 7362 ecbc 2084 c33c
000001f0: 4468 02bc dc99 bb3c 9422 66bd 3383 84bc
00000200: 5b2b 54bc d50b 1c3d 9537 823d f876 cbb9
00000210: 3007 3e3d 446c 383d 97c8 6fbd 68b9 babb
00000220: cbee 913d d1f4 d93c c318 85bc 7ba0 2dbd
00000230: 22fa 273c 249e 12bc da63 2d3d 4fd5 853c
00000240: 9045 373c 305f b63b 95e8 59bc 31b5 3e3c
00000250: c53d 58bd af55 603d e661 9c3d 3268 1d3d
00000260: 2684 4bbd e2de 25bc f154 c13c cd67 6abc
00000270: ad01 1cbd 2a69 c3bc 64e2 1c3d 6f17 4abd
00000280: 0022 a93c 4c7e 38bd 4adb 5c3c f77d 283d
00000290: 4f1d 083d 7a64 60bc b623 d93c 9bd1 473b
000002a0: a294 cfbc a76c 0f3d 5e75 2d3d f776 803c
000002b0: 838d 8dbc c19f f2bc e59b dbbb d982 143d
000002c0: 1c5b a93c d8bf 553c f041 4e3d 280c 48bd
000002d0: 1399 7a3d 8f7f d6bc 499a ddbc 6a2e 253d
000002e0: 881f 3fbd ccfd 643d 242d 3d3c c46a 203d
000002f0: 2c57 d3bc bf95 62bd dcda b3bb 7ee6 a4bd
00000300: d6db 37bd f2e1 273d 9a66 2b3b 0bb7 553d
00000310: 3b4b 653d 97e0 adbc 9ec1 0cbd ec2d d23c
00000320: 90af bfbc d2af 3b3c 32ed 1fbc 3c7f 3ebd
00000330: cc1c 40bc 4306 2fbd 9d67 13bc 5f79 75bd
00000340: 8c2e c13c f51a 7abc bf8f 2e3d c7c0 c7bb
00000350: 34d2 99bd 7b00 543d c4bf 643c da52 2dbd
00000360: 4db4 c0bc f9a3 fdbc 1c59 8ebc e42e 643d
00000370: 90a1 febc d416 3b3d 1481 65bd c3a4 21bd
00000380: 7800 41bc d524 0e3d a745 c43c 2aeb 03bd
00000390: 73f9 4cbd 7d6f a0bc 3663 12bd 5d59 3a3d
000003a0: 4e0d dbbb 0020 283d 3df0 27bc 24d2 67bd
000003b0: 5524 553c 9046 9d3d 77a2 053d 85cb 383d
000003c0: 1509 2cbd e86c 683d 5940 20bd 0899 873c
000003d0: 3463 6b3d b962 113d c60a 6cbd d5e2 86bd
000003e0: a729 e53c a9ba 6d3d 7f5f 743b 20e0 3b3d
000003f0: 848c c4bc b2f7 113c fda7 ea3c cf8b 63bd
0.04397316 0.0039113816 -0.035084948 -0.018863617 0.007325701 -0.014173666 -0.038732544 0.04853564
-0.003327334 0.047796108 -0.034261737 0.0061977822 0.007600395 -0.00499266 -0.012613226 0.06803015
0.016261127 0.021999598 -0.046178006 0.007371073 0.042038206 0.023178516 0.0076720454 0.024364462
-0.045884572 -0.013390838 0.05011882 0.019354325 0.022563675 0.055050224 -0.034987587 -0.04742885
0.03164128 -0.031125007 -0.016668823 0.00973594 -0.01900782 0.036209255 0.013206665 0.027391883
-0.041469406 -0.009736279 -0.045263544 -0.031259127 0.02537383 0.018032921 -0.029635662 -0.027283734
0.04477927 -0.044889953 -0.031308502 -0.035833836 -0.008072236 0.013767338 0.025119763 0.014375836
-0.025936846 0.032235213 -0.03410545 0.048751123 -0.008199652 -0.031791534 -0.060193785 -0.030824386
0.040168338 -0.08188089 -0.04613141 -0.033545844 -0.058701675 -0.0010900111 -0.02919524 0.067244835
-0.019581908 0.043278195 -0.0020379543 0.0038070073 0.050226692 0.002910575 0.04868624 0.024981681
-0.02802669 -0.01532809 0.03417623 -0.005392194 0.0032228522 -0.036047496 -0.010771693 -0.039325234
-0.024105279 0.0009385183 0.00012135614 0.011678752 -0.029787255 -0.04446786 -0.03461083 0.012350446
0.04809117 0.0476664 0.06306178 -0.008114209 0.054644458 0.044602297 0.009990333 0.057722036
-0.0078108404 -0.017347513 0.03184207 0.023748199 -0.03423007 0.010273917 -0.018821076 -0.048041344
0.007015277 -0.03966152 -0.009813505 -0.038046427 0.0025642212 -0.032059554 0.023701262 0.0067256824
0.031145323 -0.057227515 -0.028855538 0.023866713 -0.007959429 0.022900514 -0.05618532 -0.016175842
-0.01294979 0.03809722 0.06358258 -0.00038807816 0.046393573 0.045025125 -0.058540907 -0.0056983717
0.07125624 0.026605995 -0.016247159 -0.042389374 0.010252507 -0.0089488365 0.042331554 0.016337065
0.011186019 0.0055655465 -0.013300081 0.011639879 -0.052793283 0.054769214 0.0763586 0.038429447
-0.049686573 -0.01012394 0.023600074 -0.014306975 -0.038087536 -0.023853857 0.03830184 -0.049338754
0.020646095 -0.04504232 0.013480017 0.041135754 0.033231076 -0.0136958305 0.026506286 0.0030489925
-0.025339428 0.03501573 0.04234826 0.015681727 -0.017279392 -0.029617192 -0.0067019337 0.0362576
0.020673327 0.013046227 0.05035585 -0.048839718 0.06118114 -0.026183872 -0.027051108 0.040327467
-0.04666093 0.055906102 0.011546407 0.03916432 -0.025798403 -0.05531859 -0.0054887366 -0.080517754
-0.044887386 0.040986963 0.0026153685 0.052176517 0.05597995 -0.021225257 -0.034364335 0.025656663
-0.023399144 0.011455493 -0.009761142 -0.04650806 -0.011725616 -0.04273058 -0.008996871 -0.0599302
0.023581766 -0.015265216 0.042617556 -0.006095979 -0.07510796 0.05175827 0.013961736 -0.04231534
-0.023523474 -0.030961977 -0.017376475 0.05570878 -0.031082898 0.045676067 -0.0560313 -0.03946377
-0.011779897 0.034703095 0.023958994 -0.03220669 -0.05004258 -0.019584412 -0.035739146 0.04549538
-0.0066849357 0.041046143 -0.010250148 -0.05659689 0.0130091505 0.07679474 0.03262564 0.045115966
-0.04200085 0.056744486 -0.039123867 0.016552463 0.057467654 0.03549454 -0.05762746 -0.065862335
0.027973963 0.05803934 0.0037288365 0.04586804 -0.023992784 0.008909153 0.028644556 -0.055553254

gcn.gc1.bias f4 [256]
00000000: 010c 2a3d ef1f b9bc 1032 74bd ff2a 17bb
00000010: 2931 96bc 8bfa 343d 0678 6bbd 3d74 733d
00000020: 88a9 663d d7d0 bcbc 30a7 733d c321 18bd
00000030: 0175 65bc e733 f1bc 94ff 41bd 3ddb 6e3d
00000040: 73cb 38bd e5dd 313d 87f9 fabc 3daf 163d
00000050: 58f3 a43c 440c d7bc 0c67 84bb 062a 62bc
00000060: cf43 31bd b614 043d 19f1 43bb 613c bb3c
00000070: 9948 7b3d 7cd3 acb9 05b7 053d 1930 a53c
00000080: 2603 68bd adae 2fbc bf01 b8bb 73a0 0d3d
00000090: cc3a 103d bd23 653d 9661 e83c 8702 de3c
000000a0: 14ea 2ebd 5e0b 48bd 157d adbc 1464 813d
000000b0: ed8c 04bc 9a5d c4bc 1b32 f63c d62a 91bc
000000c0: daa6 99bb fd01 ca3c 73fa 07bd c4f0 8a3c
000000d0: a24e 493d 74bc 17bd c9bd 1c3d 0713 fa3b
000000e0: 4954 2dbc 8f2e 773d b8bb 3a3d 669d 1fbd
000000f0: 50e0 d8bc 4441 f6bc feab 633d 8741 493d
00000100: 6248 643d 978b f9bc 744d 4d3d c9ae 233c
00000110: cc2b 49bd 124e c339 4cc8 213d 39c4 babc
00000120: b523 50bd 3e61 31bd b53c f03c 7480 ddbc
00000130: 5a8f 62bd 00db 323d cf5e 40bc 25b5 5e3d
00000140: 3f81 26bd 0f46 363d 6a9c 27bd 861f 2e3d
00000150: 2d8c 8d3b fb83 f33c ddb4 c53c 3ae2 183d
00000160: 412c a9bc d6a6 723d 2c31 febb fb91 dd3a
00000170: a590 ea3c 13a6 90bc 9722 823c 06c9 323c
00000180: 9503 6fbc fdec 963c c1cf e0bc b940 973c
00000190: 8101 46bc c667 543d 8aa1 5dbc 8291 5f3c
000001a0: 5da2 fc3c 98bc 433b 73f0 b1bc 7332 dd3a
000001b0: 30ec c6bc 0fd2 44bc 9524 803d 2cdd 31bd
000001c0: 8283 4cbd d61e c2bc 7139 d4bc 7203 953c
000001d0: 762f c9bc 11c3 2f3d 25d2 29bd 4197 2b3d
000001e0: b8df 4b3d aee4 43bd e8bb 5fbc 9bfc f1bc
000001f0: 595c d5bc 7e28 a8bc 361d a93c 481f 05bd
00000200: 0a1d 6f3b acc4 15bd 3973 073c f168 35bc
00000210: 53dd 023b 1637 0b3d cb45 18bd 7956 61bd
00000220: ca85 96bc d71d 24bd edea a9bc 61bb 693d
00000230: 05c4 763d 8740 833b d6eb 40bc fbc6 03bd
00000240: 32bf 4e3c efc7 6a3d fdb8 ba3c 8ea1 b9bc
00000250: 4b98 b5bc a849 6fbd 8d04 28bd 1c7f 653d
00000260: ad4c 9cbc b96c 9d3c b0c9 883c fe84 813c
00000270: fefa 49bd 56d0 27bd f87e 283c 2641 18bc
00000280: 954f 173d 2165 eb3c 0908 383d ca12 e6bc
00000290: ffb9 b3bc 7e67 b13b 8bee 3dbb 396e d2bc
000002a0: 95dd 3a3d 135e 01bd 12e8 f93c 3a22 c9bb
000002b0: 3bc5 a4bb ee1a 173d 8c14 09bd 222f c33c
000002c0: 3a0a f63c 449d e93c 37d6 39bd 780c 3a3d
000002d0: 4eaf 483a 9790 39bd a2c3 173d 9354 a93c
000002e0: f77a debc 56d1 2b3d 1a93 113d fc30 aabb
000002f0: 56f3 143c 9b61 7fbc 5c00 8c3c a0ae 63bc
00000300: 04f2 3abd 27cc 46bd 9d75 83bb 592d 0bbd
00000310: fa79 cb3c 5fb7 65bd 94bd 473d e8d1 4d3c
00000320: 945e cdbc 2d7c e8ba aeaa 3dbd d0a6 543d
00000330: aea7 7abd 5394 883a 8577 fa3c 2578 30bc
00000340: 4e3c d93c ffd8 643c 0c43 523c eb38 2a3d
00000350: 2f15 173d 66d4 09bc fcc8 da3b 904e 3cbd
00000360: 1ac0 38bd 2ef4 66bc b9e4 c73c e61c 963c
00000370: 74bf 29bd eefa 303d 0d53 bfbc 96f7 86bc
00000380: e465 70bd 5bbb 53bd 3e41 453c 2e1d 61bd
00000390: b62c d13b 03a8 2b3d 4a47 d93c 716c 1fbb
000003a0: 8e18 b2bc b553 b83c 41b6 e7bc f67e d13b
000003b0: bad5 bc3c 1591 01bd aa3e 573d bc46 bd3b
000003c0: 3a51 64bd 84f5 65bc 8988 633d 2072 bebc
000003d0: a881 143d c4a2 33bd fad7 6a3d 1c64 2b3d
000003e0: 96de 1a3d 9954 b1bc 0c7b a63c a9f2 273d
000003f0: fa6a c7bc 22ec 61bd 6070 4d3d 52c7 ca3c
0.041515354 -0.022598235 -0.059618056 -0.00230664 -0.018333988 0.04418425 -0.05748751 0.059437025
0.05631402 -0.023048801 0.059485614 -0.037141573 -0.014004947 -0.029443694 -0.04736288 0.05831455
-0.0451159 0.043424506 -0.030636562 0.036788214 0.020135567 -0.026250966 -0.0040406045 -0.0138039645
-0.043277558 0.032246314 -0.0029898344 0.02285594 0.06134853 -0.00032963965 0.032645244 0.020164536
-0.056643628 -0.010722798 -0.0056154425 0.034576844 0.035212323 0.055942286 0.028366845 0.027100815
-0.042703703 -0.048838966 -0.021177808 0.063179165 -0.00809024 -0.023970414 0.030053189 -0.017720621
-0.0046890797 0.024659151 -0.03319783 0.01696051 0.049147256 -0.037044957 0.03826693 0.007631663
-0.010579177 0.060347136 0.04558918 -0.038968466 -0.026474148 -0.030060418 0.055583946 0.049134757
0.055733092 -0.03046207 0.050122693 0.0099904025 -0.049114034 0.00037251465 0.03949766 -0.022798644
-0.050815303 -0.043305628 0.029325822 -0.02703879 -0.055312492 0.043665886 -0.011741354 0.05437197
-0.040650602 0.044500407 -0.040920652 0.04251053 0.004319689 0.02972602 0.024134094 0.03732512
-0.020650985 0.05924114 -0.0077573266 0.0016904467 0.028633425 -0.017657315 0.015885634 0.010912186
-0.014588256 0.018423552 -0.027442815 0.01846348 -0.0120853195 0.05185678 -0.013527283 0.013645532
0.03083914 0.002986705 -0.0217211 0.0016875997 -0.024282545 -0.0120129725 0.062569775 -0.043423817
-0.049930103 -0.023696344 -0.025906296 0.01819012 -0.024558764 0.04291064 -0.041460175 0.041892294
0.0497739 -0.047825508 -0.01365564 -0.029539397 -0.026045011 -0.02052712 0.020643812 -0.032500535
0.0036485814 -0.036564514 0.008267217 -0.011072383 0.0019968345 0.03398808 -0.037175935 -0.055014107
-0.018374342 -0.04006752 -0.020741904 0.057063464 0.060245533 0.004005495 -0.011774978 -0.032172184
0.012618827 0.057319578 0.022793287 -0.022660043 -0.022167346 -0.058419853 -0.041019965 0.056029424
-0.01907953 0.019216882 0.016697735 0.015810486 -0.04931163 -0.04097017 0.010284178 -0.009292876
0.03694113 0.028734745 0.044929538 -0.028085131 -0.021939276 0.0054139486 -0.0028981294 -0.025687324
0.045621473 -0.031583857 0.030506168 -0.0061381133 -0.0050283945 0.036890917 -0.03346686 0.023826186
0.030034173 0.028517373 -0.045370307 0.045422047 0.0007655517 -0.045303907 0.037051804 0.020670211
-0.027158244 0.041947685 0.035540678 -0.0051938277 0.009091219 -0.015587236 0.017090015 -0.013896614
-0.04564096 -0.04853454 -0.0040118233 -0.033978794 0.024838436 -0.05608308 0.04876478 0.012562253
-0.025069512 -0.0017737203 -0.04630535 0.051916897 -0.061195068 0.0010420181 0.03057457 -0.010770832
0.026518013 0.0139677515 0.012833368 0.041558187 0.036885437 -0.008412456 0.0066767912 -0.04597336
-0.045105077 -0.014096303 0.024401056 0.018324327 -0.04144235 0.043208055 -0.023355031 -0.01647548
-0.05869092 -0.051692348 0.012039481 -0.05495947 0.006383504 0.041908275 0.026523251 -0.002432611
-0.021740224 0.022500852 -0.028285148 0.0063933088 0.023051132 -0.0316325 0.052549995 0.0057762545
-0.055741526 -0.014035586 0.055550132 -0.023247778 0.036256462 -0.043856397 0.057334878 0.04184352
0.03780993 -0.021646785 0.020322345 0.041002903 -0.024343003 -0.055156834 0.050155997 0.024753246

gcn.ln1.weight f4 [256]
00000000: 083a 4a3f d449 673f 0a59 6c3f c5ae 6e3f
00000010: f6b7 7d3f 38df 523f 8f40 403f 8b38 623f
00000020: ba65 583f da4f 273f 9846 753f b10b 5f3f
00000030: e086 503f 3169 343f 1519 7d3f 9aab 693f
00000040: 673c 693f a9cb 5c3f ebce 2f3f f93c 463f
00000050: cd70 5b3f 7482 733f 0c78 683f 7989 5e3f
00000060: 0f78 6a3f 28df 783f 91e7 723f 2e26 6d3f
00000070: 9c8e 693f 03d5 713f 42bd 653f 6fcb 743f
00000080: 7d9f 733f 19fd 473f 5e97 723f 0e3c 743f
00000090: 3e4d 5a3f 87f4 633f df7a 583f fca0 6b3f
000000a0: fb97 5d3f 2e97 613f 0f6f 3a3f 614e 713f
000000b0: bdb9 353f 56bd 703f 04db 643f 199d 653f
000000c0: 6600 6c3f 60d0 6d3f 7ebc 0e3f 5704 613f
000000d0: 28eb 713f 5034 643f 86e0 703f 1939 603f
000000e0: 1493 6a3f df15 5a3f 5946 6b3f 930a 3b3f
000000f0: b559 523f a909 573f f980 783f 5486 663f
00000100: 5509 723f 2f41 553f 5d1d 743f f7e8 563f
00000110: 25d7 503f 931b 6f3f 537e 743f d60b 513f
00000120: 0025 6e3f 507e 733f d9af 523f c6e7 603f
00000130: e535 763f 217e 6d3f 10e4 483f 12c0 633f
00000140: fd86 453f fc58 703f aabf 6c3f 3f77 6d3f
00000150: bc10 1d3f ffdd 633f 31ef 6e3f 7d08 703f
00000160: c2b0 683f bd0d 653f a395 743f 73ac 743f
00000170: 6607 763f 62e0 703f c6eb 4f3f 4194 6a3f
00000180: 9bc3 5f3f 9940 5e3f d781 6a3f 1afc 703f
00000190: 66b2 443f ee73 553f ecbc 6e3f 6b3f 343f
000001a0: 108a 7c3f ebfd 513f 72d4 4f3f 92bf 493f
000001b0: bea1 583f 99c7 733f 4810 5f3f 45d7 7d3f
000001c0: a3fb 583f e6cf 6f3f 73b2 783f 1e60 5b3f
000001d0: f18a 743f 948c 663f 4c78 5e3f f2fa 7a3f
000001e0: 4e3a 6b3f 8ae5 663f f08b 5a3f c976 4d3f
000001f0: 9a86 5c3f 4794 503f 691d 6a3f 7f6a 6d3f
00000200: 5c0f 583f 6c1f 783f bdee 783f f4a2 473f
00000210: 678d 6c3f 8368 593f bfe0 6a3f 4b7e 5b3f
00000220: eb9c 423f ee93 353f 3ac4 783f f513 753f
00000230: 016b 753f 9c57 733f d2a1 563f c2d4 333f
00000240: 492b 673f 734b 693f 6ed5 783f 76fb 433f
00000250: 1c81 543f aff7 633f ffb0 103f b335 713f
00000260: 6a4e 723f 0e43 6c3f 69fa 793f 9c0e 793f
00000270: 1747 703f e3bb 623f c508 773f 06c2 6c3f
00000280: 3e56 5d3f 7231 6c3f 3f21 703f d00d 5f3f
00000290: 2031 5b3f 52d5 5d3f 8719 773f 1efb 613f
000002a0: a239 6b3f 0f3e 543f a2ff 5f3f aade 533f
000002b0: 9451 703f 67db 793f 3cf2 783f 075a 653f
000002c0: 4149 703f e510 753f 7d77 453f 8541 743f
000002d0: 3ca3 3c3f a1e8 773f 7f60 663f e87f 633f
000002e0: 7ff5 723f f8fe 6c3f 2219 793f 75e5 6b3f
000002f0: a63f 443f 5aee 743f cc7a 683f 9a1b 463f
00000300: 5a20 663f 2edd 5f3f 2468 6a3f 828e 333f
00000310: f94c 543f 05c1 623f 1696 6a3f 3d8a 6a3f
00000320: dcd0 593f fefe 573f fa07 553f 2a9e 733f
00000330: 11c8 653f 21b5 753f b56a 473f 1572 6f3f
00000340: 3c13 5f3f 8352 533f 065f 6d3f 5e1b 753f
00000350: 46c8 733f 54c1 663f d241 463f 6947 653f
00000360: 3a1b 5c3f a92c 673f 203a 6f3f c20b 6d3f
00000370: 9273 663f 90a8 703f 081c 5d3f 3117 6f3f
00000380: 0a06 693f 30b5 6f3f e3e6 723f 0057 703f
00000390: 78cb 4d3f 5647 7a3f 3b53 513f 21d9 4e3f
000003a0: f972 703f 67b5 503f ada8 553f 7770 643f
000003b0: 0269 5f3f cb59 4e3f 961c 603f 6e70 403f
000003c0: 3014 583f cccb 733f 8ace 613f dbe5 653f
000003d0: a048 4a3f 2e04 713f f787 713f 8cec 633f
000003e0: 4cbf 743f 2ad8 703f 77a9 633f 6c91 7a3f
000003f0: f8a3 673f 437a 573f 44ce 643f 18e8 7b3f
0.789948 0.9034703 0.9232336 0.9323543 0.9910883 0.82371855 0.7509851 0.8836753
0.8453022 0.6535622 0.9581084 0.87127215 0.814558 0.7047301 0.988664 0.9127747
0.9110779 0.8624826 0.68675107 0.77436787 0.85718995 0.9512093 0.90808177 0.86928517
0.91589445 0.9721551 0.9488459 0.9263638 0.9123323 0.94465655 0.8974191 0.95622915
0.95165235 0.7812057 0.9476222 0.95404136 0.8527411 0.89044994 0.84562486 0.9204252
0.8656003 0.88121307 0.7282571 0.9426022 0.7098654 0.94038904 0.8939669 0.89692837
0.9218811 0.9289608 0.55756366 0.8789725 0.94499445 0.8914232 0.94092596 0.87587124
0.91630673 0.8518962 0.91904217 0.7306301 0.8216813 0.83999115 0.97071797 0.9004872
0.9454549 0.8330259 0.95357305 0.83949226 0.81578285 0.9340145 0.95505255 0.81658685
0.9302521 0.9511461 0.8229957 0.8785366 0.96175987 0.9277058 0.78472996 0.8896495
0.771591 0.9388578 0.92479956 0.9276008 0.6135366 0.89010614 0.9333373 0.9376295
0.9089471 0.8947409 0.9554083 0.95575637 0.9610504 0.9409238 0.81219137 0.9163247
0.87407845 0.8681732 0.9160437 0.94134676 0.76834714 0.8338002 0.9325702 0.7040927
0.98648167 0.82028073 0.8118354 0.7880794 0.846218 0.95226437 0.8713422 0.991566
0.8475897 0.936766 0.9714729 0.8569354 0.9552451 0.90058255 0.8690231 0.9803916
0.9188584 0.90194 0.8536978 0.80259377 0.86142886 0.81476253 0.91451126 0.92740625
0.84398437 0.96922946 0.97239286 0.7798302 0.9240326 0.849251 0.91749185 0.8573958
0.7602069 0.7092885 0.9717442 0.95733577 0.958664 0.95055556 0.8384067 0.7024652
0.9030042 0.9113075 0.9720067 0.76555574 0.83009505 0.8904981 0.56520075 0.94222564
0.946509 0.9228982 0.9764772 0.9728792 0.93858474 0.8856794 0.96497756 0.92483556
0.8645972 0.9226295 0.9380073 0.8713045 0.85621834 0.86653626 0.96523327 0.882738
0.91884816 0.82907194 0.8749944 0.82761633 0.9387448 0.97600406 0.9724462 0.89590496
0.93861777 0.95728904 0.7713545 0.95412475 0.73686576 0.9683934 0.8999099 0.88867044
0.9490585 0.9257655 0.97303975 0.92147 0.7665962 0.95676196 0.90812373 0.77385867
0.89893115 0.8744687 0.91565156 0.70139325 0.8292995 0.88575774 0.9163526 0.91617185
0.8508432 0.8437346 0.83215296 0.95163214 0.897584 0.95979506 0.77897197 0.9353345
0.87138724 0.8254778 0.9272312 0.95744884 0.9522747 0.90138745 0.77444184 0.8956209
0.85979044 0.9030252 0.93448067 0.92596066 0.90020096 0.94007206 0.863709 0.9339476
0.9102484 0.93635845 0.94883555 0.9388275 0.80388594 0.977651 0.81767625 0.8080006
0.93925434 0.815268 0.83460504 0.8923411 0.87269604 0.80605763 0.8754362 0.75171554
0.84405804 0.95232844 0.8820578 0.89803857 0.79017067 0.94147 0.9434809 0.89032817
0.95604396 0.9407984 0.8893046 0.97878146 0.9048457 0.8417093 0.89377236 0.9840102

gcn.ln1.bias f4 [256]
00000000: 962f 39bc ae35 06bc b7fe b9bb 8ce1 d6bb
00000010: 78c6 2a3c 0cdf cb3a 11d5 63bc 7d9a 95bb
00000020: cead 89bc 4192 b4bc 0475 51bb 34be f9bb
00000030: 93ce b9bb 50ce 38bb 3496 133c c0a5 8b3b
00000040: a9df ac3b 0b43 9cbc 9033 abbc 3594 dfbc
00000050: 8f8a 1b3a 0f47 483b 98f4 4fbc a1e6 1abc
00000060: 23cb 263c d551 fbba cdef ddbb 1b7f 953a
00000070: 9bda bbba aa1e 30ba 3167 3ebc 34d3 983a
00000080: 9cdd 24bb e118 3cbb 8695 06bb 9d1b 07bb
00000090: 4d42 96bc 3f8e edbb e4ad fcbc 4a87 18bc
000000a0: 0f53 d4bb b74c d8bb 4aae aabc 5a15 02bc
000000b0: 153d 8abb a326 aebb d973 f1bb f2ce 0ebc
000000c0: 46d1 51bb 2b9e 65bb 2705 16bc 4655 44bc
000000d0: 2213 04bc 128d 91bb 839d 0ebc fc3d c7bb
000000e0: 8ff8 acbb 43ef d0bb 635b ebbb eeca 2abc
000000f0: 29e3 a7ba 92f4 62bb d0e8 35bb b104 24bc
00000100: a766 97bb 24c9 21bc a1a8 1dbc 1431 a9bc
00000110: 59cb beba 39d0 f8bb c450 13bb 967a dfb9
00000120: 6796 1abb 41f1 8abb 6987 7cbc b5f1 db39
00000130: 1f06 bfba ca2f 35bc 78da a7bb 4f48 91bc
00000140: 8b29 a2bc 0be4 93ba fa24 df3b 5459 1aba
00000150: 93f6 a2bc b0ed 73bc e3ae c2bb cbf9 c3bb
00000160: b683 5cbb 075e 80bc ea15 86bb 4ade dcbb
00000170: ce65 843b 4a99 84bb b603 97bb e3d7 25bc
00000180: 7136 16bc 512c 8abc 9765 73bb eb2a 9d3b
00000190: 48a6 c9bc 29b5 a9bc f7d1 80b9 e5e3 94ba
000001a0: 34dc 363b ed49 90bc ecfd ad3a b489 cfbb
000001b0: 36df 6abb 8558 cebb f070 86bc cb8a dd3b
000001c0: 6f86 22bb f015 b639 c3a2 163c 6a48 67bc
000001d0: bb21 03bc 8dbc 3dbc 0af5 04bc cc6d 65bb
000001e0: c9d6 94bc 8de9 c3bb d97c 30bc 445f 38bc
000001f0: 2d31 69bc a75d f8bb 318e 1ebc 2dff 1abc
00000200: 757f 91bc c246 a7bb a73c 11ba fbac 8ebc
00000210: 8dfa b0bb fea4 1ebb cd71 72bb 3176 9d3a
00000220: c391 59bb d329 89bc 2ed1 263a a693 513a
00000230: 4b74 123b d4ee e5bb 6925 0fbc 34cb 25bc
00000240: e1c1 16bb 0619 01bc 7792 07bb 6547 31ba
00000250: 0711 1a3b 58b8 db3a 66b4 0dbc 2150 4ab8
00000260: b46a 303b ea16 41bc c825 0dbc 98d2 423a
00000270: 58b1 5dbb b782 12bb 3251 1fbc 6940 86ba
00000280: fce5 6fbc 055e e53a b53d 14bc 186f 1fbc
00000290: 0bee 01bc c48a 3bbc d3b7 2abb a842 1ebc
000002a0: 85c1 71bc f998 14bc 1c24 c5bc e332 86bc
000002b0: c65d 9dbb 611b babb c9bb 5f3a 011e f9bb
000002c0: 5400 50bc 85e4 8dbb 7af5 3fbc 4702 82ba
000002d0: d15b c6bc ac80 783b f64d 75bc 7fc0 4fbc
000002e0: daca b2bb 6ef1 063c 3456 d43a ef56 0ebc
000002f0: 9ba8 8cbc 74f1 86bb a21b 1dbc 17ff 94bc
00000300: 28ff afbb de0c 083b 0a76 9fbb c277 b1ba
00000310: fb64 bbbc 65b7 ebbb f1ec 3cbc a1d3 adba
00000320: 1a7b 2cbb 6c25 4cbc f4da 5bbc e47c c9bb
00000330: 2157 82bc 303e 8bbb 8015 d8bc ba4b 1ebc
00000340: 3716 b8bc d238 60bc 35f5 77bb f171 98bb
00000350: b524 cbbb 3de9 95bb bede 4fbc e25b 11bc
00000360: 1c10 14bc c3d4 37bb cd07 3dbc 574f 39bc
00000370: be63 6c3b a211 5dbc 0b92 0ebc 02c8 b8bb
00000380: 60df 0bba 0bd6 3dbc 5ff6 99ba 2d6f 853a
00000390: bdba 8bbc 5399 8b3b 38e9 69bc 486d 48bc
000003a0: 2ab6 a1bb 4482 9fbc db18 8ebc f797 c1bb
000003b0: 2292 51bc 8787 b239 e696 88bc d2f7 98bc
000003c0: 90b9 3dbc f333 69bb df2c 33bc 3a33 93ba
000003d0: 42ec a7bc 0e79 ad3b a434 95bb 932c 8abc
000003e0: 2ae2 0fbc c9f9 aabb bd58 9fbc a9db 7f3a
000003f0: 1fc4 683b 7dcb 9fbc f383 a3bc aa39 03bb
-0.011302849 -0.008191509 -0.0056761163 -0.006557649 0.010423295 0.0015554144 -0.013905779 -0.0045655356
-0.01680651 -0.022042396 -0.0031960616 -0.007621551 -0.0056703775 -0.0028199144 0.009007979 0.0042617023
0.005275686 -0.019074937 -0.02089861 -0.02729235 0.00059334276 0.0030559932 -0.012692593 -0.0094544
0.0101802675 -0.0019174168 -0.0067729712 0.0011405678 -0.0014332117 -0.00067184365 -0.011621282 0.0011659623
-0.0025156504 -0.0028701352 -0.00205359 -0.0020615824 -0.018342162 -0.007249623 -0.030844636 -0.009309599
-0.006479628 -0.006600942 -0.02083506 -0.007939661 -0.0042187073 -0.0053146644 -0.0073685464 -0.008716332
-0.0032015606 -0.0035036902 -0.009156502 -0.011983221 -0.008061202 -0.0044418657 -0.008704546 -0.006080387
-0.005278654 -0.0063761785 -0.007182525 -0.010424359 -0.0012808788 -0.0034630639 -0.0027757175 -0.010010884
-0.0046203914 -0.009874616 -0.009622724 -0.020653285 -0.0014556452 -0.0075931814 -0.002247856 -0.00042625208
-0.0023588182 -0.0042401855 -0.015413144 0.0004195102 -0.0014573968 -0.011058757 -0.005122479 -0.017734675
-0.0197952 -0.0011283172 0.006809828 -0.0005887945 -0.019892966 -0.014888212 -0.0059412583 -0.0059807054
-0.0033647842 -0.015669836 -0.004091968 -0.006740366 0.0040404564 -0.004046594 -0.0046085967 -0.010122272
-0.009168253 -0.016866835 -0.003713941 0.004796376 -0.024615422 -0.020716267 -0.00024570498 -0.0011359422
0.0027902247 -0.017613376 0.0013274527 -0.006333554 -0.003583861 -0.0062971734 -0.016411275 0.00676093
-0.0024799367 0.0003473009 0.009194079 -0.014116386 -0.008003647 -0.011580599 -0.0081150625 -0.003500807
-0.018168824 -0.005978769 -0.0107719535 -0.011253182 -0.014232916 -0.0075795236 -0.009677456 -0.009460253
-0.017760972 -0.0051048705 -0.0005540349 -0.017416468 -0.0054009617 -0.002420723 -0.00369941 0.0012013373
-0.0033198453 -0.016743576 0.00063635677 0.00079947186 0.0022347148 -0.007016996 -0.008736947 -0.010119248
-0.0023003744 -0.007879501 -0.0020686665 -0.0006762653 0.0023508684 0.0016763313 -0.008648967 -4.823518e-05
0.0026919069 -0.011785248 -0.008614965 0.00074318936 -0.003382763 -0.0022355744 -0.009723948 -0.0010242584
-0.014642235 0.0017499333 -0.009047915 -0.009731077 -0.007930289 -0.0114466585 -0.002604951 -0.009659447
-0.014755611 -0.009069675 -0.02406507 -0.016381687 -0.0048024384 -0.0056795334 0.0008534757 -0.0076024537
-0.012695391 -0.00433022 -0.011716241 -0.0009918892 -0.024213703 0.0037918491 -0.014972201 -0.012680172
-0.0054563107 0.008236272 0.0016200007 -0.008687719 -0.017170241 -0.004118139 -0.009589108 -0.018188043
-0.005370993 0.0020759623 -0.0048663663 -0.0013539719 -0.0228753 -0.007193493 -0.011531101 -0.0013261923
-0.0026318491 -0.012460094 -0.013418902 -0.0061489213 -0.015910687 -0.0042493567 -0.02637744 -0.009661609
-0.02247153 -0.013685422 -0.0037835364 -0.0046522547 -0.006199444 -0.0045749233 -0.012687383 -0.008872004
-0.009037044 -0.00280504 -0.011537504 -0.01131042 0.0036070193 -0.0134929735 -0.008701812 -0.005639077
-0.00053357147 -0.011586676 -0.0011746398 0.0010180228 -0.017056817 0.004260221 -0.014276795 -0.012233086
-0.0049350457 -0.019471295 -0.017345836 -0.005908008 -0.012791188 0.0003405178 -0.016673516 -0.018672857
-0.011579886 -0.0035583943 -0.010935991 -0.0011230477 -0.020498399 0.005293972 -0.0045533944 -0.016866958
-0.008781949 -0.005217765 -0.019451493 0.000976021 0.0035517288 -0.01950621 -0.01996038 -0.0020023384

gcn.gc2.weight f4 [256, 64]
00000000: bc16 443d ef05 a9bc 7714 4fbd 2008 25bd
00000010: dca1 2a3d 5238 063e 46ee 84bd b390 563d
00000020: 4f62 ca3c 72f7 c5bc 92cb 73bd 5c5b b4bc
00000030: f5e1 e1bd 3bb4 07bd 3d28 713c 0e69 5e3d
00000040: a7fc aabd d701 e138 32a8 d13d 94ad 863d
00000050: f41c 253c 449e cabd d3a4 863d 1e4b f8bd
00000060: 2e75 ddbc 8323 cdbc 2ff2 d83c c358 83bd
00000070: 2d7f 9b3d 1770 e5bd 4cc4 433d 7888 3fbc
00000080: acce 6a3d 6530 b4bd 7c9f b4bd 6aab cabd
00000090: 2d9d 9b3d 44f8 9abc f03b 9d3d f89d 983d
000000a0: 48b1 5ebc ee97 a83d 116c b13d 675b b8bd
000000b0: 6f61 8dbd 8d35 81bd 46d6 74bc 10c3 75bd
000000c0: 4470 3abc 254f a9bd 7cc1 9c3d 1892 a2bd
000000d0: d4d3 8dbc ba12 d43d 23de 3bbd 90dc c6bb
000000e0: 35ed a83d 8ef1 8bbd 69fb 93bd 5251 ffbd
000000f0: be08 c23d 028d 9f3c 836d a5bd 994b 2b3d
00000100: 7e85 f23b 2cdf b9bd 7536 a13b 86df 443d
00000110: c904 68bd 4fa2 e0bd 7625 b23d db2d 32bc
00000120: 4fb5 823d 2685 9abd 88b3 b3bc bb70 bcbd
00000130: 1c05 883c e61b 41bc 7562 9fbd d417 f83c
00000140: 56e9 debc e7eb bc3c 26f3 e8bc d6ba 3f3d
00000150: 5717 d9bd d59e 8a3c 9952 00be 48a0 063e
00000160: 1370 cbbc 5015 a93b aa37 a4bd 86e4 84bb
00000170: 16a0 08bd 1755 c8bd 3312 e83d cecb 12bc
00000180: 536b cebc 0726 3bbd 58e8 3d3d df90 9b3b
00000190: f236 1fbc 30da c13d ae13 87bd e5f1 3e3d
000001a0: 33a8 47bd eba1 eebd 8a82 0ebc b486 2dbd
000001b0: caa9 293c 1bc1 d2bc 6332 3fbc df5b 113e
000001c0: d51d 86bc 4ea0 98bd 25b4 fc3a 5b91 743d
000001d0: 842b be3d 3395 1b3d d7b6 7e3d 5ca0 aa3d
000001e0: 2bfb 923d 1749 c53d 2640 893d ef22 fa3d
000001f0: a859 923d 22dd 66bc e825 383c 2cb5 08be
00000200: 9f3b 573d 725e c9bd 677b 783c f5b1 72bd
00000210: fb7e d03d 8265 92bd 2b58 99bc 784d efbc
00000220: 0b6a 6e3d 2008 d53d e7fd 82bc ada3 5b3c
00000230: c34d 863c ab73 e23a b5e0 c0bc 4b20 76bd
00000240: 705a 6d3d 082a 233d 9ea6 3dbd 4f8c bebd
00000250: c0bd 163b 28c9 acbd cdeb cb3d a582 a43d
00000260: 4256 043d 2372 aaba 0ca6 59bd c678 993c
00000270: 3d3b 14bd 0cb9 c0bd 03c7 da3d c0fb b5bd
00000280: 9389 003e d907 5cbd 7bb2 e8bd 97be c4bd
00000290: f6ab b7bb 8245 ee3d 1ce4 c63d dea4 e2bd
000002a0: c73e 043d ba47 68bc 8121 26bd e233 63ba
000002b0: 583b cb3d 72a0 84bd 9bac b03c 8926 e6bd
000002c0: 9bdb a2bc fbec 3a3d 0e12 e8bd 8b02 d3bd
000002d0: e5e6 98bc 4427 ef3d 7f38 c13d 846b b73c
000002e0: 9e99 3abc a796 dabc f00a 8d3d dec0 583d
000002f0: bb34 cf3c 09df 86bd 2976 e73d 94c9 bdbd
00000300: 5294 693d 1801 17bd dcc7 743d b1f4 bcbc
00000310: 7a46 e6bd 8a52 79bd fe8f d33d 4815 553d
00000320: 849d 8e3c e935 df3d bbd5 05bd cbe5 a7bd
00000330: eb61 da3b 3dbd c9bd 21fa d3bd 95c0 4abd
00000340: 2000 853d e24f 89bd c150 d63b 6511 0ebc
00000350: d093 6d3d f36a e93d f4fc af3d 080c 573d
00000360: 7091 143c 3c65 4cbd 0417 8abd 1ea2 d43a
00000370: 02cf c7bd e779 d73d 09d0 913d 2bdc c1bc
00000380: 046d ef3d 3837 80bb 7bc6 963d a1e1 92bd
00000390: 3c5c d3ba 6c82 93bd 3b8c 753d 1f8d c4bd
000003a0: c229 7f3d 2c17 4d3c 902f dd3b fe07 18bd
000003b0: c0e2 8e3d 1edf e03c e8f4 bcbd e89b 883b
000003c0: 926a c2bd 3f5e 673d c802 85bc 3387 513d
000003d0: 2646 8c3c fdc5 13bd b202 a23d 1a37 4d3b
000003e0: 8bc6 48bd b770 dd3d 2802 60bc 6f12 d2bd
000003f0: b23e 283c d6b7 04bc 535f 5f3d 0371 44bd
0.047873244 -0.020632712 -0.050556626 -0.04029095 0.041658267 0.13107422 -0.064907596 0.05238409
0.02470508 -0.024165843 -0.05952031 -0.02201622 -0.11029426 -0.033130866 0.014719066 0.054299407
-0.08348971 0.00010729179 0.10237159 0.06576076 0.010077704 -0.09893468 0.065744065 -0.121237025
-0.027033415 -0.025041347 0.02648267 -0.06413414 0.07592616 -0.1120302 0.047794625 -0.0116902515
0.057326004 -0.08798293 -0.08819482 -0.09895976 0.07598338 -0.01891721 0.07677448 0.07452005
-0.013592072 0.08232103 0.0866319 -0.090018086 -0.069033496 -0.06309042 -0.014943665 -0.06000048
-0.011379305 -0.08267049 0.07654092 -0.079380214 -0.017312922 0.10355134 -0.045866143 -0.0060687736
0.08248369 -0.06833182 -0.07225687 -0.124666825 0.09474324 0.019476417 -0.08077528 0.041820142
0.0074011674 -0.0907577 0.004919822 0.04806473 -0.05664519 -0.10968458 0.08698551 -0.010875191
0.06382238 -0.07544927 -0.021936193 -0.09201189 0.016603999 -0.011786437 -0.07782451 0.0302848
-0.027210873 0.023061706 -0.028436255 0.04680904 -0.10600155 0.01692144 -0.12531509 0.1314708
-0.024833715 0.0051600114 -0.080184296 -0.0040555624 -0.033355795 -0.097818546 0.11331596 -0.008959724
-0.02519766 -0.045690563 0.04636416 0.0047474946 -0.00971769 0.09465444 -0.065955505 0.046617407
-0.04874439 -0.11651977 -0.008698115 -0.04236479 0.010355422 -0.025726845 -0.011669728 0.14195202
-0.016371647 -0.07452451 0.0019279761 0.059708934 0.09285644 0.037984084 0.06218609 0.083313674
0.07176813 0.096330814 0.067016885 0.12213694 0.07146007 -0.014090808 0.011239506 -0.13350362
0.052547093 -0.09832467 0.01516614 -0.059251744 0.101804696 -0.07148267 -0.0187188 -0.029211745
0.0582066 0.1040194 -0.01599021 0.013405723 0.016394502 0.0017276903 -0.023544649 -0.06008939
0.057947576 0.039835006 -0.046301477 -0.093041055 0.0023001283 -0.08436805 0.09957085 0.08032731
0.032308824 -0.0013003986 -0.05313687 0.018734347 -0.036189307 -0.09410295 0.1068249 -0.08885908
0.1255248 -0.05371842 -0.113621674 -0.09606665 -0.005605216 0.11634351 0.09711477 -0.11066602
0.03228643 -0.014177257 -0.040559296 -0.0008667094 0.09923428 -0.06475915 0.02156668 -0.11237819
-0.019880107 0.04563616 -0.11331569 -0.103032194 -0.018664787 0.11677411 0.09434604 0.022390135
-0.011389164 -0.026683165 0.06886852 0.052918307 0.025293699 -0.06585509 0.11301834 -0.092669636
0.057026215 -0.036866277 0.059760913 -0.023065897 -0.11243911 -0.06086973 0.10330199 0.05202225
0.017409094 0.108989544 -0.032674532 -0.081981264 0.0066645048 -0.098505475 -0.10350443 -0.049500067
0.064941645 -0.067046896 0.0065403883 -0.008671139 0.058002293 0.11397352 0.08593169 0.05250171
0.009067878 -0.049901232 -0.06742671 0.0016222631 -0.097562805 0.10521298 0.07119758 -0.023664555
0.11690715 -0.0039128326 0.07362076 -0.071719415 -0.001612551 -0.072026104 0.059948187 -0.09597229
0.062295683 0.012517732 0.0067500547 -0.037116997 0.06976843 0.02745014 -0.092264 0.004168976
-0.09492983 0.056486364 -0.016236678 0.051154327 0.017123293 -0.03607749 0.0791067 0.003131336
-0.04901747 0.10812514 -0.013672389 -0.10257422 0.010268854 -0.0081004705 0.054534268 -0.04795934

gcn.gc2.bias f4 [64]
00000000: 5eaf cb3d b74c 8b3c be3a 883d 2999 843d
00000010: 18ed 0abd 514d 9d3d 964e c2bc 8fb3 003e
00000020: 2d43 bfbc 0919 0ebb 153b 6f3d fdd7 e2bd
00000030: 0403 ccbc 5c28 313d e5ea 85bd 764e 81bd
00000040: e61b cbbc b601 0ebd 0e47 bf3d 393b e9bd
00000050: 4d3c e1bd 53ea d53d 645a be3c e07e 2abd
00000060: 438d c33b 9914 073d f8a3 93bd 5d11 c63d
00000070: 1857 533c 4fcd b9bc 22ec 9a3d 0386 a33d
00000080: 6329 3a3d d672 ed3d e7ee d2bd 5b87 3d3d
00000090: 7b12 7dbd a781 d03d 6f7f 873d 7706 caba
000000a0: 6da0 ac3c 4209 abbd 150f 41bd 4810 343d
000000b0: 0dde 87bd b913 8bbc 58d4 783d 8d7e 6dbc
000000c0: ca5b d9bd 6b0a f4bd 960f d03b 7a40 f03d
000000d0: 4abc 17bd cd7b 1abb 4f43 303d db2b 8abd
000000e0: 013c 76bd ee45 e03c 099e 00bc cbe6 673d
000000f0: 4f0e 59bd 6ed4 a93c 74bf bdbd 4b3c 5538
0.09945558 0.017004354 0.06651829 0.064745255 -0.033917516 0.076807626 -0.023719113 0.12568496
-0.023347462 -0.0021682403 0.058405954 -0.11076353 -0.024903782 0.04325138 -0.06538943 -0.06313793
-0.024793576 -0.0346696 0.093397245 -0.11388249 -0.109978296 0.104450844 0.023236461 -0.041624904
0.0059677674 0.032978628 -0.07209009 0.096712805 0.012899183 -0.022680907 0.0756457 0.07984545
0.045449626 0.11594169 -0.10299473 0.046271663 -0.061785202 0.10180979 0.06616103 -0.0015413304
0.02107259 -0.08351375 -0.047133524 0.04396084 -0.0663415 -0.016977178 0.06074938 -0.014495504
-0.106132105 -0.119160496 0.0063495142 0.11731048 -0.0370448 -0.0023572326 0.04303294 -0.06746646
-0.060115818 0.027377095 -0.0078501785 0.056616586 -0.05299216 0.020731177 -0.092650324 5.083931e-05

gcn.ln2.weight f4 [64]
00000000: eb74 703f 59de 793f 6a94 743f 94ca 583f
00000010: 7342 753f ede3 803f 1216 813f 458a 7e3f
00000020: f5c3 6a3f 0867 803f ec07 6a3f a46b 593f
00000030: 0442 7c3f c82b 813f 195c 673f e8e0 7e3f
00000040: 3b50 6c3f eaef 623f fe46 673f dd7a 5a3f
00000050: 75a2 803f f5ed 6e3f 47ca 803f 5ecb 783f
00000060: 6e27 233f 8142 3f3f a604 673f 5622 723f
00000070: 4861 7f3f 1c02 723f 04c2 7d3f 1acd 7b3f
00000080: 0588 7d3f e743 753f 8439 733f cefa 7d3f
00000090: 3656 603f d16e 7c3f 1fc3 7e3f fdf5 7f3f
000000a0: 47c2 a63e 233c 7c3f 3c91 673f eb69 7c3f
000000b0: 0456 723f 094f 763f 08f7 393f 4622 803f
000000c0: a41b 7f3f ad77 803f b27a 853f ee9f 753f
000000d0: 9479 543f bf60 6e3f 04bc 5f3f 1d4a 423f
000000e0: 69bb 6e3f ed1d 813f a36f 823f 1e2f 6b3f
000000f0: c030 823f 7a90 5e3f d024 7f3f 05d3 803f
0.939284 0.976049 0.9553896 0.8468411 0.9580452 1.0069557 1.008486 0.9942973
0.91705257 1.0031443 0.9141834 0.8492987 0.9853823 1.0091486 0.90374905 0.9956193
0.9230992 0.8864733 0.903427 0.85343724 1.0049578 0.93331844 1.006173 0.97185314
0.6373204 0.7471085 0.9024147 0.9458364 0.99757814 0.9453447 0.9912417 0.98359835
0.99035674 0.95806736 0.95009637 0.9921082 0.8763155 0.9860659 0.9951648 0.99984723
0.32570097 0.9852926 0.90455985 0.9859912 0.946625 0.9621435 0.72642565 1.001046
0.9965155 1.0036522 1.0428069 0.9594716 0.82998013 0.9311637 0.87396264 0.7589434
0.93254715 1.0087258 1.0190319 0.9186877 1.0171127 0.86939204 0.99665546 1.0064398

gcn.ln2.bias f4 [64]
00000000: 2197 0fba e4ba bb3b f984 723c a609 cd3b
00000010: 1495 023c 94c2 8c3c d73d 003c fa74 e43b
00000020: 22e3 023c 6d30 f23b 125b 633c 5f76 8d3a
00000030: 034e 023c 4748 c23b 4af8 933a c143 693c
00000040: cc3d 65bb 5991 cf3b 0bc1 5fba 1fe4 16bc
00000050: ce86 aa3b 95f1 d03b e808 5a3c 4009 b9bb
00000060: 306c 933a c181 053b 91c7 ae3b 44dc cc3b
00000070: 8ade ec3b d9b9 253c ec89 fe3b 54ae 343c
00000080: b619 ef3b d459 f13b 40b1 123b 5334 e73b
00000090: 3538 ae3c bded 703b d38d a23b bbde a93b
000000a0: 2645 25bc 4c93 ef3b e830 8b3a 23cf 123b
000000b0: 33eb 153b b961 423c 0531 15b9 ff2f 7c3b
000000c0: 434a 293b 98d3 eb3b 249a 1e3c 9030 243c
000000d0: f285 f23b 6fae 98bb 4f84 9fbb 2acc 35bb
000000e0: e912 ca3c 45d3 e03b eb32 1c3c 325c eeba
000000f0: 4654 013c 678b 9d3a 0eb8 f13b 0cbf 543c
-0.0005477537 0.005729066 0.014802211 0.0062572537 0.007970113 0.017182626 0.007827244 0.0069719525
0.007988723 0.0073910267 0.013876693 0.0010792724 0.00795317 0.0059290263 0.0011289206 0.014237345
-0.003497946 0.0063344655 -0.00085355405 -0.009209662 0.0052040583 0.006376455 0.0133077875 -0.0056468546
0.0011247452 0.0020371529 0.0053338488 0.0062518436 0.007228677 0.01011511 0.0077679064 0.011027891
0.007296766 0.0073654447 0.0022383481 0.007055798 0.021267036 0.0036762797 0.0049607544 0.0051840222
-0.010087287 0.0073112603 0.0010619434 0.0022401295 0.0022875785 0.011864119 -0.00014228009 0.0038480756
0.0025831617 0.007196855 0.009680305 0.010021344 0.0074012214 -0.004659466 -0.0048680673 -0.00277401
0.02466722 0.006861123 0.009533624 -0.0018185435 0.0078936275 0.0012019695 0.0073766774 0.012985002

attention.fc1.weight f4 [16, 64]
00000000: f7c6 a9bd d1e4 f73d 5a3a 763d 1274 c73c
00000010: e201 60bd 6399 ca3a 06f9 893d af90 153d
00000020: f0e0 c13d 82c6 8d3c 87ee db3d 46a6 9cbd
00000030: e458 18bb 2d46 90bd f369 fd3a a6b6 9ebd
00000040: fa9f 91bd c736 99bd 8de8 6f3c 9814 bebc
00000050: 114f 83bb 0643 1f3d d108 923c b5ac c9bd
00000060: 04ac 6439 adbf fa3c 1894 b4bb 68d6 d23d
00000070: b962 5239 bd98 8cbd fd49 df3d b033 42bd
00000080: 4bb4 00be 973c 86bd 859f 7cbb 4d20 9cbd
00000090: 414c e0bc 9a1d 9ebd 7883 bf3d e189 2439
000000a0: 8054 6f3d 3e9e a93c 8018 1cbc 167e 743b
000000b0: 8d0f e8bd 1b3a 383d eded bdb7 15b0 fe3b
000000c0: 1b27 133c 7e79 8a3c 6b48 f0bd eb2e aa3c
000000d0: fcb1 873d cf5c 1cbb 7121 a53b dd2b 993d
000000e0: d6ab 2bbc 1c4e 64bd 7726 a83d 80df 58bd
000000f0: d442 833c 7ada b5bb 2913 bf3d c71c 8abd
00000100: d735 9dbc b605 8dbd 22c6 943d b8c8 3bbd
00000110: d1a3 73bb 5210 06bd da2e 89bd 9bcc 5a3d
00000120: cbfc 44bd e69c cebc a29a 8ebd bb05 983d
00000130: 9fcf a13d 3edf 95bd 0e87 04bc 9bc6 e53d
00000140: 1ddb 92bc ae1a 983d 00e3 293d 23a6 49bd
00000150: e6b2 813d 9eac 0d3d f68d 963d 1282 1a3d
00000160: 12a4 5cbc db6c 4cbc 8e8f 823d 2fcf 933d
00000170: 3b93 13bb 66ce 1b3d f3c3 433d 47e0 653d
00000180: 2644 083d 8caa 453d fbfa 99bc 307b 4fbd
00000190: 8bdf 8cbd a1b3 95bd 072c 863d 9764 69bd
000001a0: cb98 853c d6cc 813c 3919 8fbd 1d11 eebb
000001b0: 873e 9b3c 2946 07bc 8ca1 d7bc 3630 aebd
000001c0: 5cb9 353c ef71 d93c 3d53 e73c aac0 993c
000001d0: 5f62 33bd 738e 473b 7324 65bd 08d2 4b3d
000001e0: 2beb 9ebd e2f6 a0b9 2e33 253d d031 813b
000001f0: d76b 1dbd 2adc 023d 9894 b3bd 42dd bd3d
00000200: 8b6e 46bd 00ba d9bc a5ea 4f3d cecc af3b
00000210: a65b 6f3d 18ee 903d d00d 55bd 582e aebd
00000220: 8f25 a7bd 7933 9d3a 1c0f 64bc 87d1 833d
00000230: 0387 59bd 2592 bebd 33cb 553d 4082 08bd
00000240: d6d8 32bc d1f9 9cbc c6bf 16bd 51cf 68ba
00000250: b727 36bd 9e07 4ebd c737 c73d dffe db3c
00000260: b764 e1bc aeac 84bb f3f7 9c3d 39bc 13bd
00000270: fde2 213d c8b7 9d3d 6546 813d 2d37 423d
00000280: 9b5a d43c aa2c 6b3d 5bec c93b a2c6 c6bc
00000290: 3304 b1bd dafe 853d f4c8 073d 8eb1 813d
000002a0: 96e5 e63c f51d 3dbd 2c75 28bd 21f9 2abd
000002b0: 04f1 113d 1a66 06bc 601a e0bc 455a 87bd
000002c0: 2dc6 a03d 10d0 44bd 86d6 f83d 9ea9 05bd
000002d0: fb6f cb3c c5ca 2ebb c1c4 103d 9a90 52bc
000002e0: bf1b 4a3d 2420 76bd 725c c93a b1e3 f53c
000002f0: 7e4e adbd d1ac 663d 5eca 863d bf27 0f3d
00000300: caf8 18bd fbcd 3c3b a1ee 67bd 49d1 273d
00000310: b5da ce3d 5507 09be e9c1 acbb e182 0e3e
00000320: 7685 5f3c 7213 ec3d f545 f33c 54b3 23bd
00000330: b2a2 9c3d e284 ad3d 1361 04bd ec3f 1cbe
00000340: ec88 a63b 5814 853a 0b04 82bc bf93 083d
00000350: 79a5 943c 3cfd 7ebd 59fa aa3d bf3a 163d
00000360: 6a2f d63b ed68 b73d bfee ebbd 9716 353a
00000370: 080e 253d 44b0 043d 898b 0b3e fee2 bd3c
00000380: 9eb6 81bc 590c d6bd da0b 2bbd 9640 0bbc
00000390: a461 063e 14e0 bbbc 78b7 db3d 4e2e c8bc
000003a0: 6868 a8bc 68ee af3d e893 973d 6931 593d
000003b0: 8ce3 26be a1fa 52bd b994 16bd 2b5f f33d
000003c0: 6bfb a73d c489 cbbd 027d 13be f719 afbd
000003d0: 0340 6a3d d10b 29bd 9d35 ffbc e0c3 abbc
000003e0: 56bf 26bd ff7b 123b 77a9 493d 253b a0bd
000003f0: fb90 e53d 81b9 bebd 518a 8d3d ddc3 c0bd
-0.08289903 0.1210419 0.060114242 0.024347339 -0.054689296 0.001545709 0.067369506 0.036514934
0.094667315 0.01730657 0.10738855 -0.07648902 -0.0023246342 -0.07044635 0.0019333943 -0.07749681
-0.07110591 -0.07481151 0.014642847 -0.02320318 -0.004007228 0.038882278 0.01782647 -0.098473944
0.00021807855 0.030608976 -0.005510818 0.10294801 0.00020063938 -0.0686507 0.10902784 -0.047412574
-0.12568776 -0.06554525 -0.003854723 -0.076233484 -0.02738011 -0.0772049 0.093512475 0.00015691623
0.058430195 0.020705339 -0.009527326 0.0037306598 -0.11331091 0.04497729 -2.2641349e-05 0.0077724555
0.008981491 0.016903635 -0.11732563 0.020774325 0.06625745 -0.002385903 0.005039387 0.074790694
-0.010477981 -0.055738553 0.082104616 -0.05294752 0.016023077 -0.005549726 0.093298264 -0.0674377
-0.019190712 -0.06885855 0.07264353 -0.045845717 -0.00371765 -0.032730408 -0.06698389 0.053417783
-0.048092645 -0.0252213 -0.069630876 0.07422968 0.07900929 -0.07317971 -0.00808884 0.112195216
-0.017926747 0.07426964 0.04147625 -0.049230706 0.0633295 0.03458845 0.07351296 0.0377217
-0.013466852 -0.012477125 0.06375037 0.072172515 -0.0022518176 0.038038634 0.047794294 0.05612209
0.033268116 0.04825835 -0.018796435 -0.05065459 -0.06878575 -0.07309652 0.06551366 -0.056980696
0.016308209 0.015844744 -0.06987233 -0.0072652237 0.018950714 -0.008256474 -0.026322149 -0.08505289
0.011091556 0.026543586 0.028237933 0.018768627 -0.043794986 0.0030449897 -0.055942964 0.04976085
-0.077596985 -0.0003070152 0.040332012 0.0039427057 -0.038432922 0.031948246 -0.087685764 0.09270717
-0.048445266 -0.02657795 0.050760884 0.005364991 0.058437012 0.07076663 -0.052015126 -0.08504933
-0.081614606 0.001199349 -0.013919618 0.064364485 -0.053107273 -0.093052186 0.05219574 -0.03332734
-0.0109159555 -0.01916209 -0.036803983 -0.000888099 -0.04447147 -0.050300233 0.097274356 0.02685493
-0.027513845 -0.0040489053 0.0766448 -0.036068175 0.039523114 0.07701069 0.06312255 0.0474159
0.02592211 0.05741564 0.006162209 -0.024264637 -0.08643379 0.0654275 0.03315063 0.06332694
0.028185647 -0.046171147 -0.04112737 -0.041741494 0.03563024 -0.008203054 -0.027356327 -0.066090144
0.07850299 -0.048049986 0.12150292 -0.032632463 0.02483367 -0.0026671153 0.03534389 -0.0128518585
0.049342867 -0.060089245 0.0015362634 0.030015798 -0.08462237 0.056317154 0.06581567 0.034950014
-0.03734664 0.0028809297 -0.05662406 0.040971074 0.10100309 -0.13381703 -0.0052721393 0.13917114
0.013642659 0.115271464 0.029696444 -0.039965943 0.07648219 0.08472611 -0.03231914 -0.1525876
0.0050822403 0.0010153158 -0.015871068 0.033344027 0.01814531 -0.062253222 0.08348531 0.03667712
0.006536414 0.0895556 -0.115201466 0.0006907968 0.040296584 0.032394662 0.13627447 0.023179527
-0.015834149 -0.10451574 -0.04175935 -0.008499285 0.13123184 -0.022933997 0.10728353 -0.024436142
-0.020557597 0.08590394 0.07401258 0.053025637 -0.1629774 -0.05150855 -0.036762927 0.11883386
0.08202251 -0.09938386 -0.14403155 -0.08549874 0.057189953 -0.041271035 -0.031153494 -0.020967424
-0.040709816 0.002235174 0.04923388 -0.07823781 0.112092935 -0.09312726 0.069111474 -0.09412358

attention.fc1.bias f4 [16]
00000000: 2593 b73d 4437 993a 8214 e5bc e26a 813d
00000010: 8227 f83a 0247 023d dd7d 82bc 74bb 6c3c
00000020: 47b0 883c 4126 f3bd d984 b6bd cd9b bebd
00000030: 4e37 7c3c df6e 813d 23d5 2f3d 4fea b13c
0.089636125 0.0011689444 -0.02796388 0.063192144 0.0018932673 0.031806 -0.015929157 0.014448989
0.016685618 -0.11872531 -0.089120574 -0.093070604 0.015394045 0.06319975 0.042927872 0.021718172

attention.fc2.weight f4 [4, 16]
00000000: 889b a63d 8dad 73be 8fa3 de3b 910f 8f3e
00000010: ac26 09be b7f3 293e 8297 89bb 2132 b53d
00000020: 7af5 943d e95a f7bd 7717 0b3e 82b5 3a3e
00000030: 1d35 c73d 5b07 1f3d df44 45bc c179 353e
00000040: d821 383e 98fc 74be 21ea 243e beef 783e
00000050: 74fa 7f3e ec79 513e 1fa7 0d3d 844a 7a3e
00000060: b21a 033e def7 4e3d 1afc 9ebd 24a3 033d
00000070: 4a89 593e e07d 703e d861 86bd 3712 e1bd
00000080: 9eac bcbc 49f7 5c3e fe1c c3bd 56d9 683e
00000090: 7ef3 f83c 1ce2 b13d cc53 7bbe 2e16 673e
000000a0: 40c2 35be 7018 79be 283a 543e 0185 633e
000000b0: 335a d0bd 7a40 04be e396 53be 4096 b13d
000000c0: 76dd 353e cd9d 123e 5a11 66be 6ba4 543e
000000d0: 93a5 8a3e 08b4 073d ddaa 2cbd e273 6e3e
000000e0: c72b f03d 97e8 65be 0858 7c3e 2c1a 8b3e
000000f0: 0708 aa3d 30f1 bf3c 28f9 a63d c01e 843e
0.08135134 -0.23796673 0.0067944 0.27941564 -0.13393658 0.16596876 -0.0041989693 0.08847452
0.072733834 -0.120778866 0.1358317 0.18233302 0.097269274 0.038825374 -0.012040346 0.17722227
0.1798166 -0.23924482 0.16104938 0.24310204 0.24997884 0.20456666 0.034583207 0.24442488
0.12803152 0.050529353 -0.07762928 0.032138005 0.21243778 0.23485518 -0.06561631 -0.10989802
-0.023031529 0.21578707 -0.09527014 0.22739157 0.030389544 0.08685705 -0.24543685 0.22567055
-0.17749882 -0.24325728 0.2072531 0.22218706 -0.10173454 -0.12915221 -0.20663027 0.08671236
0.17760262 0.14318009 -0.22467557 0.20765845 0.27079448 0.033130676 -0.042155135 0.23286393
0.117271 -0.22452007 0.24642956 0.27168405 0.08302312 0.023430437 0.081529915 0.2580471

attention.fc2.bias f4 [4]
00000000: 3c78 5135 388d 27b6 92b8 03b6 cdbe 72b6
7.803353e-07 -2.496714e-06 -1.9627955e-06 -3.617187e-06

fc_final.weight f4 [1, 64]
00000000: 11fc c33d c335 b83d b348 5cbd 406e 3dbd
00000010: e09f 6abd 24f7 ccbd 7fa0 05be 4a0c 02be
00000020: baa8 0a3d 7478 f1bd bd33 48bc bbd5 13bc
00000030: 1645 c0bd 8ab0 093e a48e 713d ca50 1e3d
00000040: 54f8 fb3d de74 8dbd 3977 8b3d a515 f43c
00000050: 2ca4 143e 9cff 853d 4a50 e6bd 4eb7 a83d
00000060: 43ce 063d 8dce 8c3c 0448 e83c 41fc 3f3d
00000070: 6e90 c93d 156f b7bd 6b14 93bd 9bff ebbd
00000080: 36fe f93d 0263 e8bd f70e bc3d 912a cfbd
00000090: 01d7 803c e8eb 063e 7222 cc3d 5f49 f13d
000000a0: fffc b239 c298 19be 2ba7 a93d f6c5 a53d
000000b0: ca42 2b3d 8dd3 abbd 2484 ce3b 0cdc de3d
000000c0: fbbb 083e 2ea1 11be 6548 8fbd a847 8abd
000000d0: 8b07 6dbd d609 f53d a142 583d 4925 a6bb
000000e0: 4ef7 81bd 5fa3 243e 03b6 203e 8c3b d23d
000000f0: 45a2 13be 4346 4a3d 4b3d 003e 4c0e bfbd
0.09569562 0.08994629 -0.05378027 -0.04624772 -0.057281375 -0.10008076 -0.13049506 -0.127
0.033852316 -0.11790553 -0.012219367 -0.009023125 -0.09388177 0.1344625 0.058973923 0.038651265
0.12303224 -0.06907056 0.06809849 0.029795477 0.14515752 0.06542894 -0.11245783 0.082380876
0.03291155 0.017188335 0.028354652 0.046871427 0.09842001 -0.08956734 -0.07181629 -0.11523362
0.1220669 -0.11347009 0.09182542 -0.10115541 0.015727522 0.13175929 0.099675074 0.117815726
0.00034139302 -0.14999679 0.08283838 0.08094399 0.041811742 -0.083899595 0.0063023735 0.10881814
0.13352959 -0.14221641 -0.0699623 -0.067519486 -0.05786852 0.11964767 0.052797917 -0.0050703627
-0.06345998 0.16077946 0.15694432 0.10265264 -0.1441737 0.049383413 0.12523381 -0.09328899
